model/grade.pt (torch, 801077 bytes, 14 tensors)

attention_net.0.weight f4 [256, 512]
0	0x3d86cab0	0.06581628
1	0xbdbc85b4	-0.09205189
2	0xbc4019bc	-0.011724886
3	0x3cbbe220	0.022934973
4	0xbd23307b	-0.039841156
5	0x3c9ec427	0.019380642
6	0xbd9cb033	-0.07650795
7	0x3cf2bc69	0.029630857
8	0x3a9751ac	0.0011544726
9	0x3cedc2ca	0.029023547
10	0xbda4f3c3	-0.08054306
11	0x3cff1cd1	0.03114167
12	0xbb886c13	-0.004163274
13	0x3dc9e300	0.0985775
14	0xbd235671	-0.03987736
15	0xbd25e220	-0.040498853
16	0xbc53eb49	-0.012934514
17	0xbc58cda4	-0.013232622
18	0x3d5426d4	0.051794842
19	0xbca6573f	-0.020305274
20	0xbd46d9bc	-0.04854749
21	0xbc24a1d7	-0.010048351
22	0xbdd0f554	-0.102030426
23	0x3d405232	0.046953388
24	0x3d7202da	0.05908475
25	0x3d9faaf9	0.07796282
26	0xbd0a7c8f	-0.033810195
27	0x3d414e76	0.047193967
28	0x3d33340f	0.04375082
29	0x3d276676	0.0408692
30	0xbd036234	-0.032076076
31	0x3d09a119	0.0336009
32	0xbd882ee6	-0.0664957
33	0xbc9c7ffa	-0.019103993
34	0x3c901832	0.017589662
35	0x3e0ed972	0.13950136
36	0xbc1d0068	-0.009582616
37	0xbd43d23c	-0.047807917
38	0xbc761bdb	-0.01502129
39	0xbd09bf5d	-0.033629764
40	0x3bc7e5d6	0.0061003966
41	0xbd57aae8	-0.052653223
42	0x3c304d9f	0.010760694
43	0x3a044045	0.00050449773
44	0x3c32ca5c	0.010912504
45	0x3d25933e	0.040423624
46	0xbd6d6bf9	-0.0579643
47	0x3d9f38d8	0.07774514
48	0xbcdda0de	-0.027054247
49	0xbbdf637f	-0.006817281
50	0xbdfed35e	-0.12442659
51	0x3b2fd015	0.0026826907
52	0xbc6d8beb	-0.014498691
53	0x3d044e49	0.03230122
54	0x3c8517e6	0.016246747
55	0x3d9cf3cc	0.07663688
56	0xbdf54e23	-0.11977794
57	0x3d1e0a1f	0.03858387
58	0xbd6afab8	-0.05736801
59	0x3ca8ed4f	0.02062097
60	0x3c63844e	0.013886524
61	0xbd37948c	-0.0448194
62	0x3db549a1	0.08851934
63	0x3c9fed01	0.019522192
64	0xbd4e1f64	-0.050322905
65	0xbce963c0	-0.028489947
66	0x3dea73be	0.11447857
67	0x3ccc734b	0.02495732
68	0x3c65bc20	0.014021903
69	0xbd39f967	-0.045403864
70	0xbca940a6	-0.02066071
71	0xbdb62cf1	-0.08895291
72	0x3b9b1462	0.0047326544
73	0x3d886295	0.06659428
74	0xbd0d368f	-0.03447586
75	0xbd5c327a	-0.053759076
76	0x3d05b359	0.032641742
77	0xbce350ae	-0.027748432
78	0x3d0b89ff	0.03406715
79	0x3d3d2cf5	0.046185452
80	0x3be04ded	0.006845227
81	0xbd84c363	-0.064825796
82	0xbc96ffdb	-0.018432548
83	0xbc8e2790	-0.01735285
84	0x3cf3c040	0.029754758
85	0x3d775800	0.060386658
86	0xbcd9624f	-0.026536135
87	0xbde28a4f	-0.110615365
88	0x3b874f28	0.004129309
89	0x3cb60950	0.022221237
90	0x3d6dd1c7	0.058061387
91	0xbc23e525	-0.010003363
92	0x3df7d7e3	0.12101724
93	0xbdd2c292	-0.102910176
94	0xbccbe001	-0.024887087
95	0xbc232abf	-0.009958922
96	0x3d80aed7	0.06283348
97	0xbd91d860	-0.071213484
98	0xbd4faf5b	-0.05070434
99	0x3ce654f2	0.028116677
100	0x3c1995be	0.00937408
101	0xbd00556c	-0.031331465
102	0x3d5ad332	0.053424068
103	0x3cf7af62	0.030234996
104	0x3b3e53be	0.0029041613
105	0xbccd46d3	-0.025058186
106	0xbcd0afd6	-0.02547447
107	0x3cc5c244	0.024140485
108	0x3c963c8b	0.018339416
109	0xbdc19e48	-0.09454018
110	0x3d766592	0.06015546
111	0x3c658d4b	0.014010738
112	0x3cfa511c	0.030556254
113	0xbd010801	-0.031501774
114	0xba8f8dab	-0.0010952255
115	0xbd83f49f	-0.06443142
116	0x3c5396d9	0.012914383
117	0x3dd9dcb2	0.106377974
118	0x3beb5ac0	0.007182449
119	0xbd09592d	-0.03353231
120	0x3d7cae29	0.06168953
121	0xbda97913	-0.08275046
122	0x3d4eb255	0.05046304
123	0xbc191dde	-0.0093455
124	0x3c059bf9	0.008154863
125	0x3d63eac2	0.055643804
126	0xbd6e18f5	-0.05812927
127	0x3cb6bd42	0.022307042
128	0x3b4f8095	0.0031662334
129	0xbd7663bd	-0.06015371
130	0x3cccf610	0.025019675
131	0x3d87d511	0.06632436
132	0xbb80201c	-0.0039100777
133	0xbdb2e86f	-0.087357394
134	0xbbb1a634	-0.0054214243
135	0xbd2dd58d	-0.042439986
136	0xbca2787d	-0.019832844
137	0xbda99f08	-0.08282286
138	0xbab10791	-0.0013506283
139	0x3db20368	0.08692056
140	0x3c63aab8	0.013895683
141	0x3c9a1c6d	0.018812383
142	0xbc2ff6b4	-0.010739971
143	0xbcc84b40	-0.024449944
144	0x3c82505c	0.015907459
145	0xbc663dd2	-0.014052825
146	0xbd9487a6	-0.072524354
147	0x3c8f8299	0.017518329
148	0x3dc6819a	0.09692688
149	0x3a9a87ca	0.0011789736
150	0x3d67c76f	0.05658668
151	0x3c845de1	0.016158046
152	0xbd304b0b	-0.043040317
153	0x3c83b40e	0.016077068
154	0x3ce67f2e	0.028136816
155	0xbd37c66c	-0.044866964
156	0x3d867d23	0.06566837
157	0x3bd1faa1	0.006408051
158	0xbd1e7432	-0.03868503
159	0x3cd1ef59	0.025626825
160	0xbd525b06	-0.051356338
161	0xbc88b47d	-0.016687626
162	0x3da88ec2	0.08230354
163	0x3cbc3cae	0.022978153
164	0xbca2c7f4	-0.019870736
165	0x3d7a376b	0.061088007
166	0x3bbe2963	0.0058032735
167	0xbd22dfbd	-0.039764155
168	0x3b6a6b43	0.00357695
169	0xbccc73dd	-0.024957592
170	0xbc4d5a01	-0.012533666
171	0x399b1cc8	0.00029585348
172	0xbbcdaa8e	-0.006276435
173	0x3dad6c45	0.084679164
174	0x3dc78c70	0.09743583
175	0xbc98b39c	-0.018640332
176	0x3a0a7d17	0.0005282922
177	0xbda5eb64	-0.08101538
178	0x3c7aba3e	0.015303193
179	0xbd847248	-0.0646711
180	0xbd635ef2	-0.05551047
181	0xbd967ae6	-0.0734766
182	0xbd5b28a4	-0.053505555
183	0x3ce0c486	0.02743746
184	0xbd19c977	-0.037545647
185	0x3c8e30ed	0.017357314
186	0xbcd78824	-0.026310034
187	0x3c621f0d	0.013801348
188	0xbc9b5e11	-0.018965753
189	0xbdd3ffe6	-0.10351543
190	0x3c96f7d9	0.01842873
191	0xbc0f66a0	-0.008752495
192	0xbc8c22ca	-0.017106432
193	0x3df4dbc9	0.11955983
194	0xbd1de8c9	-0.03855208
195	0xbcc197b0	-0.0236319
196	0x3da55213	0.08072295
197	0x3cd2958c	0.025706075
198	0x3d019ff0	0.03164667
199	0x3b383fba	0.0028114156
200	0x3d097dec	0.033567354
201	0xbc8edf60	-0.017440498
202	0xbd2d9362	-0.042376883
203	0xbd8a3d16	-0.067499325
204	0x3c33ddc1	0.010978163
205	0xbdebfd27	-0.11522894
206	0x3d48239e	0.048862092
207	0xbceb4670	-0.02872011
208	0x38fa988c	0.00011949343
209	0x3b2dee0a	0.0026539587
210	0xbd5142df	-0.051089164
211	0x3ddfccb8	0.10927719
212	0xbc29fd2f	-0.010375305
213	0xb6483eb6	-2.9838825e-06
214	0x3db70ba8	0.0893777
215	0x3d0c19d9	0.034204338
216	0x3d2ad891	0.04171044
217	0xbd6e37be	-0.05815863
218	0xbdec8c2e	-0.11550175
219	0x3d48ec7c	0.049053654
220	0x3d93a7ee	0.072097644
221	0xbdb6a029	-0.08917267
222	0xbd845173	-0.06460848
223	0xbba8d69e	-0.0051525375
224	0x3bfcf99e	0.0077201864
225	0xbd499a88	-0.049219638
226	0x3d246bd9	0.040141914
227	0xbd236ee6	-0.039900683
228	0xbd556b7f	-0.05210447
229	0x3d1659e4	0.03670682
230	0x3cba819f	0.022766886
231	0x3dff5b56	0.12468593
232	0x3c588b91	0.013216869
233	0xbbfa4b42	-0.007638366
234	0xbc2a2a02	-0.010385992
235	0xbd03fc0a	-0.032222785
236	0xbd4d8190	-0.05017239
237	0x3d4b91a0	0.049699426
238	0x3d209a5c	0.03920971
239	0x3d2a4281	0.04156733
240	0x3d0d50bd	0.034500826
241	0x3c36aaff	0.011149167
242	0xbd9c18aa	-0.07621892
243	0x3d4a6069	0.04940835
244	0x3d326dea	0.043561853
245	0xbd02a17f	-0.031892296
246	0x3d1e731b	0.038683992
247	0xbcbeefe4	-0.023307748
248	0xbd1629c5	-0.03666093
249	0x3c34cbcc	0.011034917
250	0x3d089c93	0.033352446
251	0xbd6cb029	-0.057785187
252	0x3cd1b18e	0.02559736
253	0x3d8e991c	0.06962797
254	0x3d6558db	0.055992942
255	0xba9c1e01	-0.0011910797

attention_net.0.bias f4 [256]
0	0xbae03dfc	-0.0017108317
1	0xbbb1224c	-0.0054057
2	0xbb21b131	-0.0024672265
3	0xbbc496b9	-0.005999413
4	0xbc1a4eea	-0.009418229
5	0xbb8ef56a	-0.0043627517
6	0xbba74315	-0.0051044323
7	0xba94765d	-0.0011326779
8	0xbb9b035a	-0.004730624
9	0xbb35cb94	-0.002773975
10	0xbb95ebc8	-0.0045752265
11	0xbb668e87	-0.0035180168
12	0xbbe1ea2a	-0.0068943696
13	0xbb94f25f	-0.0045454944
14	0xbb428127	-0.0029679032
15	0xbbcb1383	-0.0061973943
16	0xbb9c44f6	-0.004768963
17	0xbba0eb65	-0.0049108737
18	0x39e37216	0.00043381815
19	0xbc04f66b	-0.008115391
20	0xbc098c07	-0.0083952015
21	0xbb045a79	-0.0020195527
22	0xbb82466b	-0.0039756796
23	0xbba3ca21	-0.004998461
24	0xbb8cb6ea	-0.004294266
25	0xbc7640e5	-0.0150301205
26	0xbc165603	-0.00917578
27	0xbaf647f1	-0.0018789751
28	0xbbbfebff	-0.0058569903
29	0xbbf0e753	-0.0073517947
30	0xbc2aa9d7	-0.01041647
31	0xbbc9a3c3	-0.006153555
32	0xbb7c84c7	-0.003853129
33	0xbbf73a1d	-0.0075447694
34	0xbc4d12f3	-0.012516725
35	0xbc055158	-0.00813707
36	0xbb98887f	-0.0046549435
37	0xbba85e71	-0.0051382114
38	0xbb4f4973	-0.0031629473
39	0xbb8f2117	-0.0043679583
40	0xbbec0981	-0.0072032814
41	0xbbe77b5d	-0.0070642666
42	0xbb9105fe	-0.004425763
43	0xbb8850d8	-0.004160028
44	0xbc24ad77	-0.010051123
45	0xbc449b24	-0.011999879
46	0xbbbd8f3b	-0.0057848967
47	0xbc071aae	-0.008246107
48	0xbb488533	-0.003059697
49	0xbc048acb	-0.008089731
50	0xbbab2867	-0.005223322
51	0xbbbbfb31	-0.0057367315
52	0xbb829d0a	-0.0039860057
53	0xbbd5da25	-0.006526249
54	0xbc0ee725	-0.008722101
55	0xbb440873	-0.0029912263
56	0xbb40f644	-0.002944366
57	0xbc42e742	-0.0118959565
58	0xba142b72	-0.0005652226
59	0xbc582aac	-0.0131937675
60	0xbb1f566f	-0.0024312993
61	0xbbe04713	-0.00684441
62	0xbb9ff1a1	-0.0048810993
63	0xbc0b2fc6	-0.008495277
64	0xbc68d311	-0.014210478
65	0xbbae6902	-0.0053225765
66	0xbbc67782	-0.006056727
67	0xbb63fce7	-0.0034788193
68	0xbbcc6a05	-0.0062382245
69	0xbb9411e3	-0.004518734
70	0xbbce29eb	-0.006291618
71	0xbb68fc0f	-0.003555063
72	0xbbecd26f	-0.007227234
73	0xbb8ed03e	-0.0043583205
74	0xbbecf0af	-0.00723084
75	0xbb30687f	-0.0026917753
76	0xbaf492e2	-0.0018659497
77	0xbb1ade08	-0.0023630876
78	0xbb0133f2	-0.00197148
79	0x3bd647f6	0.00653934
80	0xbca05ab9	-0.01957451
81	0xbbae5fc1	-0.0053214733
82	0xbbd81a86	-0.0065949587
83	0xbbaee2b0	-0.005337082
84	0xbc44e08f	-0.01201643
85	0xbc053c81	-0.008132101
86	0xbc16b097	-0.009197376
87	0xba16020b	-0.00057223503
88	0xbb3c0796	-0.0028691045
89	0x3a7440fc	0.0009317545
90	0x3aaeca25	0.001333539
91	0xbc33890b	-0.010957967
92	0xbc1aa746	-0.009439295
93	0xbbc9b38d	-0.0061554373
94	0xbaeaf87a	-0.0017926835
95	0xbb947d03	-0.004531504
96	0xbbc78495	-0.006088803
97	0xbb807ec5	-0.003921362
98	0xbc085424	-0.008320842
99	0xbba464f8	-0.005016919
100	0xbb37b0b6	-0.0028028912
101	0xbbd0f08b	-0.006376331
102	0xbac93130	-0.0015349742
103	0xbb9121d0	-0.0044290796
104	0xbc12b207	-0.008953578
105	0xba845ff4	-0.0010099397
106	0xb894ecde	-7.10131e-05
107	0xb982d440	-0.0002495367
108	0xbc0ef9af	-0.008726521
109	0xbb16b942	-0.0022998606
110	0xba56fa21	-0.0008200724
111	0xbc4417b6	-0.011968544
112	0xbb8c9e29	-0.004291315
113	0xbb6ba9bb	-0.0035959322
114	0xbae324c4	-0.0017329683
115	0xbb3d79b4	-0.0028911652
116	0xbb9ce775	-0.004788334
117	0xbbb2ec16	-0.0054602725
118	0x3b19f978	0.0023494642
119	0xbb48130a	-0.0030528926
120	0xbb3d5531	-0.002888989
121	0xbbe7c9af	-0.007073603
122	0xbb730d18	-0.0037086662
123	0xbb1830be	-0.0023222412
124	0xbb2374db	-0.0024941477
125	0xbbbca7b5	-0.005757297
126	0xbba3356b	-0.004980733
127	0xbbe7bf67	-0.0070723775
128	0xbb7d3caa	-0.0038640895
129	0xbbbe844e	-0.005814112
130	0xbc4d1415	-0.012516995
131	0xba849b3e	-0.0010117067
132	0xbba92105	-0.005161407
133	0xbbb039c6	-0.005377981
134	0xbb90a7b4	-0.004414523
135	0xbbd6d1df	-0.0065557803
136	0xbc121e0c	-0.008918297
137	0xba1865cc	-0.0005813509
138	0xbb705760	-0.0036673173
139	0xbb390d50	-0.0028236695
140	0xbc8914b9	-0.016733514
141	0xba2827f0	-0.00064146426
142	0xbbda0ba9	-0.006654222
143	0xbbfbb7e3	-0.007681833
144	0xbc8eeddd	-0.017447406
145	0xbb1813ff	-0.0023205278
146	0x37723ccb	1.44384785e-05
147	0xbb65b47d	-0.0035050206
148	0x3bf16b6b	0.0073675415
149	0xbc160330	-0.009156033
150	0xbbe6bebe	-0.007041781
151	0xbc09d18a	-0.008411774
152	0xbaaf8331	-0.0013390539
153	0xbb6621e1	-0.0035115408
154	0xbbe696d7	-0.0070370245
155	0xbbbfd2b4	-0.005853975
156	0xbbca02d7	-0.0061648893
157	0xbb812fef	-0.0039424817
158	0xbbdd3f54	-0.006751934
159	0xbb96fbc1	-0.004607648
160	0xbc0eca53	-0.00871523
161	0xbb454951	-0.0030103514
162	0xbb61d825	-0.0034461108
163	0xbaf8647c	-0.0018950845
164	0xb9ed03e2	-0.00045207056
165	0xbba05d86	-0.0048939614
166	0xbc4a9159	-0.012363755
167	0xbb957d01	-0.004562021
168	0xba2648ee	-0.0006343265
169	0xbc28ec37	-0.010310224
170	0xbb30037a	-0.002685754
171	0xbb921890	-0.0044584945
172	0xbc68c8f0	-0.0142080635
173	0xbb51bec1	-0.0032004567
174	0x3b90befb	0.004417298
175	0xba851df6	-0.0010156024
176	0xbb0cae26	-0.0021466105
177	0xbb41a2af	-0.002954643
178	0xbaff0de3	-0.0019459095
179	0xbc3f0a4e	-0.011660172
180	0xbbf5ad9b	-0.007497502
181	0xbb6779ee	-0.0035320478
182	0xbb8b7457	-0.004255812
183	0xbc1091cd	-0.008823824
184	0xba15b7d4	-0.00057112915
185	0xbb09991e	-0.0020995806
186	0xbb99d80b	-0.004694944
187	0xbb8cedec	-0.0043008234
188	0xbb9f9d4a	-0.0048710452
189	0xbc604377	-0.01368796
190	0xbc13525f	-0.008991807
191	0xbb557845	-0.0032572907
192	0xbb6a6678	-0.0035766643
193	0xb967ba5d	-0.00022099302
194	0xbbd3495b	-0.0064479536
195	0xbb56aec5	-0.003275798
196	0xbbf3448d	-0.0074239434
197	0xbbeea9bf	-0.007283419
198	0xbc5d4973	-0.013506281
199	0xbb353fcb	-0.0027656432
200	0xbc34cea6	-0.011035597
201	0xbc19bd17	-0.009383461
202	0xbb603e6f	-0.00342169
203	0xba5086f0	-0.00079546776
204	0xbb6bbba2	-0.0035969992
205	0x39d6085c	0.0004082349
206	0xbbe8c748	-0.0071038343
207	0xbbd19aa2	-0.0063966075
208	0xbbc78836	-0.0060892357
209	0xbb730e03	-0.003708721
210	0xbb6bc607	-0.0035976188
211	0xbc047f0d	-0.008086932
212	0xbb8fa30a	-0.0043834494
213	0xbbc099f5	-0.005877728
214	0xbbc35836	-0.0059614433
215	0xbc3e843c	-0.011628207
216	0xbbb6cb17	-0.0055784094
217	0xbc04ea3e	-0.008112488
218	0xbbd9b6ba	-0.006644097
219	0xbb257d4a	-0.002525168
220	0xbb3f31ae	-0.0029173899
221	0x3b965c66	0.0045886515
222	0xbb39cd72	-0.0028351215
223	0xbbf4e074	-0.007473046
224	0xbb2759d3	-0.0025535717
225	0xbc23d88e	-0.010000361
226	0xbb6196c8	-0.0034422148
227	0xbba2b208	-0.0049650706
228	0xbbdcc1b8	-0.0067369603
229	0xbc274b9e	-0.0102109
230	0xbbd88fb3	-0.006608927
231	0xbbea1ece	-0.0071447855
232	0xbc23fda4	-0.010009203
233	0xbb7f08bf	-0.0038915125
234	0xbadeadc3	-0.0016989041
235	0xbae5b6ac	-0.0017525754
236	0xbb77be7e	-0.0037802751
237	0xbc2ee01e	-0.010673551
238	0x3b4282a4	0.0029679919
239	0xbb8f4811	-0.0043726047
240	0xbc08e940	-0.008356392
241	0xba637edf	-0.0008678268
242	0xbad5fca9	-0.0016325909
243	0xbaafa533	-0.0013400674
244	0xbbe76c6e	-0.0070624864
245	0xbb82c969	-0.003991295
246	0x3b2a3342	0.0025970493
247	0x3b48a7b3	0.0030617535
248	0xbbe2696e	-0.006909541
249	0x3bd803a5	0.0065922313
250	0xbb5906b2	-0.0033115563
251	0xbbbd459d	-0.005776121
252	0xbabf411a	-0.0014591545
253	0xbaece904	-0.0018074815
254	0xbb80d7e4	-0.003931986
255	0xba64359d	-0.0008705499

attention_net.3.attention_a.0.weight f4 [128, 256]
0	0x3c6a89d9	0.014315092
1	0x3b72aed2	0.003703047
2	0x3d65c21b	0.056093317
3	0xbc3af47d	-0.01141083
4	0x3d801580	0.06254101
5	0x3d5486f3	0.05188651
6	0xbd58e560	-0.052953124
7	0xbc2c8356	-0.01052936
8	0xbd953548	-0.07285553
9	0x3d4f2fe6	0.05058279
10	0x3d7bca2b	0.0614721
11	0x3cf652d5	0.030068794
12	0xbe097868	-0.13424838
13	0x3cda4d66	0.026648235
14	0xbd9eb7d2	-0.07749905
15	0x3c55cdfc	0.013049599
16	0xbd67e48e	-0.05661445
17	0x3ba4ffae	0.005035362
18	0x3cbbb886	0.022915136
19	0x3d6abc1c	0.0573083
20	0xbbcbb1a1	-0.0062162434
21	0xbcdc674b	-0.026904723
22	0x3d052e6a	0.032514967
23	0xbd5abc0b	-0.053401988
24	0xbd7ba14d	-0.061433125
25	0x3d8da0ef	0.06915461
26	0x3d4f14f5	0.050557096
27	0x3e2eba20	0.17063189
28	0xbd6a4321	-0.057192925
29	0x3dbd3f1d	0.092405535
30	0x3d8a15d6	0.06742446
31	0xbd96a664	-0.07355955
32	0x3ce6b1f8	0.028161034
33	0x3dd00b61	0.1015842
34	0x3b8b243b	0.0042462624
35	0x3d710129	0.058838997
36	0x3dd8e155	0.10589854
37	0xbe0c1b7a	-0.13682356
38	0x3d708e31	0.058729354
39	0xbd4f6737	-0.050635543
40	0xbb743c91	-0.0037267546
41	0x3d875406	0.06607823
42	0x3cf48f04	0.029853351
43	0xbdb36c90	-0.08760941
44	0xbd5be47f	-0.053684708
45	0x3d2d4390	0.04230076
46	0xbc8366bd	-0.0160402
47	0x3af9f309	0.0019069623
48	0xbe330c6d	-0.17485209
49	0x3cd91ac5	0.026502023
50	0x3d6f6204	0.058443084
51	0xbc5716b4	-0.013127971
52	0x3d9de95d	0.07710526
53	0x3d0aecca	0.033917226
54	0xbc646477	-0.013939968
55	0x3dbdec81	0.09273625
56	0x3d8b1e5b	0.06792899
57	0xbd80d9b7	-0.06291526
58	0xbe239ccc	-0.15977782
59	0x3c8c1ee3	0.017104572
60	0x3c1fff14	0.009765405
61	0xbc602b79	-0.01368224
62	0xbd2b0cdb	-0.041760307
63	0x3e198e4b	0.14995687
64	0x3cbd1c9b	0.02308493
65	0x3d8e3691	0.069440015
66	0xbd58a110	-0.052887976
67	0xbca7fe6f	-0.020507066
68	0x3d5a8e9e	0.053358667
69	0xbb88995c	-0.0041686725
70	0x3e09bcbb	0.13450901
71	0x3cfbdb44	0.030744202
72	0x3b788534	0.0037921192
73	0x3d5629e4	0.052286044
74	0xbcbfaecb	-0.023398777
75	0x3e79902b	0.24371402
76	0xbccb61a3	-0.02482683
77	0x3df0f1d1	0.11764873
78	0xbd9cd580	-0.076579094
79	0x3dce95f7	0.10087197
80	0xbcd73f24	-0.026275225
81	0xbd115ed5	-0.03549083
82	0x3dc78240	0.0974164
83	0x3dd0085a	0.10157843
84	0xbdcdf937	-0.100572996
85	0xbd0cdea1	-0.034392003
86	0xbd8004b8	-0.062509
87	0x3cbbbea2	0.02291805
88	0xbcaa6503	-0.02080012
89	0x3deb8be1	0.11501289
90	0x3e0e39a8	0.13889182
91	0xbbc03df4	-0.0058667604
92	0xbcee86e5	-0.029117057
93	0xbaf4b4bd	-0.0018669587
94	0xbd71b06f	-0.05900615
95	0xbd0b8338	-0.034060687
96	0xbd6548e5	-0.05597772
97	0x3df30424	0.11866024
98	0x3d6dd6b8	0.0580661
99	0x3e2068b4	0.15664941
100	0x3c8aa728	0.01692541
101	0x3d152328	0.03641048
102	0xbdc70dc6	-0.09719424
103	0x39c295fd	0.00037114313
104	0x3be08821	0.0068521653
105	0x3d82d9cd	0.063891985
106	0x3ddd5058	0.1080634
107	0xbcd0e58a	-0.025500078
108	0x3dd45016	0.10366838
109	0x3d0e4c37	0.034740653
110	0x3cf054c6	0.029337298
111	0x3d2073e5	0.039173026
112	0xbd4aa0ba	-0.049469687
113	0xbd41b705	-0.04729368
114	0x3b428ead	0.0029687092
115	0x3ccbd243	0.024880534
116	0x3bd6ab99	0.0065512178
117	0x3ca4cdab	0.020117601
118	0x3e1d64ec	0.1537053
119	0xbbc76fbb	-0.0060863174
120	0xbcdcaf04	-0.026938923
121	0x3d9f332a	0.07773431
122	0x3cfd3f96	0.03091411
123	0x3d25f63f	0.04051804
124	0xbc9f91f9	-0.019478785
125	0xbce2c5cb	-0.027682206
126	0xbdb95bf4	-0.09050742
127	0xbd64bc58	-0.05584368
128	0xbd53a3b9	-0.05166981
129	0xbdf2e4c5	-0.118600406
130	0xbd35248b	-0.044224303
131	0x3d033c96	0.0320402
132	0x3da926fd	0.082593895
133	0x3d3b924d	0.04579382
134	0x3d836022	0.0641482
135	0x3dc3ab77	0.09554189
136	0xbc6c6dd3	-0.014430481
137	0xbc536974	-0.01290356
138	0x3b88725a	0.0041640224
139	0x3d6ab394	0.057300165
140	0x3df304ab	0.11866125
141	0xbdc06720	-0.093946695
142	0xbd9adb35	-0.07561342
143	0xbd7e28b6	-0.062050544
144	0xbd711c2c	-0.058864757
145	0xbd94713d	-0.07248161
146	0x3cfc6f2a	0.030814726
147	0xbcce66d0	-0.02519551
148	0x3dd806f6	0.10548203
149	0xbd13f443	-0.036121618
150	0x3cf7cd99	0.030249404
151	0xbac83c63	-0.0015276786
152	0xbd425d5c	-0.047452316
153	0xbce70cbd	-0.028204316
154	0x3d366ad6	0.04453548
155	0xbda56ce2	-0.080774084
156	0xbdacb09a	-0.084321216
157	0xbcca7c34	-0.024717428
158	0xbd80e05c	-0.06292793
159	0x3d04b02f	0.032394584
160	0x3d694a4d	0.056955624
161	0xbd7a3996	-0.061090074
162	0xbda25c1c	-0.07927725
163	0x3d178f62	0.037001975
164	0x3ac8244c	0.0015269606
165	0x3d1898a2	0.037254937
166	0xbc9fe597	-0.019518657
167	0xbd591640	-0.052999735
168	0xbd51b8ad	-0.05120151
169	0xbd9b7984	-0.07591537
170	0xba44857f	-0.0007496699
171	0x3dc95f8d	0.09832678
172	0x3cfc01d3	0.030762589
173	0x3d4c8f35	0.04994126
174	0xbcae01a5	-0.021241019
175	0xbc177a34	-0.009245444
176	0x3d428649	0.047491346
177	0x3d8093f1	0.062782176
178	0xbc4078d5	-0.011747559
179	0xbde23337	-0.11044925
180	0x3ce687ba	0.028140891
181	0x3c5bb4ea	0.0134098325
182	0x3e19f50e	0.15034887
183	0xbe1e5ccd	-0.15465088
184	0x3d716633	0.058935355
185	0xbce438a7	-0.027859045
186	0x3df7ccbe	0.12099598
187	0x3ce9b279	0.028527485
188	0xbb02a202	-0.001993299
189	0x3dbd3470	0.09238517
190	0x3d2660a3	0.040619504
191	0x3bbe7776	0.0058125807
192	0x3dce3bfc	0.10070035
193	0xbda5759c	-0.08079073
194	0xbbb671a9	-0.0055677486
195	0xbda3535e	-0.079748854
196	0xbd5a55a6	-0.053304337
197	0xbd1d1200	-0.038347244
198	0x3c916cb7	0.017752035
199	0xbd336d5a	-0.043805458
200	0x3b8618f9	0.0040923324
201	0xbd57bfed	-0.05267327
202	0x3d549b6e	0.05190604
203	0x3e33c494	0.17555457
204	0xbda2e342	-0.07953502
205	0xbd392217	-0.045198526
206	0xbd590585	-0.05298378
207	0x3cb73e44	0.022368558
208	0xbd83e763	-0.06440618
209	0xbda05bb3	-0.0782999
210	0xbba9ad84	-0.0051781554
211	0xbcaa92c3	-0.020821935
212	0xbd1db3f0	-0.03850168
213	0x3d2d8ea5	0.042372365
214	0x3cd011ef	0.025399176
215	0x3d95cf73	0.073149584
216	0x3d7891ab	0.060685795
217	0x3dee7d96	0.11645047
218	0xbd3b1108	-0.04567054
219	0x3cce09e4	0.0251512
220	0xbde653af	-0.1124643
221	0x3cd4f7ed	0.025997126
222	0xbdfe3020	-0.12411523
223	0x3c0e8965	0.00869975
224	0xbd75aaf5	-0.05997749
225	0x3d4f49b6	0.050607406
226	0x3daa9c75	0.08330623
227	0x3d961b8d	0.07329474
228	0xbcdabb0c	-0.026700519
229	0xbc04737b	-0.008084173
230	0x3c4e4cab	0.012591521
231	0xbc061930	-0.008184716
232	0x3d262457	0.040562
233	0xbc9db603	-0.019251829
234	0xbc9fe286	-0.019517194
235	0xbc01c95d	-0.007921544
236	0x3cf04b58	0.029332802
237	0xbc04f792	-0.008115666
238	0xbdefb5c0	-0.11704588
239	0xbe64d856	-0.2234815
240	0x3c9d27b0	0.019183964
241	0xbcc06762	-0.023486797
242	0xbd5e97f4	-0.054344133
243	0x3de80b13	0.11330237
244	0xbbeac253	-0.0071642785
245	0x3d0b4d55	0.034009296
246	0x3d190ef6	0.037367783
247	0xbc338e42	-0.01095921
248	0xbce80eb5	-0.028327325
249	0x3cdd7b83	0.027036434
250	0xbdbc15e9	-0.091838665
251	0xbc826f5c	-0.01592224
252	0x3dc74838	0.097305715
253	0x3d9ceabd	0.0766196
254	0xbcdc4a70	-0.026890963
255	0xbd811414	-0.06302658

attention_net.3.attention_a.0.bias f4 [128]
0	0x3c4e83f0	0.012604699
1	0x3ca6c0d8	0.020355627
2	0xbc1fc98e	-0.009752644
3	0x3cca1287	0.024667038
4	0xbcab44d1	-0.020906838
5	0xbc34512b	-0.01100568
6	0xbc4b7242	-0.012417378
7	0xbc9e7d11	-0.019346746
8	0x38804993	6.11722e-05
9	0xbbff43a1	-0.0077900444
10	0x3aa216d0	0.0012366418
11	0xbc9becf0	-0.019033879
12	0xbc5d4aa4	-0.013506565
13	0xbaff6d56	-0.0019487541
14	0xbbfa3eea	-0.0076368945
15	0xbc8f4924	-0.01749093
16	0xbcdbd4c6	-0.026834857
17	0xbb480287	-0.0030519085
18	0x3cb34ba6	0.021886658
19	0xba8663c2	-0.0010253119
20	0xbc1e1a1a	-0.009649778
21	0x3c944777	0.018100483
22	0x3c1f2a45	0.009714668
23	0xbbbf3ed3	-0.0058363467
24	0x3b5cefd6	0.003371229
25	0x3c523e45	0.012832229
26	0x3b45cfb5	0.0030183617
27	0xbbe57418	-0.007002365
28	0x3bb46329	0.005504985
29	0x3c25707c	0.010097619
30	0xbbd7c95b	-0.0065852827
31	0x3c02462f	0.007951303
32	0x3c7ac8c2	0.015306653
33	0x3aeb8743	0.0017969388
34	0xbabf2b0b	-0.0014584971
35	0x3c8d5dd1	0.01725665
36	0xbc45e9dd	-0.012079683
37	0xbc447afc	-0.011992212
38	0x38a1ebe9	7.72102e-05
39	0xbb57fe6a	-0.003295804
40	0x3c5742ad	0.013138455
41	0xbb01f1a1	-0.001982786
42	0x3bff3dda	0.0077893557
43	0x3a283dd7	0.0006417906
44	0x3c9844fb	0.01858758
45	0x3b842a9e	0.0040334007
46	0xba301907	-0.00067175966
47	0xbc9079b8	-0.017636165
48	0xbb397f7b	-0.0028304744
49	0x3b74da29	0.003736148
50	0x3aac8ea3	0.0013165068
51	0x3c67d45a	0.01414975
52	0xbb5d6cac	-0.0033786697
53	0x3cf60f7d	0.030036682
54	0x3a938274	0.0011254088
55	0xbb2ea26a	-0.00266471
56	0x3cdb5be6	0.026777219
57	0xbc17b82c	-0.009260219
58	0xbc0de8a5	-0.008661424
59	0x3ca4c7b8	0.020114765
60	0x3c02cd49	0.007983514
61	0xbbb6625d	-0.005565925
62	0x398fe10e	0.00027442764
63	0x3c140e08	0.009036548
64	0x3c408afc	0.011751886
65	0xbba25fc0	-0.004955262
66	0x3c45a0db	0.012062277
67	0xbac92dca	-0.0015348729
68	0xbbb5d5ba	-0.00554916
69	0xbc045a06	-0.008078104
70	0x3ad37f2c	0.0016135923
71	0xbc5ddd90	-0.013541594
72	0x3c8469b3	0.016163683
73	0xbca538da	-0.02016871
74	0xbbf98a85	-0.00761539
75	0xbb9b0358	-0.004730623
76	0x3baca3b0	0.0052685365
77	0xbb32fbb6	-0.0027310676
78	0xbc618339	-0.013764196
79	0xbbae847f	-0.0053258534
80	0x3acf72e8	0.0015827091
81	0x3a2bec89	0.0006558379
82	0x39e21ebc	0.00043128978
83	0xbc6298c0	-0.013830364
84	0xbc01a6ec	-0.007913332
85	0x3c5281b7	0.012848309
86	0xbabbb790	-0.0014321674
87	0xbbdbfd7a	-0.0067135664
88	0xba062150	-0.0005116658
89	0x3c1b8a8d	0.009493482
90	0x3c07c6c5	0.008287136
91	0xbc064954	-0.008196194
92	0x3c02904b	0.007968972
93	0x3b958e4d	0.0045640827
94	0x3bb6ee39	0.0055825976
95	0xbc2ed0d7	-0.0106699085
96	0x3a9b42ca	0.0011845466
97	0xbc5e1f2f	-0.013557239
98	0xbc574420	-0.013138801
99	0x3c2b6177	0.010460249
100	0xbc0fd741	-0.008779348
101	0x3c70fec0	0.014709175
102	0x3c2cbe86	0.010543471
103	0xbc8fc1f7	-0.017548544
104	0xbc0a13cf	-0.008427574
105	0xbc96c230	-0.018403143
106	0xbb7992c0	-0.0038081855
107	0x3bd00cb8	0.0063491724
108	0xbc6caf13	-0.014446038
109	0xbb2bad73	-0.0026195913
110	0x3b3344e9	0.0027354306
111	0x3ab420a9	0.0013742644
112	0xbb56b820	-0.0032763556
113	0xbb91ce6d	-0.0044496567
114	0x3c23785e	0.009977428
115	0x3b98571b	0.0046490557
116	0xbb1d8fca	-0.0024042004
117	0xbab7ba6d	-0.0014017351
118	0x39fd5df9	0.00048325935
119	0x3bccec0a	0.006253724
120	0x3c921ed7	0.017836971
121	0x38e0a8a7	0.00010712566
122	0x3c311d24	0.01081017
123	0x3a8c38e1	0.0010698104
124	0x3c5298d5	0.012853821
125	0xbc74886e	-0.0149251055
126	0xbc8cad3b	-0.017172446
127	0x3b545f2d	0.0032405362

attention_net.3.attention_b.0.weight f4 [128, 256]
0	0xbd057bac	-0.032588646
1	0x3cb3188d	0.021862293
2	0x3cb85f03	0.022506243
3	0xbd85207c	-0.065003365
4	0xbdf90e1e	-0.12160896
5	0xbc8f9fbf	-0.017532228
6	0xbcec30ef	-0.028831927
7	0xbd0f6d74	-0.035016492
8	0x3e1ba40d	0.15199299
9	0xbd8bb344	-0.068213016
10	0x3e1029e7	0.14078484
11	0xbd0416c2	-0.032248266
12	0xbd0e68ed	-0.034768034
13	0xbd5d6580	-0.054051876
14	0xbda62d01	-0.081140526
15	0xbd1e7c5e	-0.038692825
16	0xbcc36931	-0.02385387
17	0x3d4cc162	0.04998911
18	0x3dc2a131	0.09503401
19	0x3d42c1dd	0.047548164
20	0x3d192077	0.037384477
21	0x3c387b93	0.011259931
22	0x3d0de93a	0.03464625
23	0x3a5201d3	0.0008011136
24	0x3dd425d6	0.10358779
25	0x3cfd725b	0.030938318
26	0xbd898005	-0.06713871
27	0xbd2405a8	-0.040044457
28	0x3c88ec81	0.016714336
29	0xbb6530c3	-0.0034971691
30	0x3d99d2bd	0.07510898
31	0xbd396cac	-0.045269653
32	0x3c93464d	0.017977858
33	0x3d9d0292	0.07666506
34	0xbd43d224	-0.047807828
35	0x3d13d994	0.03609617
36	0xbd8fe840	-0.0702672
37	0x3d8409f2	0.064472094
38	0x3d3d284b	0.046181004
39	0xbe106e4f	-0.1410458
40	0x3cd351e0	0.025795877
41	0xbc29d552	-0.010365801
42	0x3b870eb3	0.0041216253
43	0xbd1ec4c3	-0.038761865
44	0x3d2eed4d	0.042706776
45	0xbc75d308	-0.015003927
46	0xbc3142e3	-0.01081917
47	0x3c67bcea	0.014144162
48	0xbdfeb058	-0.12435979
49	0x3c7cdb34	0.0154331215
50	0x3d72dd97	0.059293356
51	0xbd8e7368	-0.06955606
52	0xbd0d5124	-0.03450121
53	0xbd137e8f	-0.036009368
54	0x3d71f282	0.059069164
55	0x3b5c433c	0.003360941
56	0xbd002e4f	-0.031294163
57	0xbc271320	-0.010197431
58	0x3aa82995	0.0012829775
59	0xbe254057	-0.16137825
60	0x3c4a417a	0.012344712
61	0x3d5b74b7	0.053578105
62	0x3dcab930	0.09898603
63	0xbddf4701	-0.10902215
64	0x3dfb2cd7	0.12264412
65	0xbd4269fd	-0.04746436
66	0xbc382a87	-0.011240608
67	0xbb479151	-0.0030451606
68	0xbd872fc8	-0.066009104
69	0xbe09e8bb	-0.13467686
70	0x3c169f8d	0.009193313
71	0xbc2794c5	-0.0102283405
72	0x3d6d29ac	0.05790107
73	0xbc9b00fe	-0.018921372
74	0xbdfa804a	-0.122315004
75	0x3cd8a9ba	0.02644812
76	0xbdc3bffe	-0.09558104
77	0x3d561f04	0.052275673
78	0xbdf607a5	-0.12013177
79	0x3d8a78a1	0.067612894
80	0x3d57ad03	0.05265523
81	0xbd2c0cff	-0.04200458
82	0xbd92d28a	-0.071690634
83	0xbbd768f9	-0.006573793
84	0xbda9d416	-0.08292405
85	0x3d7668cb	0.060158532
86	0x3e2ff7c8	0.17184365
87	0xbe6eae2c	-0.23308629
88	0x3d33df3f	0.043914076
89	0xbe3fed56	-0.1874288
90	0x3de8d6bd	0.11369083
91	0xbc8ba423	-0.01704604
92	0xbe135dbc	-0.14391226
93	0xbd88ea5c	-0.066853255
94	0x3db6f762	0.08933903
95	0x3c79627f	0.015221237
96	0x3d19cfbe	0.037551634
97	0xbc0b6263	-0.008507344
98	0xbc88d070	-0.016700953
99	0xbd3ada21	-0.04561818
100	0xbc3167bd	-0.010827956
101	0xbc70b6b0	-0.014691994
102	0xbd8696c7	-0.06571727
103	0x3e05ddf3	0.13072948
104	0x3c51da46	0.012808388
105	0xbcf43e48	-0.029814854
106	0xbe24bba9	-0.16087212
107	0x3cce2bfc	0.025167458
108	0xbd7bf691	-0.06151444
109	0xbc04e732	-0.008111762
110	0xbdc1bb82	-0.094595924
111	0xbd93de6f	-0.0722016
112	0xbdb2a8bf	-0.08723592
113	0xbcc38989	-0.023869293
114	0x3ccbf469	0.024896817
115	0xbc4541da	-0.012039626
116	0xbd2346d4	-0.03986247
117	0xbe2380bf	-0.15967081
118	0x3db11ef0	0.08648479
119	0xbd06e58f	-0.032933768
120	0xbdb9a261	-0.090641744
121	0x3dbd3051	0.09237731
122	0xbe31bfce	-0.17358324
123	0x3ddf8517	0.10914057
124	0x3d62db3f	0.05538487
125	0x3da26fff	0.07931518
126	0x3d555ca2	0.052090295
127	0x3bcfef78	0.0063456856
128	0x3e21140a	0.157303
129	0x3de2ed96	0.11080472
130	0x3c423dca	0.011855552
131	0xbdeb2436	-0.11481516
132	0x3a32c95b	0.00068201654
133	0xbc6abe15	-0.014327546
134	0xbcc7740b	-0.024347326
135	0xbdffb2ff	-0.12485313
136	0x3c98dae9	0.018659072
137	0xbcdbd30f	-0.026834039
138	0xbcdec84a	-0.027195115
139	0x3c3d83dd	0.011567083
140	0xbd12fc2e	-0.03588503
141	0x3d0ca578	0.03433749
142	0xbc3774af	-0.011197253
143	0x3e1abbcf	0.15110706
144	0x3d2c0850	0.042000115
145	0xbcc58cc3	-0.024114972
146	0x3d5aae7b	0.053389054
147	0x3da44d50	0.08022559
148	0xbe54a9d2	-0.20767906
149	0xbdac4683	-0.084118865
150	0xbd9fab32	-0.07796325
151	0xbe0110d0	-0.1260407
152	0x3d1e19d0	0.038598835
153	0x3cf8c47c	0.030367129
154	0xbcdcc5b6	-0.026949745
155	0xbde847ad	-0.11341796
156	0x3cfdb1d2	0.03096858
157	0xbbf36c2c	-0.0074286666
158	0xbd6e81f8	-0.058229417
159	0x3cc9e772	0.024646495
160	0x3c189ff4	0.00931548
161	0x3c111288	0.008854516
162	0x3c3e5399	0.011616611
163	0xbd7109b5	-0.058847148
164	0x3cf276f9	0.029597746
165	0xbddbdd10	-0.10735524
166	0x3ac77770	0.001521809
167	0xbcdb6868	-0.026783183
168	0xbd1231d8	-0.035692066
169	0xbd86dd4a	-0.06585176
170	0x3db17aa4	0.0866597
171	0xbdda6a81	-0.10664845
172	0x3cce94f3	0.025217509
173	0x3d92ed49	0.07174165
174	0x3b24ceb9	0.002514763
175	0x3d80f870	0.06297386
176	0x3cd3534a	0.025796551
177	0x3d137298	0.035997957
178	0x3cf90bb0	0.03040108
179	0xbc9f2faa	-0.019431908
180	0x3cde1b1e	0.02711254
181	0x3c743ee3	0.0149075715
182	0xbcb145fb	-0.021639815
183	0xbdb1837a	-0.08667655
184	0x3d3cb6ef	0.046072897
185	0xbccbaaac	-0.024861656
186	0x3d7d6594	0.06186445
187	0xbd3bbf1a	-0.045836546
188	0x3ce10526	0.027468275
189	0x3dadace7	0.08480244
190	0x3d351a7f	0.04421472
191	0xbe600bb5	-0.21879466
192	0x3d2d3691	0.042288367
193	0xbd54478e	-0.051826052
194	0x3d018ccb	0.03162841
195	0x3d859f2b	0.065244995
196	0x3dae33e1	0.08505989
197	0x3c543c89	0.012953886
198	0x3d2434b3	0.04008932
199	0x3aad61dc	0.0013228017
200	0x3e04aa2b	0.12955539
201	0xbdab0bb2	-0.0835184
202	0xbdeeeaa7	-0.1166585
203	0xbd048fbc	-0.03236364
204	0xbd7d128c	-0.061785266
205	0xbe44a232	-0.19202498
206	0x3d9af389	0.07565982
207	0x3e194d73	0.14970951
208	0xbd831482	-0.06400396
209	0x3cdfbdc1	0.027312161
210	0xbcc8ebcc	-0.0245265
211	0x3d56800f	0.05236822
212	0xbd63214e	-0.055451684
213	0x3d2a4a9c	0.04157506
214	0x3dcfeae1	0.101522215
215	0xbd9dcc6c	-0.07705006
216	0xbdd6b922	-0.1048453
217	0x3ca118b5	0.019665102
218	0xbd67754a	-0.05650834
219	0xbdb94914	-0.09047142
220	0x3cbd6690	0.023120195
221	0x3d32f570	0.0436911
222	0x3c8b27e9	0.016986804
223	0x3d34b217	0.044115152
224	0xbd0d2449	-0.034458432
225	0xbca537b3	-0.020168161
226	0xbd5f92f0	-0.05458349
227	0x3d6b8b0a	0.057505645
228	0x3d87fe3a	0.06640287
229	0x3bebfb2b	0.0072015724
230	0xbd1879c1	-0.03722549
231	0x3dc8eb93	0.09810557
232	0xbde1bc7c	-0.11022279
233	0x3da62c48	0.08113915
234	0x3d148728	0.036261708
235	0x3d5e4cab	0.054272335
236	0x39eacbbf	0.0004478376
237	0xbd12a7ab	-0.035804432
238	0x3d9aef03	0.07565119
239	0xbdf4c837	-0.119522505
240	0x3e653a55	0.22385533
241	0x3e0516c7	0.1299697
242	0xbc34125d	-0.010990706
243	0xbc72e4cd	-0.014825058
244	0x3e1f4b0d	0.15555973
245	0xbdacf447	-0.0844503
246	0x3de0775c	0.10960266
247	0xbc90bf76	-0.01766942
248	0xbca53cc5	-0.020170579
249	0xbc62ee55	-0.013850768
250	0x3e347fc5	0.17626865
251	0x3cbbfc08	0.022947326
252	0x3c59c19f	0.013290792
253	0xbd83adb1	-0.064296134
254	0x3d1bd462	0.03804434
255	0x3d8c1a9f	0.06841015

attention_net.3.attention_b.0.bias f4 [128]
0	0xbb7626c5	-0.003755973
1	0xbb73b336	-0.0037185675
2	0xbbf83ff0	-0.0075759813
3	0xbcb4f731	-0.022090526
4	0x3b60b01f	0.0034284664
5	0xbc118043	-0.008880678
6	0x3c61faec	0.013792735
7	0x3b2b6680	0.0026153624
8	0x3a60353b	0.0008552854
9	0xbca2efa4	-0.01988966
10	0xbc1740e2	-0.009231778
11	0xbcaf6d4e	-0.021414425
12	0x3c18dfc6	0.0093306955
13	0x3ab13a58	0.0013521416
14	0x3c521c60	0.012824148
15	0xbc005066	-0.0078316685
16	0xbbc65be1	-0.0060534333
17	0xba186eca	-0.00058148487
18	0xbccdae9a	-0.02510767
19	0x3ccd1bea	0.025037725
20	0x3bc3a6dc	0.005970819
21	0x3a9a3c9c	0.001176733
22	0xbc05a64d	-0.008157325
23	0x3b191922	0.0023360928
24	0xbc149f94	-0.0090712495
25	0xbbf780b5	-0.007553185
26	0x3aeb6462	0.0017958994
27	0xbab84f1f	-0.0014061666
28	0xbc5b59a8	-0.013388075
29	0x3b1c71ee	0.0023871618
30	0xbc807621	-0.015681328
31	0xbbe10cd7	-0.0068679857
32	0xbbd508fe	-0.006501316
33	0x3b607343	0.003424839
34	0xbbffb082	-0.007803024
35	0xba85a2ed	-0.001019565
36	0x3b4305ae	0.0029758024
37	0x3c4dd3dc	0.012562718
38	0xbc0b2a03	-0.008493903
39	0xbc329ea6	-0.010902083
40	0x3c8f62cc	0.017503165
41	0xbb8eacb0	-0.004354082
42	0x3ae29219	0.0017285972
43	0xbbe1a036	-0.0068855537
44	0xb88093b5	-6.131028e-05
45	0xbc625b80	-0.013815761
46	0x3aba3e76	0.0014209289
47	0xbc70830a	-0.01467968
48	0xbc0792d8	-0.008274756
49	0xbbadf18b	-0.005308335
50	0x3b79c4cc	0.0038111685
51	0xbc2bdafd	-0.010489223
52	0xbc67b33f	-0.014141857
53	0xbbc6b98f	-0.006064601
54	0xbb6fd332	-0.0036594388
55	0x3bce8830	0.006302856
56	0x3a568b0e	0.0008184173
57	0xbc0943d4	-0.008377988
58	0x3a9b31c3	0.0011840392
59	0xbb4d9bcb	-0.0031373377
60	0x3b2a82fc	0.0026018014
61	0xbbd743a9	-0.006569345
62	0xbc752ab4	-0.0149637945
63	0x3c974c89	0.018469112
64	0xbc395d80	-0.011313796
65	0x3c437e79	0.011932009
66	0xbb08e5b7	-0.0020888874
67	0xbc3bd34a	-0.011463949
68	0xbccad0a6	-0.024757694
69	0xbc1b032e	-0.009461207
70	0xbbca17d6	-0.0061673922
71	0xbbec8def	-0.0072190682
72	0x3b6c0f97	0.0036020034
73	0xbc148367	-0.009064532
74	0x3b72f6d1	0.0037073384
75	0xbaf42385	-0.0018626308
76	0xbc2a012e	-0.010376258
77	0xbd01d97a	-0.031701542
78	0x3be4d61b	0.006983531
79	0xbbbd9929	-0.0057860804
80	0x3bccf43e	0.006254702
81	0x3b8baff9	0.004262921
82	0x3c069838	0.008215003
83	0x3c27630d	0.010216487
84	0xbc487de2	-0.012237044
85	0x3bc0cc1e	0.0058837077
86	0xbc9688f3	-0.01837585
87	0xbc72dc0b	-0.01482297
88	0x3c45418e	0.012039555
89	0x3bb4c78d	0.0055169524
90	0xbbf661c4	-0.007518979
91	0xbc77ea6f	-0.015131577
92	0xbcaa51d4	-0.020790972
93	0xbc00444c	-0.007828783
94	0xbb6b9bc0	-0.0035950989
95	0xbc62169f	-0.013799339
96	0xb9930351	-0.00028040496
97	0xbc388acf	-0.011263563
98	0x3c8bd9ec	0.017071687
99	0x3b0034e2	0.001956277
100	0xbc55583b	-0.013021524
101	0xbc3e3cc4	-0.011611167
102	0xbc95f53c	-0.018305413
103	0xba4cf643	-0.0007818678
104	0xbc12dcfc	-0.00896382
105	0xba065f37	-0.00051258825
106	0xbbad30bb	-0.00528535
107	0x3c019484	0.007908944
108	0xbad832a2	-0.0016494582
109	0xbc86ea1e	-0.016469058
110	0x3c143ac8	0.009047218
111	0x3b814c55	0.003945867
112	0xbb864d1f	-0.004098549
113	0xbb51865b	-0.0031970951
114	0xbc8998ea	-0.016796548
115	0x3b3da0dc	0.002893499
116	0x3b3ced98	0.002882814
117	0xbca25ffd	-0.019821161
118	0xbbd29d62	-0.006427453
119	0xbc197b1f	-0.009367733
120	0x3b2461f0	0.002508279
121	0xbafe0f08	-0.0019383142
122	0x3beb6b0e	0.007184393
123	0xbbba17c7	-0.005679104
124	0xbc80ccb1	-0.015722604
125	0x3c664fa3	0.014057073
126	0xbadef78b	-0.0017011029
127	0x3c5f5ddc	0.013633218

attention_net.3.attention_c.weight f4 [2, 128]
0	0x3d451ca7	0.048123028
1	0x3dae9754	0.08524957
2	0xbe5e1d3b	-0.21690838
3	0x3d2902ce	0.04126244
4	0xbd0763d9	-0.033054207
5	0x3d3286a3	0.04358543
6	0xbdef011a	-0.11670132
7	0xbe435925	-0.19076975
8	0x3e5487fe	0.20755002
9	0xbdb88284	-0.09009269
10	0x3d4fe606	0.050756477
11	0x3e0f6631	0.14003827
12	0x3cf03253	0.029320871
13	0xbd385552	-0.045003243
14	0xbe26633f	-0.16248797
15	0xbe5db6e4	-0.21651798
16	0xbcb1fcc2	-0.02172697
17	0x3c41e96d	0.011835438
18	0x3cd513cb	0.026010415
19	0x3e1ddfc0	0.15417385
20	0xbe0dfb51	-0.13865401
21	0x3d0f9b09	0.035059962
22	0x3cc19cc3	0.02363432
23	0x3e147b65	0.14500196
24	0xbcca95de	-0.024729665
25	0x3dda3a86	0.10655694
26	0x3e20abd0	0.15690541
27	0xbd6f4746	-0.05841758
28	0x3b6da170	0.0036259554
29	0x3de1c1f3	0.11023321
30	0xbd6f89f8	-0.058481187
31	0xbe7d91ee	-0.24762699
32	0x3c954cb9	0.01822506
33	0x3e0fadd4	0.14031154
34	0x3e159229	0.14606537
35	0x3e8809d9	0.26570013
36	0xbdbbb4da	-0.09165354
37	0x3e18771f	0.14889191
38	0x3d078b72	0.03309197
39	0xbd838f6b	-0.06423839
40	0x3cea6fe3	0.028617805
41	0xbd6b2b9c	-0.057414636
42	0x3d4e4e00	0.050367355
43	0xbd318fa4	-0.043349877
44	0x3d9e4028	0.077270806
45	0xbd1bafa0	-0.038009286
46	0x3e127e69	0.14306034
47	0xbdbf890f	-0.09352314
48	0xbc4e9d5b	-0.012610759
49	0xbe27b4c1	-0.16377546
50	0xbda22409	-0.079170294
51	0xbce6de81	-0.02818227
52	0x3e1bf376	0.15229592
53	0x3d281050	0.04103118
54	0x3e3bb93d	0.18332382
55	0xbe06c9b8	-0.13162887
56	0x3d1aa000	0.037750244
57	0x3ddc37d2	0.107528344
58	0xbd3017a7	-0.042991307
59	0x3dc99d9d	0.098445155
60	0x3d1456e7	0.03621569
61	0xbbc7bf04	-0.006095769
62	0xbdf425b0	-0.11921251
63	0xbe070a31	-0.13187481
64	0xbd0b482b	-0.03400437
65	0xbe0e2f06	-0.13885126
66	0xbd80ec0c	-0.06295022
67	0xbe2ea84d	-0.17056389
68	0x3bf4256b	0.0074507496
69	0xbc751130	-0.014957711
70	0x3d1450d9	0.036209915
71	0xbceb0f59	-0.028693842
72	0x3daa210d	0.08307085
73	0x3dbeb7a0	0.093123674
74	0x3e12a09a	0.14319077
75	0x3b4b7885	0.0031047177
76	0xbcd78999	-0.026310729
77	0xbd6579b3	-0.056024265
78	0x3dae2c81	0.08504582
79	0xbcfba389	-0.030717628
80	0xbc708ae1	-0.014681549
81	0x3de8586f	0.11344992
82	0x3e725c90	0.23668122
83	0xbc38ba13	-0.011274832
84	0xbe2b2a4d	-0.16715355
85	0x3dd46e9c	0.103726596
86	0xbcbfaef8	-0.023398861
87	0x3db03e76	0.086056635
88	0xbcdce384	-0.026963957
89	0xbcce6325	-0.02519376
90	0xbe4ff4a9	-0.20308174
91	0xbe1b2ee6	-0.15154609
92	0xbd0f3e85	-0.034971733
93	0x3e2989b9	0.16556443
94	0xbd482a32	-0.048868366
95	0xbd850f69	-0.0649708
96	0xbe013b6c	-0.12620324
97	0x3c624580	0.013810515
98	0x3d5c699f	0.053811666
99	0x3e60d076	0.21954522
100	0xbcb141fd	-0.021637911
101	0x3d0af4c8	0.033924848
102	0xbda4856f	-0.08033263
103	0xbe0b439e	-0.13600013
104	0x3cd9b075	0.0265734
105	0xbe4ac953	-0.19803362
106	0xbd65e821	-0.05612958
107	0x3db8a57a	0.09015937
108	0xbb359683	-0.002770812
109	0xbe25f0ee	-0.16205189
110	0xbdec7060	-0.11544871
111	0xbe54e8c6	-0.20791921
112	0x3d04d86c	0.03243296
113	0xbdcf5d8c	-0.101252645
114	0xbc97f68d	-0.018550182
115	0x3db84763	0.08997991
116	0x3db2ae2e	0.087246284
117	0xbd7789ec	-0.060434267
118	0xbe1fc295	-0.15601571
119	0x3caa565e	0.020793136
120	0x3ea01558	0.31266284
121	0xbd31dd6d	-0.04342406
122	0x3e051ce8	0.12999308
123	0xbd14b6ef	-0.03630727
124	0xbda0a3e5	-0.078437604
125	0xbdd69845	-0.10478262
126	0x3e2fd31d	0.17170377
127	0x3e0b4e90	0.13604188
128	0x3d25775d	0.040397037
129	0x3c715968	0.014730789
130	0xbd94c3c2	-0.072639
131	0x3e1e97b4	0.15487558
132	0xbde0ffc8	-0.109862864
133	0xbb4577e8	-0.0030131284
134	0x3baa06a8	0.005188782
135	0xbe2d2c1b	-0.16911356
136	0xbd143c19	-0.036190126
137	0x3dcc414a	0.099733904
138	0xbca24bed	-0.019811595
139	0xbd97aa5a	-0.07405539
140	0xbcba5e4f	-0.022750048
141	0x3dd10fcd	0.10208092
142	0x3d930f48	0.07180649
143	0x3d6da55a	0.05801902
144	0xbd190b77	-0.03736445
145	0xbd85c4ff	-0.06531715
146	0x3d95bc75	0.07311336
147	0x3e0d2320	0.1378293
148	0x3b7d02fc	0.0038606515
149	0x3e606299	0.21912612
150	0x3c8b4b82	0.017003778
151	0x3de6fffc	0.11279294
152	0x3d9e69ba	0.077350095
153	0xbe19ec08	-0.15031445
154	0xbd7bf191	-0.061509673
155	0xbe154ddc	-0.14580482
156	0x3c0ad752	0.008474188
157	0xbd3cb023	-0.046066415
158	0x3ddeed9f	0.108851664
159	0x3e21b89e	0.15793082
160	0xbc21e8c8	-0.0098821595
161	0x3d481113	0.04884441
162	0xbe43a435	-0.19105609
163	0x3dda4b73	0.10658922
164	0xbe73f357	-0.23823296
165	0xbe74aefc	-0.23894876
166	0xbd039876	-0.03212782
167	0xbd1ab7e6	-0.037773035
168	0x3c855831	0.016277405
169	0xbd53e041	-0.051727537
170	0xbc743036	-0.0149040725
171	0xbcb4059b	-0.02197533
172	0x3dbf9f82	0.093565956
173	0x3e1267e6	0.14297447
174	0x3d922736	0.07136385
175	0xbdda064d	-0.10645733
176	0xbd8417b8	-0.064498365
177	0xbd8a83d5	-0.06763426
178	0x3df52a78	0.11970991
179	0xbd5255d3	-0.05135138
180	0x3de8b4c8	0.11362606
181	0x3d834976	0.06410496
182	0xbd8e45c8	-0.069469035
183	0x3d95b9f9	0.07310862
184	0x3bad1a14	0.00528265
185	0xbcf620b1	-0.030044885
186	0x3c5228c5	0.012827103
187	0xbbea2ecb	-0.0071466914
188	0x3dae468d	0.0850955
189	0xbcf5be33	-0.02999792
190	0x3c99ba3b	0.01876556
191	0x3d42fba1	0.047603253
192	0x3e15837a	0.14600936
193	0x3c326112	0.010887401
194	0xbdd5be78	-0.1043672
195	0x3e7841f5	0.2424391
196	0xbd18921d	-0.03724872
197	0x3d103c14	0.035213545
198	0xbe123c1e	-0.14280745
199	0x3df9df5f	0.12200808
200	0xbd79af51	-0.06095821
201	0xbde68502	-0.11255838
202	0xbd899097	-0.067170314
203	0xbdadd750	-0.08488333
204	0xbe679d26	-0.22618541
205	0x3e053193	0.13007192
206	0xbe382722	-0.17983678
207	0xbdafa352	-0.08576073
208	0xbd6f3ad8	-0.058405727
209	0xbd4700f2	-0.048584886
210	0x3bbb2733	0.00571146
211	0xbd1aecd5	-0.037823517
212	0xbe3153e7	-0.17317162
213	0x3c8a23f5	0.016862849
214	0x3d8cba45	0.068714656
215	0xbdc39792	-0.09550394
216	0xbd1b2d28	-0.03788486
217	0xbe11b933	-0.14230804
218	0xbdc28b9b	-0.09499284
219	0x3e2535c4	0.16133791
220	0x3dd5bac5	0.10436014
221	0x3ca24299	0.019807147
222	0xbcf285fa	-0.0296049
223	0xbe053a92	-0.13010624
224	0x3d9bea3f	0.07613038
225	0xbdb8fd84	-0.09032729
226	0xbe3d4247	-0.18482314
227	0xbda17873	-0.07884302
228	0xbe273f4c	-0.1633274
229	0xbd26a251	-0.04068214
230	0x3d55853b	0.05212901
231	0x3dcb413c	0.09924552
232	0x3d4b4a27	0.049631264
233	0x3d5d5d49	0.05404404
234	0x3c9da4e5	0.019243667
235	0xba5c7d8d	-0.00084110425
236	0xbcc34626	-0.02383716
237	0x3d85fe61	0.065426596
238	0x3de38a8c	0.1111041
239	0xbd95f0f2	-0.07321347
240	0xbc84e642	-0.016223077
241	0xbd3a198f	-0.04543453
242	0x3dec8a2a	0.1154979
243	0x3e48b7a0	0.19601297
244	0xbcc45e6e	-0.023970809
245	0x3dfb16ee	0.12260233
246	0xbdd2ffab	-0.10302671
247	0x3e9d9430	0.3077712
248	0x3dc98616	0.09840028
249	0x3b614ddf	0.003437869
250	0x3d81fd07	0.06347089
251	0x3e960ec5	0.29308143
252	0xbe1cde08	-0.15319073
253	0xbdc0af4c	-0.09408435
254	0xbe237bf9	-0.1596526
255	0x3d387b4f	0.04503947

attention_net.3.attention_c.bias f4 [2]
0	0xba8e4ff7	-0.0010857572
1	0x38b4dbb9	8.6239954e-05

classifiers.0.weight f4 [1, 256]
0	0xbd98f261	-0.07468105
1	0xbd4b3cfd	-0.04961871
2	0xbdab005b	-0.08349677
3	0x3e1303c5	0.14356907
4	0x3d1ece6a	0.03877107
5	0xbd149cd8	-0.03628239
6	0xbe106142	-0.14099601
7	0xb96b74fc	-0.00022454927
8	0xbd12e111	-0.03585917
9	0x3d179930	0.037011325
10	0xbda32e8e	-0.07967864
11	0x3dadfe92	0.08495821
12	0x3cd0519a	0.025429536
13	0xbd2af1ae	-0.04173439
14	0xbcf3e9b3	-0.029774522
15	0x3da09b1e	0.07842086
16	0xbbecd96f	-0.0072280685
17	0xbc7e885d	-0.015535441
18	0xbd8aa889	-0.06770427
19	0xbda0bf5b	-0.07848998
20	0x3c5a800b	0.013336192
21	0x3a85b803	0.0010201934
22	0xbd29055f	-0.041264888
23	0xbccea182	-0.025223497
24	0xbe6aad76	-0.22917733
25	0x3c8ae517	0.016954942
26	0x3ddfbbb9	0.10924477
27	0xbe110eec	-0.14165848
28	0x3d9c3265	0.076267995
29	0xbcf0ed92	-0.029410157
30	0xbdac1e47	-0.084042124
31	0xbd5bd312	-0.05366809
32	0x3d8b4efd	0.06802175
33	0xbe1c6315	-0.15272172
34	0xbd46b9dd	-0.048517097
35	0xbe369fda	-0.17834416
36	0xbdc254bf	-0.0948882
37	0x3dc04e3d	0.09389923
38	0x3e4b186a	0.19833532
39	0xbe49681c	-0.19668621
40	0x3deed261	0.1166122
41	0xbe3657ec	-0.17806977
42	0xbd134829	-0.03595749
43	0xbdf60c9c	-0.12014124
44	0xbc253252	-0.010082798
45	0x3ddb234c	0.10700092
46	0xbd1112cd	-0.03541832
47	0x3d1d2f84	0.038375393
48	0xbdcf0160	-0.10107684
49	0xbcdbe81b	-0.026844075
50	0xbdaaf91f	-0.08348297
51	0x3ce3b604	0.027796753
52	0x3d32e70e	0.043677382
53	0x3d998602	0.07496263
54	0xbc591b9d	-0.013251212
55	0xbdd9ba44	-0.106312305
56	0x3d8dfc31	0.06932867
57	0x3c8a131d	0.016854817
58	0x3de7a590	0.113108754
59	0x3da1a29b	0.07892343
60	0xbcf62916	-0.030048888
61	0x3c4172d8	0.011807166
62	0xbba14a5c	-0.0049221944
63	0x3b3a5b80	0.0028435886
64	0xbdbc2c46	-0.09188132
65	0x3d65000e	0.055908255
66	0x3a21fd87	0.0006179441
67	0x3bf1344d	0.007360971
68	0xbe19c9a1	-0.15018322
69	0x3d548ec9	0.051893983
70	0x3ddd07bc	0.10792491
71	0x3d973d59	0.07384748
72	0xbe0b6890	-0.13614106
73	0xba80be46	-0.0009822331
74	0xbe426d1d	-0.18986936
75	0x3ce40df5	0.027838686
76	0x3c933998	0.017971799
77	0xba9d06cd	-0.0011980176
78	0xbd0f70e1	-0.03501976
79	0x3db86b36	0.09004824
80	0x3d78ffae	0.06079071
81	0x3dedcdd9	0.11611528
82	0xbdc8606a	-0.097840145
83	0x3cdf2445	0.027238974
84	0xbdda3175	-0.106539644
85	0x3c4ace00	0.012378216
86	0xbd6a2139	-0.05716059
87	0x3c55cf54	0.013049919
88	0xbd920cd9	-0.07131357
89	0xbe1c1b41	-0.15244772
90	0x3e053625	0.13008936
91	0xbe332e50	-0.17498136
92	0xbcc963bc	-0.02458369
93	0xbe15bf27	-0.146237
94	0x3c0acc87	0.008471615
95	0x3e1337c3	0.1437674
96	0x3db2eb7e	0.08736323
97	0xbdf5adfb	-0.11996075
98	0xbe129112	-0.14313152
99	0x3db90146	0.09033446
100	0x3d070027	0.03295913
101	0x3db19f3f	0.08672952
102	0x3e31b103	0.17352681
103	0xbc61d6d5	-0.01378413
104	0xbdbcebeb	-0.09224685
105	0x3df6046d	0.12012563
106	0x3d8ab418	0.067726314
107	0xbd6922ec	-0.05691807
108	0xbd2e5f46	-0.04257133
109	0x3d8beae2	0.0683191
110	0x3d94ff3a	0.07275243
111	0xbc61c972	-0.013780938
112	0x3be19d81	0.006885231
113	0x3d0d6be3	0.034526717
114	0xbd2efec9	-0.04272345
115	0x3d618fe4	0.055068865
116	0xbe184657	-0.14870583
117	0xbda63e59	-0.081173606
118	0x3cc90679	0.02453922
119	0xbdf3dc43	-0.11907246
120	0x3cc5d0ca	0.02414741
121	0x3c904d62	0.017615024
122	0x3d12f435	0.035877425
123	0x3c032df3	0.008006561
124	0x3d088720	0.03333199
125	0x3cd76073	0.026291108
126	0x3bf05bf0	0.0073351786
127	0x3b93652e	0.0044981455
128	0xbd213db8	-0.0393655
129	0xbdbcd5f2	-0.09220494
130	0xbd8e9fef	-0.06964099
131	0x3cd9ec06	0.026601803
132	0x3c680367	0.014160967
133	0xbdad0ddb	-0.08449908
134	0x3ddb5cb4	0.10711041
135	0xbdf83167	-0.12118798
136	0xbbd048eb	-0.0063563487
137	0x3ce7cd0e	0.02829602
138	0xbba64a6b	-0.0050747893
139	0xbe0b0672	-0.13576677
140	0x3d479693	0.048727583
141	0xbd706214	-0.058687285
142	0x3d970af7	0.07375138
143	0xbdb50593	-0.08838954
144	0x3d604d89	0.054761443
145	0x3daeb381	0.085303314
146	0x3d033db6	0.032041274
147	0x3ca19f33	0.019729232
148	0xbbf22b20	-0.007390395
149	0xbdb0c5b2	-0.086314574
150	0xbe15ea0d	-0.14640065
151	0x3c8d0bd0	0.017217547
152	0x3e7dd04f	0.24786495
153	0xbda326ab	-0.0796636
154	0x3d9787d3	0.07398953
155	0x3da4e831	0.080520995
156	0xbd0c54d4	-0.034260586
157	0x3df7a7f2	0.1209258
158	0xbe07c382	-0.13258174
159	0xbc43c18f	-0.011948003
160	0x3da6e929	0.081499405
161	0x3d021203	0.03175546
162	0x3ddafa2e	0.10692249
163	0xbcfdd413	-0.030984914
164	0x3e313f01	0.1730919
165	0x3d5fb1b6	0.054612838
166	0x3de7d871	0.1132058
167	0xbd9a88b7	-0.075456075
168	0xbd588f82	-0.052871235
169	0xbd0ceca0	-0.03440535
170	0x3de79da7	0.11309367
171	0x3dd3aad3	0.103353165
172	0x3d4a9618	0.049459547
173	0xbdb7453d	-0.08948753
174	0x3c9ccf2b	0.019141754
175	0x3bf42183	0.007450284
176	0xbc5627c5	-0.013071005
177	0xbccbc460	-0.024873912
178	0xbc97c962	-0.018528644
179	0xbdeb1291	-0.11478151
180	0x3d46adea	0.0485057
181	0xbb3972ad	-0.0028297112
182	0x3dba0a5c	0.09084007
183	0xbbec4b24	-0.007211106
184	0xbe868205	-0.26271072
185	0x3d86059c	0.06544039
186	0x3ce2d44c	0.027689122
187	0x3cb6e0a4	0.022323914
188	0x3e08e050	0.13366818
189	0x3d8899b7	0.06669944
190	0xbc82bdd0	-0.01595965
191	0x3c0fbbc4	0.008772794
192	0x3e1b256f	0.15150999
193	0x3d5f5530	0.0545246
194	0xbe2a083a	-0.166047
195	0x3dab5856	0.08366458
196	0x3cbd447d	0.023103947
197	0xbe11b488	-0.14229023
198	0x3e159a49	0.14609636
199	0xbe15a056	-0.14611945
200	0xbda83076	-0.08212368
201	0x3cf7b8a5	0.030239413
202	0x3d255f8c	0.040374324
203	0xbd8f92cf	-0.070104234
204	0x3daa5519	0.08317012
205	0x3cba5837	0.022747142
206	0xbc9cf166	-0.019158076
207	0x3cc5d291	0.024148257
208	0xbdd123cc	-0.10211906
209	0x3df072b7	0.1174063
210	0x3e0fb7a7	0.14034902
211	0xbce345cf	-0.027743248
212	0xbd5f9f48	-0.05459526
213	0x3d5b1757	0.053489055
214	0xbd6c0176	-0.05761858
215	0x3dbb0f74	0.09133807
216	0xbd4d4a08	-0.05011943
217	0xbe764b28	-0.24052107
218	0x3d8c743d	0.06858108
219	0xbd092d36	-0.033490382
220	0x3ddd7e31	0.10815085
221	0xbbd674ae	-0.006544671
222	0xbd190ec2	-0.03736759
223	0xbc111055	-0.0088539915
224	0xbcd00ee7	-0.025397731
225	0x3abdd5bb	0.0014483252
226	0xbd3d4776	-0.04621073
227	0x3db891be	0.09012173
228	0xbd3134d8	-0.043263286
229	0x3c8e12b6	0.017342906
230	0xbe0c10f1	-0.13678338
231	0xbd21c52d	-0.039494682
232	0xbd01ac96	-0.03165873
233	0x3e05d8b0	0.13070941
234	0x3cee93a1	0.02912313
235	0x3e15a808	0.1461488
236	0x3d8e3051	0.069428094
237	0x3d0f01bc	0.034913763
238	0xba253415	-0.00063020113
239	0xbe1a95da	-0.15096226
240	0xbd87732a	-0.06613763
241	0xbdf16500	-0.11786842
242	0x3ccf2103	0.025284296
243	0xbc58839c	-0.013214972
244	0xba66cf3a	-0.0008804683
245	0xbd35ffed	-0.044433523
246	0xbd2f7227	-0.042833474
247	0xbca7c9b0	-0.020481914
248	0x3e051994	0.12998039
249	0xbafadc71	-0.0019139183
250	0x3cdab80e	0.026699092
251	0x3ccf6d9f	0.025320826
252	0x3d8fa713	0.07014289
253	0xbe8a9e0e	-0.2707371
254	0x3cc8e126	0.024521422
255	0xbe260b72	-0.16215304
