model/invasion.pt (torch, 815761 bytes, 23 tensors)

attention_net.0.weight f4 [256, 512]
00000000: 5344 c7bd eef1 b5bc 8a30 b2bc 9c16 41bd
00000010: 3d6d 2abc 5933 c6bd 40e8 b53c 91e9 a2bd
00000020: 5e06 7dbd d226 0d3e 3894 e9bd c9df 43bd
00000030: 8ee3 2a3a a870 2cbe a35b 183e 8737 21bd
00000040: 98c8 093d 52da 1cbd e9ed 583c 9eb3 4d3d
00000050: 9be9 70bd 498e 513d 1419 1ebc e13f 49bd
00000060: dda4 913c 1776 31bd 4adc 0abc 0dae 26ba
00000070: 48a0 b1bb aae2 193d b015 363d ee24 31bc
00000080: 5eb4 aebd 50c4 653c bdf0 a5bd ae22 68bc
00000090: dbbd 34bd c859 1a3d 6dd2 313d f881 0bbe
000000a0: 3baa 84bd d193 f03c dbba 853c 8f02 a63c
000000b0: 9873 86bc 2f58 23bd 014c 15bd ca96 4d3d
000000c0: 7e54 a43d 912e a83b d0eb ac3d 37a1 46bd
000000d0: 69c4 cdbd 3fa1 783d 6df3 bd3c 1661 a6bd
000000e0: 70ca 163e 43bd 9bbc 9858 833c 437e 8d3d
000000f0: 1c3e 4ebd 12e5 353c d2ae 16bd 3549 24bd
00000100: d899 8e3c 9a6b 483d 8185 b4bb 0fa7 d3bc
00000110: 13e6 3b3d 86b9 813d a50b 313d 705b 583d
00000120: 47a4 f0bc fdbc b4bd a330 9c3d 9d58 7538
00000130: 4b81 cebd 9275 18bd 550c 85bc 91c9 dfbd
00000140: e730 c3bd a68f 9e3d 1f2c c13d b401 7e3c
00000150: c8b0 343e b828 8c3c 4b6e 51be ae75 84bd
00000160: 2ad6 c13d 9525 3dbd 2818 22bd 49e3 913c
00000170: 79be 473b 1b32 a5bd d480 943d 3956 f43c
00000180: 97bb 723d 378f 9e3b 2a27 09bd 13e5 5d3d
00000190: 64ed 24bd a04f c03d d636 67bd dd6f 68bd
000001a0: 2011 693d 3b61 edbd d621 cdbc c75a e13c
000001b0: f979 b73c 55a3 843d 1e24 f93c 851d bbbc
000001c0: 5241 983c 7b20 31be fb50 9bbd 99ed c73d
000001d0: 5559 21be 8541 4d3a 44e3 3d3d fcae 03be
000001e0: fe96 233e 2e3d 92bc b1a1 90bd 6ef2 6ebe
000001f0: 2436 bebd 4e13 14be f21c 5fbc 3044 b53c
00000200: 6088 a6bc 53a0 223e 5e89 883d e024 c73d
00000210: 8380 653d 3140 b9bd 998d 8dbd 0dc5 d53d
00000220: 1433 3abd 54f6 00bc 0eb8 523d 79f8 d9bd
00000230: 272f 2fbd 704b acbd 8db6 4fbd 8b51 a23c
00000240: c441 5cbd 0cd0 95bc 0038 af3c 8ebd 1a3e
00000250: a308 cb3c c16a 1c3d 7657 74bc 54b0 633d
00000260: ccb2 12bc b0fc 523d b9a1 d9bb 22d0 b43d
00000270: fef9 27bd 4377 313d 9951 843d 248c 0e3e
00000280: 3eeb 14be 062d 28bd acad 38bd b396 2bbd
00000290: cfaa b23d 4d50 d3bd 51dd 09be 0002 733b
000002a0: 7b50 f4bd 1a1c f03d dde8 8bbc a08b 00be
000002b0: e365 153d 0a7a 80bd 3d10 11be c0a8 18be
000002c0: 6505 653d ddbd 213d a179 b3bd 17f2 133d
000002d0: 14e9 a9bd d3dd e5bc f2e6 0d3c bf38 783b
000002e0: 3885 043e 081b 9abb d495 7c3d 2385 9b3d
000002f0: 179f ba3d 2cf0 2e3c d40f 1e3c 4f6a b9bc
00000300: 9b15 aa3d 8d4e db3d b001 14be 08bd e73c
00000310: 55fd 9739 e9ff 6bba 8c2b 913d d423 a33c
00000320: 27ab 10bd 5c52 c0bd 1770 24bb c456 e03d
00000330: 9974 063c 4fd2 4cbd dbf6 fc3c 517f c33d
00000340: 6cfd ed3d 695b 813c dadf 5a3c 6f28 c2bc
00000350: edf7 923d 1762 c8bd 974f 6dbd 6279 123e
00000360: 54a2 17bd 8d0e 133b dbf5 8a3d e99d 5b3c
00000370: b503 3cbd 0ef2 b7bc db85 15bd 3a73 f0bd
00000380: bed4 5e3b 6144 b03c 012d 7e3c ce31 44bc
00000390: 13b8 ed3c d8f8 0c3d df21 823d 705a e0bd
000003a0: caf5 0cbe eb95 b13b 33b9 ffbc 855f 58bc
000003b0: b45e 903d 619e 2a3d 47a1 b63a 9acb 8e3c
000003c0: e91f c03d 685e 9ebd 2509 9b3d 3d03 c53d
000003d0: 195c 5a3d 4b69 9f3c cbfc 7abd b6fb a63d
000003e0: 6c29 e0bd dd57 abbc 961f 40bd 7e22 eebc
000003f0: c345 1dbd 8519 2cbd e314 783c 2baa d4bc
-0.09729829 -0.022210088 -0.02175166 -0.047140703 -0.010402021 -0.096777625 0.022205472 -0.079547055
-0.06177365 0.1378434 -0.114052236 -0.04782084 0.00065188936 -0.1683985 0.14878707 -0.039359596
0.033638567 -0.038294144 0.013240316 0.050220124 -0.058816534 0.051161084 -0.009649534 -0.049133185
0.017778808 -0.04332551 -0.008475373 -0.0006358333 -0.0054207183 0.03756968 0.044454277 -0.010812027
-0.08530496 0.014023855 -0.08102558 -0.0141684245 -0.044126373 0.03768328 0.04341357 -0.13623798
-0.064777814 0.02936736 0.016324451 0.020264892 -0.016412541 -0.03987902 -0.036449436 0.05019263
0.08023928 0.0051325043 0.08443415 -0.04849359 -0.10047228 0.06070065 0.023187364 -0.081239864
0.14725661 -0.019011145 0.016033456 0.06908848 -0.0503522 0.011101978 -0.036787815 -0.04010888
0.017407343 0.04893074 -0.005509079 -0.025836496 0.045873713 0.06334214 0.043223996 0.052821577
-0.029375209 -0.08825109 0.07626464 5.849508e-05 -0.100832544 -0.0372215 -0.016241232 -0.109271176
-0.09530812 0.077422425 0.094322436 0.015503336 0.17645562 0.01710926 -0.2045223 -0.06467758
0.09464677 -0.04617842 -0.03957382 0.017808573 0.003047852 -0.080661975 0.072511345 0.02982627
0.05926093 0.00483885 -0.033484615 0.05417354 -0.040265456 0.09390187 -0.05644878 -0.056747306
0.056901097 -0.11590811 -0.025040548 0.027509106 0.022397028 0.064764656 0.03041273 -0.022841224
0.018585835 -0.17297547 -0.07583805 0.09762115 -0.15756734 0.00078298926 0.046359316 -0.1285972
0.15975568 -0.017851438 -0.0706209 -0.23334667 -0.0928767 -0.14460489 -0.013617741 0.02212724
-0.0203287 0.15881471 0.06666826 0.0972383 0.05603076 -0.09045447 -0.06911773 0.10437975
-0.04545887 -0.007871229 0.05144506 -0.106430955 -0.042769577 -0.08412826 -0.050711203 0.019814273
-0.053773656 -0.018287681 0.021389008 0.15111372 0.024784392 0.038187746 -0.01491343 0.05558808
-0.008953761 0.051510513 -0.0066415933 0.08828761 -0.041009896 0.043326627 0.06460876 0.13920647
-0.14542863 -0.041058563 -0.0450875 -0.041891765 0.087239854 -0.103180505 -0.13463332 0.003708005
-0.11929413 0.1172411 -0.017078811 -0.12553263 0.03647412 -0.06273277 -0.1416635 -0.14908123
0.055913348 0.03948771 -0.08763433 0.036119547 -0.08296409 -0.028059876 0.008661019 0.003787562
0.12941444 -0.0047029294 0.061666325 0.07593753 0.09112375 0.010677379 0.009647328 -0.0226337
0.08304902 0.10708342 -0.14453769 0.02828838 0.0002898971 -0.0009002672 0.07088384 0.019914545
-0.035319474 -0.09390709 -0.0025091225 0.10954049 0.00820651 -0.050005253 0.030879429 0.09545768
0.11620602 0.015790658 0.013359034 -0.02370092 0.07176194 -0.09784334 -0.05793723 0.14304116
-0.037020043 0.0022439093 0.067851745 0.013404348 -0.045901973 -0.022454288 -0.036504608 -0.11740728
0.0034001316 0.02151698 0.015513659 -0.011974765 0.029018437 0.034417003 0.06354117 -0.109547496
-0.13765636 0.005419483 -0.03121624 -0.013206367 0.07049313 0.04165495 0.0013933562 0.01743107
0.093810864 -0.0773285 0.075701036 0.09619758 0.053310487 0.019459387 -0.06127624 0.08153479
-0.109454006 -0.02091592 -0.046905123 -0.029069182 -0.038396608 -0.042016525 0.0151416985 -0.025960049

attention_net.0.bias f4 [256]
00000000: 730a b73c d761 47bb b480 37bc d7e0 b2bb
00000010: 5897 8cbc 2f0d d5bb db8a 5ebc 046d 87bc
00000020: d01c a03b e38e 9cbc 39d1 13bc 26f6 cfbc
00000030: 6fb4 743c 84da 9dbc 2fa3 cabb bbe2 06bc
00000040: 6ae5 8cbc 263f d6ba f3b8 a738 6661 f0bb
00000050: 83b4 a8bc 64b1 6bbc c62a bdb9 df4c b7bc
00000060: c6b5 acba 3171 e5bb f4ad 9cbc 6a74 87bc
00000070: 9e00 11bc 4001 99bc 829a 51bc 82b3 efbc
00000080: b90c 43bc b07a 28bc 792f 3ebb 7307 203b
00000090: 0e36 85bc 2de1 25bc 291f d9bb b2f3 60bc
000000a0: 51d8 62bc 9390 16bc 1935 70bc a95d babc
000000b0: ad75 13bc fb10 39bc b0d2 213c 49bf 6cbc
000000c0: e11f 70bc b4c6 02bc 8e77 7dbb b381 54bc
000000d0: 102b 9d3a f08d c2b9 93be 88bc 4988 6abc
000000e0: 565e 403a 9d94 36bc 0b08 9abc 49fd c83a
000000f0: fd74 43bb 2b3e 86bc 2213 ed3b c636 08bc
00000100: 502a b4bc 390a 49bc ece1 5bbc 0d0f d4ba
00000110: 6265 3dbc d958 29bc 37c4 f8bc ee4d 82bc
00000120: 5922 8d3a 22a2 5ebc 4d9c 0bbb 34eb 52bc
00000130: 2811 30bc 27b5 78bc 6a48 78bc 3404 89bc
00000140: 69f7 92bc 7b66 8bbc 450b 263c aaf3 ccbc
00000150: 28cf 3cbc d053 5ebb 0243 15bc b97d bcbc
00000160: 15ea 87bc 96e5 2dbc 7e2d c6bc 7327 a03b
00000170: 2e1b dabc e9dd 36bc cb7d 93bc a8dc 04bc
00000180: 5532 abbb ad36 61bb 46f1 48bc a3db 4ebc
00000190: 9d60 28bd 2c6a 9cbc b3c0 b6bc 19b2 4bbc
000001a0: 3a44 95bc ec24 a93b 3441 2fbc 3ed2 813b
000001b0: c92a 4fbc dfe5 4bbc fd7f 59bc d94b 1bbb
000001c0: efbf 84bc fd0f 87bc 5a78 37bc 9849 9dbc
000001d0: 5d29 93bc 0943 51bc a845 a43b 6e24 afbc
000001e0: 146f 6bbb 9913 6cbc c4b0 36bb f9a4 80bc
000001f0: 1e02 13bc 14c7 ebbb 12c6 cabb e61c 56bc
00000200: 0176 73bc 29df acbc 37f2 97bc ce6f 97bc
00000210: cac6 acbb e481 59bb 3b89 22bb 106f 88bb
00000220: d816 6abc 5e35 4fbc 2c05 20bc 6049 dcba
00000230: ee75 133c c47c 02bc 2dc7 fcbb 1c86 1ebc
00000240: cfff 78bc a230 e5bb 0791 ffbb 2203 80bc
00000250: 7944 323b 61f2 c53c 50da 54bb a195 d53b
00000260: 0ad9 21bb b7c3 27bb eabe aebc bcd8 84bb
00000270: aae3 bebb c0f0 41bc 4cac 09bd 941a 9dba
00000280: 6897 dfba 5485 eeba 660e 3fbc e433 443b
00000290: aef8 60bc dff9 e4bb 5fee c6bc 93f8 39bc
000002a0: 7f9e bcbc d65b 23bc b1ac 33bc 57c0 febb
000002b0: a905 d0bb 16d0 91bc 2efe cdbc bfa0 12ba
000002c0: 0f43 a1bb eb8e b8bb 3545 cabb abdd 54bc
000002d0: 9ce3 aebc 92dd 79b9 45ac e7bb 39a9 febb
000002e0: 4a02 12bc f90f 91bc ff62 f8bc 4320 02bc
000002f0: e0b4 e0bb 7343 123c 364e 5abc 4377 aebb
00000300: 014a a538 20af edbc 3275 4bbc 65be 22bc
00000310: ac1c 71bc 58a5 5ebc 9a79 f1bb f78a b7bb
00000320: 27c4 c2bc 533a 07bc 206a e1bb 9868 b4bb
00000330: ce19 38bc 1291 d8bc 5752 83bc 1b3e d8bc
00000340: 8a27 ebbc c23a 7738 c8d6 eb3a a621 86bc
00000350: 462e 173b e207 5dbc 24d2 f83b 1a9a a2bb
00000360: b576 ffbb 9e9b b2bb a987 52bc f6a9 20bc
00000370: 7ade 6ebc b91f 01bc 75c1 d9bc ba5f 5f3c
00000380: 9f14 afbc 5db8 92bc a361 083b 7129 1fbc
00000390: 47bd f7bc dcb5 77bc 736d b038 1710 83bc
000003a0: cb18 d1bb 8a4c e2bb dc5d 09bc 0bbc 77bc
000003b0: d25f b7bc d12b aebc 5513 e7bb 1b5f e3bb
000003c0: 13c3 a93a b181 a1bc b01a 6bbb 0fab 43bc
000003d0: ed92 b63a 42a6 d8bb a2dd 3fbd 62f5 5d3c
000003e0: db4e 203c 870d 56bc 3419 a73b e059 253c
000003f0: 96f2 dbbb 5c94 a7ba 9435 5bbc 1e04 97bc
0.02234385 -0.0030423307 -0.011200119 -0.005458932 -0.01716201 -0.0065018157 -0.01358291 -0.016531475
0.004886247 -0.019111102 -0.009022051 -0.025385927 0.014935597 -0.019269235 -0.006184004 -0.008232768
-0.017199237 -0.0016345724 7.99763e-05 -0.0073358295 -0.020593887 -0.014385555 -0.00036080758 -0.022375522
-0.0013176731 -0.007002019 -0.019125916 -0.016535003 -0.008850245 -0.018677354 -0.012793185 -0.0292604
-0.011904889 -0.010283157 -0.0029019995 0.0024418503 -0.016261127 -0.010124487 -0.006626029 -0.0137299765
-0.013845519 -0.009189743 -0.014661097 -0.022749739 -0.009000224 -0.011295552 0.009876892 -0.014449903
-0.014656038 -0.007981945 -0.0038675996 -0.012970376 0.0011990983 -0.00037108315 -0.016692435 -0.0143147195
0.0007338276 -0.011143831 -0.018802663 0.0015334274 -0.002982437 -0.016387066 0.007234947 -0.00831384
-0.021992832 -0.012270504 -0.013420563 -0.0016178802 -0.011559816 -0.010336124 -0.030367 -0.0159063
0.0010767683 -0.01358846 -0.002130288 -0.01287346 -0.010746278 -0.015179909 -0.015153984 -0.016725637
-0.01794024 -0.01701664 0.010134523 -0.025018532 -0.011523999 -0.0033924468 -0.009110214 -0.023009168
-0.016591111 -0.01061382 -0.024191614 0.004887515 -0.026624288 -0.011161306 -0.018004319 -0.008109249
-0.005224506 -0.0034364865 -0.012264555 -0.012625608 -0.041107763 -0.019093595 -0.022308683 -0.0124325985
-0.01822101 0.005161872 -0.010696698 0.0039618304 -0.012644478 -0.012444942 -0.013275144 -0.0023696332
-0.016204802 -0.016487116 -0.011198128 -0.019200131 -0.01796406 -0.01277233 0.0050131865 -0.021379676
-0.0035924362 -0.014408969 -0.0027876357 -0.015703665 -0.008972673 -0.007195363 -0.0061881626 -0.013068413
-0.014859677 -0.021102505 -0.018548114 -0.01848593 -0.005272721 -0.0033188993 -0.0024801034 -0.0041636303
-0.014287673 -0.012647001 -0.009766858 -0.0016806535 0.009000285 -0.007964317 -0.0077141733 -0.009675529
-0.015197708 -0.006994323 -0.007799271 -0.015626494 0.0027201457 0.024163427 -0.0032478757 0.0065180813
-0.0024696016 -0.0025598833 -0.02133127 -0.004054157 -0.0058254795 -0.011837184 -0.03361158 -0.001198607
-0.0017058672 -0.0018197694 -0.011661148 0.0029938156 -0.013731165 -0.006987795 -0.024283586 -0.011350769
-0.023024796 -0.009970626 -0.010966466 -0.0077743935 -0.006348331 -0.017799418 -0.025145616 -0.0005593411
-0.004921324 -0.0056322715 -0.006172801 -0.012992303 -0.021348767 -0.00023829032 -0.0070700967 -0.0077716378
-0.008911679 -0.017707812 -0.030320643 -0.007942262 -0.0068574995 0.008927214 -0.013324311 -0.0053242757
7.8815974e-05 -0.02901417 -0.012418078 -0.009933089 -0.014716309 -0.013589226 -0.0073692324 -0.0056012827
-0.023775173 -0.008253652 -0.006879106 -0.0055056326 -0.011236621 -0.026436362 -0.016030474 -0.026396802
-0.028705377 5.894411e-05 0.0017993087 -0.016373467 0.0023068353 -0.013490649 0.00759341 -0.004962218
-0.0077961334 -0.00545068 -0.012849727 -0.009806147 -0.01457941 -0.007881098 -0.026581505 0.013633663
-0.021372138 -0.017910177 0.002081015 -0.00971447 -0.030241622 -0.015119042 8.4127205e-05 -0.015998883
-0.0063811294 -0.006906097 -0.008384194 -0.0151205165 -0.022384558 -0.021261128 -0.007051865 -0.0069388277
0.0012951813 -0.019715162 -0.0035874061 -0.011942639 0.0013929285 -0.0066116164 -0.046842225 0.013547273
0.009784426 -0.013064749 0.00509944 0.010092229 -0.006712268 -0.0012785303 -0.013379473 -0.01843458

attention_net.3.attention_a.0.weight f4 [128, 256]
00000000: ce47 3c3e 9be3 9c3b 20b2 d6bd b5e1 1c3d
00000010: 77dc 0f3d 5cb5 353b 7f87 123d 01a1 61bd
00000020: 8022 b6bc cfb3 2cbc d90f a43d 7432 c03d
00000030: ba29 05bd 15f8 473c 4cd4 3a3d 038e 203c
00000040: 4aa7 0c3e 80be 9abd 3403 b53d 84d8 c03d
00000050: cd21 b03c edfd 993d 49da 02bd 5728 cd3c
00000060: 1bd8 f43d 7395 103e 5010 7c3d 31c2 2a3c
00000070: 746a ddbd 2969 143d c570 a93c 29f9 98ba
00000080: c7fa 913d b88c 243e 1838 923d b769 333c
00000090: a3ac 753d 37f3 52be 1f3b 663d ffa8 f1bd
000000a0: d2d2 fd3c 8e91 22be 9da7 c5bd 0640 f13d
000000b0: 14e2 64bb 5e07 c43d 1ecc 123d 6231 7cbd
000000c0: 1f9e fc3d d6fa ce3d ff0b 5f3e dbb3 493d
000000d0: 82b3 603a 593d b03d 150c 34bd 723a 7f3c
000000e0: 9309 66bb c29e 733d 573f 60bd 9e51 aebd
000000f0: 1b98 e33d bba3 58bd b088 0f3e 4a7c cabc
00000100: f565 35bd 6548 103c 2f29 fcbd 8b7d 233d
00000110: ce8a 183e 6c36 9bbb ba66 de3c cf43 e3bd
00000120: 25a9 c03d 5402 8b3d 70e9 54bd c291 0abe
00000130: 3aa8 41bd 9274 c53d 898b c2bd 588f 6e3d
00000140: 857c 2dbd 1eed 1a3a 010f 1ebe 6503 14be
00000150: 95fb b33c 1a53 b03d 84aa f83c 4e60 35bd
00000160: 1dab fdbd d597 033d 863e 1cbe eb04 0c3d
00000170: 0796 10bd bd34 ed3d 29a4 a7bc 52b4 603e
00000180: 0a01 133d 89fb 5a3d 8a2e 81bd db13 f13d
00000190: dfdb 0e3d e3fe 0d3e 54bf 143e 21c5 9bbd
000001a0: 5ac5 3f3d 9fc0 f83d 09bd 5b3d 4998 5abc
000001b0: 0984 b8bd 2a94 093d cd91 403d 0e20 b8bd
000001c0: 5df5 c73d 18ea 1a3e dfeb 5d3c 38dd 93bd
000001d0: 3356 97bd 847c acbd c59f b53d a15b aabd
000001e0: 1483 ad3b ae95 1abc 9a1d c43d 028a 913d
000001f0: 90f7 1ebd 9790 9ebc 1ff8 0e3c af89 c83c
00000200: a9e7 e0bc 2807 763d 1b4b cdbb befe d3bc
00000210: 0899 a63b 0051 b8bd 09ad 6cbd 4be6 9b3d
00000220: 90aa 8dbd d850 4a3d 7f2e 373c 111e 94bd
00000230: 1d9c d53b 2ff5 a9bd 0a34 9e3d 16c1 c7bd
00000240: db0e 5abc fd92 0dbc 520c 4bbd 6ed1 73bc
00000250: 0d8d b23d c25a b0bd 0264 9bbd 2f5b 1b3d
00000260: 1387 4539 aff5 fdbd b093 1dbe 4084 8e3d
00000270: b87c 0cbd 9c70 1abd a6c8 bcbd 88a0 5d3d
00000280: e326 433d 2d85 053e f656 113e 4ad8 7fbd
00000290: df54 88bc 524c b43d 6911 a43c ec71 8bbd
000002a0: 8552 c33d 3c76 c53d 424a 493e c930 9a3d
000002b0: 8c7b 2f3e dc70 1e3e 5bea a5bd aecc 633c
000002c0: 6d33 173e f529 763d 435a a4bc c00b 1d3e
000002d0: d0f9 fdbd 4554 973d cdbe 6fbd da71 29be
000002e0: 6b23 9fbd adfb 4e3e 63c7 d93c 3e96 37bc
000002f0: 667b 763b 08f4 103e f0ea f23d e42d 18be
00000300: 7a24 2f3d 4329 383d 660d dabd c8f6 8e3d
00000310: 45ae 413d ffa9 3a3e 7c2e 563c 6296 8ebd
00000320: d7f7 193e d07c 8f3d 85db 5fbd 8dab d73b
00000330: 8410 0cbd 960c 43bc 0e4d d3bd 0f7f 23bd
00000340: 0be4 2bbe 7ea5 f03c b561 61bc cc86 31bd
00000350: 1fc0 11bd f9fd 943d 22da fa3d c771 c9bd
00000360: da90 c73c b2f8 703d c7ac e33d 33f1 a53c
00000370: ddda 463c c872 8bbd f86b 93bd 87d6 48bd
00000380: 1d52 6eba 03a1 fbbc a44d 1b3d 0d3e 9a3c
00000390: 3df5 a8bc 60a2 bf3b 5ab1 b53c 5760 edbc
000003a0: 5eb8 0d3d c7f9 92bc 5c20 e0bd cfd6 163d
000003b0: d35d 00bc 4324 6b3d 003b a93d e4f5 23bd
000003c0: 2e3c dcbc f70b a4bc d290 a03d ce26 b7bd
000003d0: 7ee7 003e f9c8 953c 0aa4 523d 67ad 82bd
000003e0: 23d6 f5bc 1729 0a3d 7111 14bd c481 22bd
000003f0: a2b8 683c b831 73be ea81 b7bd aae0 98bb
0.18386766 0.004787875 -0.104831934 0.03830119 0.03512236 0.0027726507 0.03577375 -0.055085186
-0.022233248 -0.010540917 0.08010835 0.09384623 -0.032510497 0.012205143 0.04561262 0.009799483
0.1373569 -0.07555866 0.088385016 0.09416297 0.021500492 0.075191356 -0.031946454 0.02504365
0.11955281 0.1411951 0.061538994 0.010422275 -0.1081132 0.0362331 0.020683656 -0.0011670935
0.0712791 0.16069305 0.07139605 0.010950497 0.059979092 -0.20600592 0.056208726 -0.117998116
0.030984316 -0.15875837 -0.0965111 0.117797896 -0.0034924792 0.09571718 0.035839193 -0.061570533
0.12334847 0.10106437 0.2178192 0.04924379 0.00085716706 0.08605451 -0.043956835 0.015577899
-0.0035100922 0.059477575 -0.054747906 -0.08511661 0.11112996 -0.05289052 0.14016986 -0.024717469
-0.044286687 0.008806323 -0.12312543 0.03991465 0.148967 -0.004736712 0.027148593 -0.11096918
0.09407262 0.067875534 -0.051980436 -0.13532165 -0.047279574 0.09641375 -0.094992705 0.058242172
-0.04235508 0.0005909967 -0.15435411 -0.1445442 0.02197055 0.086096 0.030354746 -0.044281296
-0.12386153 0.03212722 -0.15258226 0.034184378 -0.035299327 0.11582325 -0.02046402 0.21943787
0.035889663 0.05346254 -0.06307705 0.11771365 0.034877654 0.13866763 0.14526111 -0.07605959
0.04681907 0.121461146 0.053647075 -0.013341972 -0.09009559 0.033588566 0.047014046 -0.08990489
0.09763596 0.15128362 0.013545006 -0.072199285 -0.07389488 -0.08422187 0.08868364 -0.08318258
0.0052951667 -0.0094351005 0.095759585 0.07106401 -0.038810313 -0.019356055 0.008726149 0.024479715
-0.027454214 0.06006542 -0.006265057 -0.025878306 0.0050841607 -0.089998245 -0.057782207 0.07612284
-0.06917298 0.049393505 0.011180519 -0.07232297 0.0065188543 -0.08298718 0.077247694 -0.09753625
-0.013309206 -0.008641002 -0.049572296 -0.014881475 0.087183096 -0.08611061 -0.07587434 0.037928756
0.00018837703 -0.12400376 -0.1538837 0.069588184 -0.03429863 -0.03770505 -0.09217958 0.054108173
0.047644507 0.13039084 0.14193329 -0.06246213 -0.016642032 0.088036194 0.020027833 -0.06808838
0.09537224 0.09641692 0.19657233 0.07528836 0.17136973 0.1547274 -0.081013404 0.01390378
0.14765711 0.060098607 -0.020062571 0.15336514 -0.124011636 0.0738912 -0.05853157 -0.16547337
-0.07770427 0.20213194 0.026584333 -0.011205254 0.0037610172 0.1415559 0.11861217 -0.14861256
0.042759396 0.044961225 -0.10647087 0.069806635 0.047285337 0.18228911 0.013072606 -0.06962277
0.1503595 0.07006228 -0.05465271 0.0065817297 -0.034195438 -0.011904856 -0.103174314 -0.039916094
-0.1678621 0.029375788 -0.013756205 -0.043341443 -0.03558361 0.07275004 0.12248637 -0.098361544
0.024361063 0.058830924 0.11116939 0.020256614 0.012137142 -0.06809002 -0.07198328 -0.049032714
-0.00090912153 -0.030716425 0.03791584 0.018828416 -0.020624751 0.005848214 0.022179294 -0.028976602
0.034599654 -0.017941369 -0.10943672 0.03682595 -0.007834869 0.05740763 0.082632065 -0.04002942
-0.026884165 -0.020025237 0.07840122 -0.08942948 0.12588307 0.018284308 0.05142597 -0.0638073
-0.030009335 0.033730593 -0.036149446 -0.039674535 0.014204176 -0.23749435 -0.08960326 -0.004665454

attention_net.3.attention_a.0.bias f4 [128]
00000000: d1df 52bc 506e d93c 9322 553c 6baf 9f3a
00000010: a6f1 293c d866 e63c 7d08 c4bb 03a2 62bc
00000020: b2a1 2839 f6de 8abc b89f 8abc 7fc9 593c
00000030: 20a7 d8ba 678d f83b 7cbd 83bc b457 08bc
00000040: d4e1 cdbc d45b c7bb 7bc9 333c 2025 3abc
00000050: 207b 10bd cdfb 3d3c 109b 133c 452b fa3c
00000060: c8b8 01bd 3e5d 063d f916 3e3c 5dfd e5bb
00000070: d142 24bc d592 72bc e941 603c 8ee2 0f3c
00000080: 85bc 753a 4026 3c3c baf7 e63c 8217 e83c
00000090: c3a9 34bc 1b8d 5bbd c941 2dbd c41b 263a
000000a0: 8969 8d3c fc03 4abc 7039 2b3c d921 343c
000000b0: 39f1 dfbb de58 e0bc 6252 99bc b253 153c
000000c0: b18d babb 391c b1bc 9d3c 6cbc 7cae 17bc
000000d0: c642 99bc 1f06 dbbc d6e8 95bc 3563 67bb
000000e0: 2fd1 b13a c241 91bc 9272 c1bc 6fd3 023d
000000f0: 9e1e 9e3c d35a 83bc 5446 d8bb c0be 92bc
00000100: a357 17bd 5c14 f83c fce8 743c 69ca ae3c
00000110: bde9 b43b 5df1 dbbc 1711 bf3c 1ed6 d8bc
00000120: 1aaa 3a3d 74b5 c5bc ebf5 a7bb 1b3f 093c
00000130: 87c3 bfbc 0838 4fbd a8d4 f63c da9b f13c
00000140: e870 81b9 c3d8 963c 0ed1 e2bb 2cd6 c03c
00000150: 2657 bfbc 5c79 92bc 50b5 fe3c cef0 c2bc
00000160: abbb c43c 568e 93bc 5b7e c73c 578d 983b
00000170: 29d9 debb efde 95bc cea2 52bc 14fa adbc
00000180: 06f2 04bc f1c7 19bc 285d b33c b577 4e3c
00000190: c465 5cba 80a8 5cbc 5fc6 84bc 7118 3b3c
000001a0: 2c36 c9bb c3cd 7cbd 65ed 0c3d dbdf d1bb
000001b0: 7c95 2b3c 6e67 fa39 0b79 6dbc f5e5 12bc
000001c0: 07d5 f6bb 5754 53bb b0ed 07bc 4109 a93c
000001d0: 66f8 95bc f9bc 0b3c 884d ce3c 18ee c83c
000001e0: ec6d 51bc 0d0b 15bb 79b1 923b eb6b cb3a
000001f0: 3136 36bc a23a 2e3c 7744 19bc 9433 c63c
-0.012870745 0.026541859 0.013008731 0.0012183016 0.010372555 0.028125212 -0.005982457 -0.013832572
0.00016081965 -0.01695202 -0.016921863 0.013292669 -0.0016529299 0.007585216 -0.016081564 -0.008321691
-0.025132097 -0.006083945 0.01097333 -0.01136139 -0.03527367 0.0115956785 0.009009138 0.03053821
-0.03167036 0.032803766 0.011602157 -0.0070187286 -0.010025696 -0.014805515 0.013687589 0.008782042
0.00093741 0.011483729 0.028194297 0.028331522 -0.0110268025 -0.053601366 -0.042299066 0.0006336535
0.017262237 -0.0123300515 0.010450706 0.010994398 -0.006834176 -0.027386125 -0.018716041 0.009114193
-0.0056931605 -0.021619903 -0.014418748 -0.009257909 -0.018708598 -0.026736317 -0.018299501 -0.0035306935
0.001356637 -0.017731551 -0.023614202 0.03193992 0.019301709 -0.01603452 -0.0066001806 -0.017913222
-0.03694881 0.030283146 0.014948126 0.021336751 0.005521028 -0.02684849 0.023323579 -0.026469287
0.045572378 -0.024134375 -0.0051257513 0.008376862 -0.023408664 -0.050590545 0.0301307 0.029493261
-0.0002468892 0.018413907 -0.006921894 0.023539625 -0.023356985 -0.017880134 0.031092316 -0.023796465
0.024015268 -0.018012207 0.024352243 0.004655521 -0.00680079 -0.01829478 -0.0128561985 -0.02123741
-0.0081143435 -0.009386049 0.021895006 0.012601783 -0.0008407498 -0.013467908 -0.016207872 0.0114194015
-0.006140491 -0.061719667 0.034406085 -0.0064048595 0.010472652 0.00047760777 -0.014494191 -0.008965959
-0.007532719 -0.0032246315 -0.008296415 0.020634295 -0.018306922 0.008528941 0.025183454 0.024527594
-0.012782555 -0.0022742182 0.004476723 0.0015519833 -0.011121319 0.010634096 -0.009354702 0.024194516

attention_net.3.attention_b.0.weight f4 [128, 256]
00000000: 5626 023e 6d53 0dbc eba6 4dbd f1ee 99bd
00000010: f8bf 3fbd a144 89bb bf7f d93d 138d ec3d
00000020: 8a8e 083b 8912 403e b16f cebd 548c 773c
00000030: 5ff4 883d a722 5a3d ae0d 4f3d 67a5 653c
00000040: 69a7 97bd b48a 773d 6fb3 563d 4198 a13c
00000050: 9003 24be 67bb bc3d 6f49 d23b ef21 52bc
00000060: e0ad 2e3d 94b9 c8bd fd3e 11be 0766 adbc
00000070: 2a57 85bd a2de df3d 1b4b f1bd fdc5 70bd
00000080: 4848 cebd 6b72 29bd fb60 3b3d 8f65 febd
00000090: f76b 8dbb 7f57 a33d 4d50 b03d 720c c6bd
000000a0: 9875 913d 0e8d d43c 0298 2f3e 1727 5bbd
000000b0: 9beb be3c a92d 4ebd d548 ecbd a2a7 8ebd
000000c0: ef21 a1bc 1be5 44bd 4479 9b3d ccf4 97bb
000000d0: f716 55bd 0faf bf3d 7f66 5bbc 67f8 953c
000000e0: 4701 43be 39d5 a5bb f3df f2bd 9044 e03c
000000f0: 77e3 133e c5f6 b63d f5ad b63d 5c75 7a3d
00000100: 0fc2 593d b37a ee3d 36aa 863d 4efc a13d
00000110: ce96 4e3d 7e0d dbbd 6efe 5dbd 8301 ac3d
00000120: 512b 0bbd dbe7 d53d a97f b03d 8bd1 653c
00000130: dbde c73c cb93 34bd 9ddb 553d 2473 223d
00000140: d7a4 393b dd5c bebd 8313 f43d da33 35bd
00000150: 509f 533d 3313 613d 5e47 f1bc a6b0 47ba
00000160: ede1 773d c0b6 2a3d 7dbd 15bb a130 52bc
00000170: f9c5 10bd 0889 44bd 766b efbd e585 a7bc
00000180: fb7b 2d3d cc84 10bd cd20 963d 6c5c bcbb
00000190: 4bb3 cbbd b63e f2bb d711 eb3d 8b45 e23d
000001a0: 7fea 0cbc dcc9 87bb 4052 58bc 24d0 1dbd
000001b0: 8d91 80bc 5cfd 88bd 250a 0ebd b3f4 15bc
000001c0: 570e 623d 3ca1 033d 1e92 853a 0ca9 5e3d
000001d0: 6f60 4e3d d3bd 07bb 8cbc 5b3c 4d81 a93d
000001e0: 9618 8b3b 2dae 88bc 4340 84bd bd9f 08be
000001f0: b4f1 3cbe 42a8 013d 8fca 64bd e469 d43c
00000200: 8de0 24bd faee 383d 68e1 fdbd 8f04 0d3d
00000210: 037e 3f3c 92cb 23bd 1f3c a2bd 65b9 f7bd
00000220: 5ccf 573d ad88 523d ff7c e4bd e3e0 063e
00000230: 0810 adbd 5f7a 11be 16ef 25bd 8058 453b
00000240: 0870 c63c 9e48 ebbd 4b14 80bd c328 d6bc
00000250: 9bfe ef3c 827a e4bd 1f93 5dbd 126c 1dbd
00000260: 2954 8d3d 4a6a 2fbe 021b 883c d3cc 77bd
00000270: 042e 97bc 4878 dfbd 36b2 5cbd eacc 4e3b
00000280: fff5 a53c 160b 053d 0129 cd3d f340 cbbd
00000290: 408e 103e 6e36 a53d 2536 413d e807 07be
000002a0: 9b80 3f3d 1bde 9dbd cb96 11be 82a3 e13d
000002b0: c548 683c 5200 b4bd 9f07 363d 6d89 1ebd
000002c0: a093 81bd cea8 1bbd 43eb f3bd 9901 13be
000002d0: d8c2 473d da83 0039 f1e1 e0bb e07b d33d
000002e0: 1cc4 b6bb 283e acbd 6523 a5bd 07ba 293d
000002f0: e83b 0ebc 5f08 adbd 4d9d a93c ce68 c4bd
00000300: f8a7 44bc d034 dcbd a2b7 463d 9e5b 083d
00000310: 1ede 75bd 2c73 9dbd 0159 fdbc 47de 723d
00000320: 9ade be3c b1c9 bfbd 215a 01bc c3e7 babd
00000330: 748c debc 9850 cf3d 49d2 fa3b 6eb3 4cbd
00000340: d911 84bd 7e0f 313c 2c79 9cbd d551 2a3d
00000350: eeb0 ac3c fc9e 763b 1e98 e33d 1f0a 46bd
00000360: 86f3 2b3d dc8f 693d 081b 41be b670 b53c
00000370: 77d1 1dbc d658 04be 2bb0 8abd 5bc1 acbd
00000380: 562d 3c3d 290b 2e3b f383 4c3d 0843 04bb
00000390: 96ad 143c b081 4fbd 8672 44bb cecc 62bc
000003a0: cb24 aebb e3be a13d ab9c 9abc f37e 0bbd
000003b0: 1e45 a6bd 41c0 733d 6694 abbd cab0 873d
000003c0: ea85 293e b74a e7bd ca1b f93d 0fd4 aebd
000003d0: 7cde ccbd 5a42 40bd 6670 8a3d e8c3 0fbd
000003e0: 97a6 0f3d 340e d93d 1067 d4bb e0ef 21bd
000003f0: b1ef 173b 2668 69bd 41b7 26bd 8de7 2e3d
0.12709936 -0.008625847 -0.050208014 -0.075162776 -0.046813935 -0.0041890894 0.10620069 0.11550345
0.0020836913 0.1875707 -0.10079897 0.01510914 0.06687235 0.053255703 0.050550155 0.014016486
-0.07404978 0.060435012 0.052417215 0.01972592 -0.16016984 0.09215432 0.0064174454 -0.012825473
0.04264629 -0.09801021 -0.14184184 -0.021166814 -0.06510766 0.10931136 -0.11781903 -0.058782566
-0.1007238 -0.041368883 0.045746785 -0.124217145 -0.004315849 0.07975673 0.08609066 -0.096703425
0.07102507 0.025946166 0.1714783 -0.053504076 0.023305705 -0.050336514 -0.11537329 -0.06965567
-0.019669501 -0.048070055 0.07591489 -0.0046373364 -0.052023854 0.09359562 -0.013391136 0.018306924
-0.19043456 -0.0050608185 -0.11859121 0.027376443 0.1444224 0.08933786 0.089198984 0.06114708
0.053163584 0.11644497 0.06575434 0.079094514 0.050436787 -0.10695933 -0.05419772 0.08398726
-0.033976857 0.104446135 0.08618099 0.01402701 0.024398258 -0.04408626 0.052211393 0.039660588
0.0028327012 -0.09295056 0.11917784 -0.044238903 0.051665604 0.05494995 -0.029452976 -0.000761757
0.060518194 0.04167819 -0.002284854 -0.012828977 -0.03534505 -0.047982246 -0.116904184 -0.020449588
0.042354565 -0.035282895 0.07330475 -0.0057483222 -0.09946307 -0.0073927296 0.11478012 0.110484205
-0.00860083 -0.0041439366 -0.013203204 -0.038528576 -0.015694404 -0.066889495 -0.034677643 -0.009152579
0.055189457 0.032136187 0.0010190641 0.054360434 0.050384935 -0.002071251 0.013411652 0.08276615
0.004244874 -0.016684616 -0.064575695 -0.13342185 -0.18451577 0.031654604 -0.055857237 0.025929399
-0.04025321 0.04514978 -0.123965085 0.034428176 0.011687758 -0.03998906 -0.079216234 -0.12095908
0.052687988 0.051399875 -0.111566536 0.13171725 -0.08450323 -0.14206837 -0.040511213 0.0030112565
0.024223343 -0.1148846 -0.062538706 -0.026142484 0.02929621 -0.11156179 -0.054095384 -0.038433142
0.06900818 -0.1713039 0.01661444 -0.06049807 -0.01845456 -0.10911614 -0.053880893 0.0031555244
0.020258902 0.032481275 0.100175865 -0.099244975 0.14116764 0.08067022 0.047170777 -0.1318661
0.046753507 -0.07708379 -0.14217679 0.11017515 0.014177506 -0.087891236 0.04444086 -0.03870528
-0.06326985 -0.03800278 -0.11910107 -0.14356078 0.0487698 0.0001225615 -0.006862872 0.10326362
-0.0055775773 -0.08410293 -0.080633916 0.041437175 -0.008681275 -0.08448862 0.02070489 -0.095903024
-0.0120029375 -0.10752261 0.04851497 0.033290498 -0.06002628 -0.07687983 -0.03092623 0.05929401
0.023299504 -0.093646415 -0.007895024 -0.09126236 -0.027166583 0.10122794 0.0076544625 -0.049975805
-0.06448717 0.010806916 -0.07640299 0.041581947 0.02108046 0.0037631383 0.111129984 -0.048349496
0.04198029 0.05702196 -0.18857968 0.022148471 -0.00963246 -0.12924513 -0.067718826 -0.08435317
0.045941673 0.0026556945 0.049930524 -0.0020181555 0.009074589 -0.05066079 -0.0029975488 -0.013842775
-0.0053144447 0.07897737 -0.018873533 -0.034056615 -0.08118652 0.05950952 -0.08377914 0.06625517
0.1655499 -0.112935476 0.121635035 -0.08536541 -0.10003373 -0.046938278 0.067597196 -0.03509894
0.03507098 0.10598412 -0.0064820126 -0.039535403 0.0023183639 -0.05698409 -0.04070211 0.042701293

attention_net.3.attention_b.0.bias f4 [128]
00000000: a1db b2bc b164 c0bb d01b 2abc 4e4b 0e3d
00000010: 33f6 dabb ab44 d8bb c3bf c0bc 4924 9f3c
00000020: 1d41 453b 46e5 a1bc 048c d7bb c236 203d
00000030: b334 743c 4bd2 b6bb a0e7 e7bb b69f 42bb
00000040: 2306 80bc 2a12 8b3b 8aad 933b 7f52 34bd
00000050: 9248 893b a300 b33c ee31 ee3c b15d b23c
00000060: 0461 a63c 8302 ec3c 05b7 81bc 84f7 ffbb
00000070: 9d97 b7ba cfe2 65bc e552 15bd 6aad 9e3b
00000080: 5e07 53bc 22d8 95bc 5908 013c 6742 f2bc
00000090: ddf5 ddbb d623 d2bc 743f 7c3b f7e4 2c3d
000000a0: b262 d9bc 0777 c5bc 707d 523b 0920 8c3c
000000b0: 5629 733d ee76 53bd f345 6b3c 1200 7dbc
000000c0: 8dea 243b 6d33 07bd 5a0b bcbb 6607 7abd
000000d0: 412d 1f3d 0ee7 02bd 53ec 8abc c04a 463a
000000e0: 101a 743d 7539 b3bb fa18 3bbd b5ff 703c
000000f0: 446d 943c c6b0 903b 0677 0bbd f443 b13c
00000100: e02e 2ebd ab68 7c3c 1d84 debc 8d88 03b9
00000110: 983d aebc 69d6 53bc 6bd3 083d f085 98bc
00000120: 8956 17bc e4e6 6a3b 24f6 94bc 99bd 80bc
00000130: dda7 c9bc 8338 10bc b54c 053c d999 943c
00000140: 7b63 d7ba 097a 493c 9fee d63b d76c 6bbb
00000150: 8b73 a7bb 043e bebb 3fbe 1bbc 95f1 06bc
00000160: 7a82 593c 86fb 1abc f798 e63c ae8f f43b
00000170: 5583 dbbc 879d 0e3c b2df 0bbd 2133 983c
00000180: ba2e 3c3c e291 b93b 9eca bfbb 7556 7f3c
00000190: c1c9 a8bc 72d9 c039 4cd5 ea3b c28d b5bc
000001a0: eb25 c7bb 4986 edbc 4eac 08bd fa11 2f3d
000001b0: 1894 ffbc d588 48bc 9bec 97bc c99f f43c
000001c0: a9e0 12bd 3319 6d3c 6ecd b43b 436f 013c
000001d0: cd9c f63b 63a3 ed3b fe7b 2b3d 0f98 b8bc
000001e0: b345 4cbc 4645 cfbb af9e 8dbc 9ff4 003d
000001f0: 2bf6 d23c e28e 3a3c 8510 8abc cf4c aa3b
-0.021833243 -0.0058713784 -0.010382608 0.034739785 -0.0066821813 -0.0065999827 -0.02352894 0.019426482
0.0030098625 -0.019762646 -0.0065779705 0.03911472 0.014905143 -0.005579268 -0.0070771724 -0.0029697246
-0.015627926 0.0042441087 0.0045067715 -0.044023987 0.0041895593 0.02185089 0.029076543 0.021773191
0.020309933 0.028809791 -0.01583434 -0.0078114886 -0.0014006976 -0.014031126 -0.036456008 0.00484245
-0.012880174 -0.018291537 0.007875525 -0.029572679 -0.006773694 -0.025651854 0.003848997 0.042210545
-0.02653632 -0.024104608 0.0032118224 0.01710512 0.059365593 -0.051627092 0.014359939 -0.015441911
0.0025164217 -0.033008028 -0.005738658 -0.061042212 0.038861517 -0.031958632 -0.016958391 0.0007564239
0.059595168 -0.005469496 -0.045678116 0.014709403 0.018118508 0.0044156043 -0.034049056 0.021638848
-0.042525172 0.015405814 -0.027162606 -0.00012544003 -0.021269605 -0.012929537 0.03340475 -0.018618554
-0.00923694 0.0035843188 -0.018183775 -0.015715407 -0.024616176 -0.008802536 0.008135964 0.018139767
-0.0016432846 0.012297162 0.0065592076 -0.0035923028 -0.0051102093 -0.0058057327 -0.009505807 -0.008236309
0.013275737 -0.009459382 0.028149111 0.007463417 -0.026796022 0.00870455 -0.03414888 0.018579068
0.01148575 0.0056631425 -0.0058530113 0.015584578 -0.020604016 0.00036783103 0.0071665403 -0.022162322
-0.006077518 -0.028994696 -0.033367448 0.042741753 -0.031198546 -0.012239655 -0.01854544 0.029861348
-0.035858784 0.01447134 0.005517653 0.007900062 0.0075260163 0.007252143 0.041866295 -0.022533445
-0.012467789 -0.0063253967 -0.01728758 0.03148329 0.025752148 0.011386605 -0.01685358 0.0051971446

attention_net.3.attention_c.weight f4 [5, 128]
00000000: f335 623e da8c 6d3e 7771 3e3d e9e4 b2bd
00000010: 4a4f 523d 4db4 443e 2d89 233d d27b ce3d
00000020: ba98 433d 7eb7 febd ec3a f1bd 75c4 8f3d
00000030: a977 f7bd c1c0 63be aaaf 50be 68f9 02be
00000040: 638d a23d 9118 903d d3e4 053e c0ac 693e
00000050: c24c 993b 5ca2 61be 4233 59be 6c43 ff3c
00000060: 6573 073e 581f b1bd 829a f1bd 6bb2 ba3c
00000070: 1238 7ebd b1b8 6d3d e127 5dbd 7d1d 2d3e
00000080: ab93 ba3d 813f b73d 8eab 043e 5e2a ff3d
00000090: 24d2 abbd 099c 0abe 9bc4 f2bc fb6f 3ebe
000000a0: f3a8 d83e 8b65 983d 1fc3 34be 351c 413e
000000b0: 46aa 043e b0fd 033d b33c 393d 3456 0bbe
000000c0: 48c0 6bbe 4275 513d 4047 323e 2a1c e43d
000000d0: f861 1abe b908 cebd d810 8ebd 709e f03d
000000e0: c320 9c3e 0964 b0bd b4a7 d9bc 05c9 5ebe
000000f0: 722e 583e e0e1 723c 9b10 a13c 18c4 993d
00000100: 99a2 cdbc 58df 6ebe dc70 36ba 3549 713d
00000110: 60a5 d03d 2f05 49be 0f0c 123e 8099 c83c
00000120: 9093 9b3d 1e00 25bd d450 47bc 2ecc dabd
00000130: e27e f53d 2038 92be 92a1 3d3e b6ce 0e3e
00000140: 89a3 5d3d 0ee8 21be fbdc 10be ff00 9a3d
00000150: 9720 233e 3c78 163e 8417 8b3d bf97 a8bd
00000160: d276 cdbd 0028 ec3d b772 2c3e bcb7 523e
00000170: ae13 10bd d897 ba3b 0f2c 5fbe 2058 d7bd
00000180: 8826 f43d 9d06 81bc b17b 78be 4b83 ebbd
00000190: f5dc f73d fae7 193b 2812 43bb e44c 03be
000001a0: cbe3 e13b b049 5cbd 4b27 b3bd 75c4 1abe
000001b0: a654 813e d2c8 563e 15fc e2bd 7057 873e
000001c0: 085e e33c 45b6 89bc a136 41bd 4b82 953e
000001d0: d200 c2bc b0f2 2bbd 663e 39be c76b febc
000001e0: aaed 1a3d 2943 94bd cbf9 fbbb 38f0 bebb
000001f0: 9956 9ebe 9250 74bd 667a cebd 56a2 093e
00000200: 0d97 a4bd d564 38be ce0e 85bc c6c5 ae3d
00000210: c78c 363d b9a9 643d bdec 9cbc 7745 26be
00000220: 78ea 36bc b7b0 803d 4b88 dc3d ab74 19bb
00000230: 718a fdbc ea27 b43b 3822 13bc 5b31 f13c
00000240: 28a9 51bd 5195 023e eaad 8fbd f2e1 753d
00000250: 5991 253e ba32 36be a7c1 0dbe c9f1 0dbe
00000260: 4497 793e 1e2f 99bd ebbd 83bd c271 93bd
00000270: 09fe 783d 99c1 c8bd 2a1a f83d 7135 fcbd
00000280: c42a d13e 5c91 dc3d 3e73 0abe 7d04 aa3c
00000290: 25df 34be ad9e c73d 655b 113e 02aa 54bd
000002a0: d2fc 763c 02a6 553e 2168 f8bc e3da a13d
000002b0: c5c0 253d 8eea ad3d 2c85 1abe fae9 173e
000002c0: 3e67 bd3c 6feb 313e f60d d0bd 0b8c e1bc
000002d0: d8fc 5e3d 285c ed3d d400 f33d 701c 0f3e
000002e0: 51fe 7b3a 21a7 d8bd 23f7 413d d636 cc3c
000002f0: 51ed 9b3c 86f5 973e 9881 3abe 95e8 d53d
00000300: 08ae 17bd d085 78be d66c 7bbc 3132 cf3d
00000310: 996b 67bb e599 543e 98d7 5fbb 7eb2 7d3d
00000320: a733 0dbe 243c 083e 8f2a 2ebd f1f5 d0bd
00000330: 657a 2d3e f6d6 0f3e e088 663e 3eac c1bd
00000340: 3689 36bd 77c4 41be 4a4a 90bc de4d c0bc
00000350: ee91 e73d 47ba 16bd b9b0 613d 4315 673e
00000360: 8f82 153c 5f26 39be a73c bbbd d569 213e
00000370: 5a5f 2c3e 5a25 003e 5272 2d3d 3899 08bd
00000380: 06ea 0f3d 3483 793e bd1c f4bb 4079 bf3d
00000390: 3d5d 413d 1993 913e 9ad7 c73d e14b a6bc
000003a0: f6d3 e2bd 6def 473e dfdf 64bd 6202 4d3c
000003b0: c251 46be 5809 e63b 3c42 b4bd 4c15 fabc
000003c0: c80c a83c 1077 40be fc4e d5bd fe27 9bbe
000003d0: e796 ac3d 6c03 133d 6db6 b1bd 10d2 12bd
000003e0: 37f0 aa3e 700f 9e3b 2231 1c3e 84f9 023e
000003f0: 5dda bcbd 2dcf 38be 4142 a1bc 217b 743d
0.22090892 0.23198262 0.046494927 -0.087350674 0.051345147 0.19209404 0.039925743 0.100822106
0.047753073 -0.12437342 -0.117788166 0.07019893 -0.1208337 -0.22241499 -0.2037951 -0.12790453
0.079371236 0.07035936 0.13075571 0.22819805 0.0046783397 -0.22034591 -0.2121096 0.031160079
0.13227613 -0.086485565 -0.11797048 0.022790154 -0.06206519 0.058037464 -0.05399311 0.1690578
0.09110197 0.08947659 0.12956068 0.12459253 -0.083896905 -0.13536085 -0.029634764 -0.18597405
0.42316398 0.07441243 -0.17652558 0.18858416 0.12955579 0.032224357 0.045223903 -0.13607103
-0.23022568 0.051137216 0.17409992 0.11138184 -0.15076435 -0.100602575 -0.069368064 0.117489696
0.30493745 -0.0861283 -0.026569225 -0.2175637 0.21111467 0.014824361 0.019661238 0.07508105
-0.025101947 -0.23327386 -0.00069595664 0.058907706 0.10187793 -0.19630884 0.14262412 0.024487257
0.07596505 -0.040283315 -0.012165267 -0.106834754 0.119870916 -0.28558445 0.18518665 0.13946041
0.054111037 -0.15811178 -0.14146797 0.07519721 0.15930401 0.14694303 0.067915946 -0.08232068
-0.10032429 0.11531067 0.16840635 0.20577902 -0.035175018 0.0056943707 -0.21794151 -0.105148554
0.11921412 -0.015750224 -0.24265935 -0.114996515 0.12102691 0.0023484216 -0.002976546 -0.128223
0.00689361 -0.05378121 -0.08747729 -0.15114005 0.25259894 0.20975044 -0.11083237 0.26433897
0.027754799 -0.016810546 -0.04717124 0.29200968 -0.023682032 -0.04197949 -0.1809021 -0.031057252
0.03782431 -0.07239372 -0.0076896898 -0.005826976 -0.30925444 -0.05964715 -0.100819394 0.13440832
-0.08036623 -0.18007214 -0.016242411 0.08533816 0.04456785 0.055825923 -0.019155854 -0.16237436
-0.0111643 0.06283706 0.10768183 -0.0023415487 -0.030949803 0.005497922 -0.008980326 0.02944248
-0.05118671 0.12752272 -0.07015593 0.06002993 0.16168727 -0.17792788 -0.13843404 -0.13861765
0.2437411 -0.0747969 -0.06432708 -0.07199432 0.06078914 -0.09802551 0.121143654 -0.12314881
0.4085294 0.107699126 -0.13520524 0.020754093 -0.17663248 0.09747062 0.1419502 -0.051919945
0.0150749255 0.20864108 -0.03032309 0.079030775 0.040467042 0.084920034 -0.15089864 0.14835349
0.023120519 0.17374967 -0.10158913 -0.027532598 0.05444035 0.11589843 0.11865392 0.13975692
0.0009612786 -0.10578752 0.04735483 0.024928492 0.01903406 0.29679507 -0.18213499 0.10444752
-0.037031204 -0.24269795 -0.015345773 0.10116995 -0.0035311936 0.20761831 -0.0034155603 0.0619378
-0.13789235 0.13304192 -0.042521056 -0.102031596 0.16941221 0.14046845 0.22513151 -0.09456681
-0.04456445 -0.18922602 -0.017613549 -0.02347463 0.11307131 -0.03679874 0.055100176 0.22566704
0.009125366 -0.18081044 -0.09142428 0.15763028 0.16833249 0.12514248 0.042345352 -0.033349246
0.03513529 0.24366456 -0.007449715 0.093492985 0.04720806 0.2843254 0.097579196 -0.020299854
-0.110755846 0.19524927 -0.055877563 0.012512775 -0.19367126 0.007020157 -0.08801696 -0.030527733
0.020513907 -0.18795419 -0.10415456 -0.3030395 0.0842722 0.035891935 -0.08677373 -0.035844862
0.33386394 0.0048236176 0.15253118 0.12790495 -0.09221337 -0.18047781 -0.019684913 0.059687737

attention_net.3.attention_c.bias f4 [5]
00000000: 5a35 07bb a6af 223a de85 d9ba e16a f437
00000010: 9428 52ba
-0.0020631165 0.0006205983 -0.0016595682 2.9136836e-05 -0.0008016911

classifiers.0.weight f4 [1, 256]
00000000: 28e2 88be 6f1b a8bb 81bc c53d 80f8 d4bd
00000010: 5c1f b03c ec53 293e 2f3f b53e 5c1a b33d
00000020: 830d 86be b166 8ebe f7a3 4dbe 6565 94bd
00000030: 7362 0fba d7a0 023e 2172 1c3e fdcc a93c
00000040: 5b76 a7be f9df e0b9 d183 7e3e 29f3 b73c
00000050: 2700 bdbd 3b7e 60bc fa6f 533b 806a f0bd
00000060: 64ea ecbd 73db 56be ed84 033e 0fc8 9bbd
00000070: 8528 f03c b2b6 8bbe 3541 883e e8b9 1fbe
00000080: d9ab bf3b 7eac afbd 2764 15be 2bc5 823c
00000090: 1007 293e 973b 003d 6d9b 3fbe 3e78 b63d
000000a0: 48f4 6b3e 0d15 033d e2aa 9cbd 92d6 103e
000000b0: 1876 45be e352 7f3c 59e6 083e 63bf 88bb
000000c0: 5122 80be ee94 c93d 1830 fe3d c5fb 3ebe
000000d0: 3e11 8ebd 8a00 80be dcb9 253d f6e9 783d
000000e0: bb3b b23d 9e29 27be 3aa6 f93d 7c72 743c
000000f0: 0fc4 293d e310 4abe 0c3c fbbc 4504 3dbd
00000100: 02a8 3dbe 49fe 353e 3062 c4bd b629 fbbd
00000110: d63d 04be 8aed bdbc 039f 003d f05a 90bd
00000120: e957 b7bd c3dc 2ebd 0a6f 9dbc f592 f13d
00000130: 1d62 60be 5da0 dabd 71bd acbd 16b6 b03c
00000140: fdb1 82bd 65a4 d43d 7842 313d ef18 053e
00000150: e9ea 2cbd e2a6 063d 3909 423d ed14 b03d
00000160: 07f2 a1ba 3dad 173c f5a3 9b3e 0e30 8abe
00000170: 6912 d4bc 3512 363e 476a 103e 2333 59be
00000180: 242c 243e da0d 20be fd16 2b3e e185 1fbe
00000190: ddd4 023e 6e9b acbd 8416 cbbc f010 cb3d
000001a0: 1434 9b3c ecde eb3d b534 02ba 5a04 c5bd
000001b0: d76b 67be 7698 99be 2f87 20be 15b5 7ebd
000001c0: ced5 53bd 09bd e4bd 2f3b d6bd 8082 cdbd
000001d0: 1f63 93bd 5b57 bb3d acb2 15bc 2242 3a3d
000001e0: d71e 0dbe d2eb 54bd 4eb9 1cbc bf37 4bbd
000001f0: db28 133e 8e3f 83be 1d2b 913e 1404 afbd
00000200: 10bd b83d 3982 8ebd 06a2 483d 7015 2d3e
00000210: 78cd 4f3d 4789 d43c c6dd 88bd 6922 4a3e
00000220: 61eb b83e f7d0 86be 3570 56bd eb8c 5abe
00000230: fe6d febd 8900 b6be dde1 7abc 0bea 0bbd
00000240: cad4 74bd bef9 333d ed9d 223e c517 cf3d
00000250: 9435 34be 77de f8bc 6fcd 6cbd f268 5c3d
00000260: 3c5d abbd cb19 16be fb6f 2fbc 647c eebd
00000270: 0543 88be e7c1 a63c 8492 403d d614 0e3e
00000280: 67db 2f3d 679e bebc b4ef 743d 9010 283e
00000290: 3793 74bd 2940 4e3e af21 03be 1c64 7bbe
000002a0: 8792 d23d 1f0f c5bd c872 253e 6eb8 4e3e
000002b0: 8b9f e73d 89f9 ad3d 6f43 83be 079b 153c
000002c0: 23e7 34be f3d2 0b3e f29f 3abd 426a 2fbe
000002d0: 4154 7dbd f5b6 6ebd 6685 16be e3fc bdbd
000002e0: d887 44bc c91b cf3c 931f bf3d 5b99 de3d
000002f0: dfea d33d 6103 45bd 7e38 80be 93ac ffbd
00000300: 9ebc 853d 5af8 b7bb c7c3 4bbc 62df 81bd
00000310: c901 2a3e f289 72bc 7c09 f83c 51c5 633e
00000320: faf6 db3c 50c8 6abe ff7d 8d3e 8187 103d
00000330: ce33 403e f699 1bbe 95fc cb3c 20d3 1d3e
00000340: 4cab 353e dad6 74be 1743 71be acc3 a1bd
00000350: 7b4e 7d3d 9357 a93d 3341 84be 1658 a63d
00000360: 8692 a8bd c676 1cbe 9120 a63d 286b 67bd
00000370: 2658 963d ae43 0abd 4202 1f3e 1a1c abbd
00000380: 2459 003d 118a cb3d 7208 6abd c20b bcbd
00000390: 6c38 95bc 355b 5fbe fd1f 5a3e 0403 dabc
000003a0: dba0 56be 83c6 aa3b b055 51be 96e1 86bd
000003b0: 31f6 26be 267d 803d 560e 883d 30fd c7bc
000003c0: b135 913e f10f 193e f084 3c3e 50bb f8bd
000003d0: 622f 3a3d adf5 8dbe f1a8 72be 3a5a 2fbe
000003e0: e59e e4bc de0b 453e 1cad 38bd 3189 b2bc
000003f0: 1945 14be 859d a4bd 1ab8 9a3d 69e2 02bd
-0.26735044 -0.0051302235 0.09655095 -0.1039896 0.021499328 0.1653592 0.35399768 0.08745262
-0.26182184 -0.27812722 -0.20082079 -0.07245902 -0.0005469687 0.12756668 0.15277912 0.020727629
-0.32707486 -0.00042891482 0.24854971 0.022454815 -0.09228545 -0.013701971 0.0032262788 -0.11739063
-0.11568144 -0.2098215 0.12843676 -0.076065175 0.029316196 -0.27287823 0.2661225 -0.15598261
0.0058493433 -0.08577822 -0.14588986 0.015963158 0.165066 0.03130683 -0.18711634 0.08909653
0.23042405 0.032002497 -0.07649781 0.14144352 -0.1928333 0.015583727 0.1336912 -0.0041732057
-0.2502618 0.09842859 0.12411517 -0.1865073 -0.069368824 -0.2500041 0.040460452 0.060769998
0.08702799 -0.1632447 0.12189908 0.014919873 0.04144674 -0.19733004 -0.030668281 -0.04614665
-0.18521121 0.17772783 -0.0958904 -0.12263815 -0.12914214 -0.023184557 0.031401645 -0.07048595
-0.089523144 -0.042691004 -0.019217987 0.11795608 -0.21912427 -0.10675118 -0.084345706 0.0215712
-0.06381605 0.10382918 0.04327628 0.12997793 -0.042216215 0.032873996 0.047372077 0.08597741
-0.0012355455 0.009257612 0.30398527 -0.26989788 -0.025887685 0.17780383 0.14103042 -0.21210913
0.16032463 -0.15630284 0.16707988 -0.15578414 0.12776513 -0.08428083 -0.02479101 0.0991534
0.018945731 0.11517128 -0.00049669604 -0.096199706 -0.22599731 -0.2999913 -0.15676568 -0.062184412
-0.051717572 -0.11168868 -0.10460507 -0.100346565 -0.0719664 0.09147521 -0.009136837 0.045473225
-0.13781296 -0.05198271 -0.009565664 -0.04961371 0.14371054 -0.25634426 0.28353205 -0.085457
0.09020436 -0.06958432 0.048982643 0.16902709 0.05073306 0.025944365 -0.06682925 0.19739689
0.3611708 -0.26331303 -0.052353103 -0.21342818 -0.12423323 -0.35547283 -0.015312639 -0.034158748
-0.059773244 0.043939345 0.15880556 0.101119556 -0.17598563 -0.030379517 -0.057813104 0.05381102
-0.083673924 -0.14658277 -0.010707851 -0.116448194 -0.26613632 0.020356132 0.04701473 0.13875136
0.042933848 -0.023268891 0.05979891 0.16412568 -0.059710708 0.20141663 -0.12805818 -0.24549907
0.10281854 -0.09622025 0.16157067 0.20187542 0.11309727 0.08494861 -0.25637385 0.0091312
-0.17666297 0.1365469 -0.045562692 -0.17130378 -0.06184793 -0.05827995 -0.14699325 -0.0927675
-0.011995278 0.025281804 0.09332194 0.10869094 0.103475325 -0.048098926 -0.250431 -0.12484088
0.065301165 -0.0056143226 -0.012436814 -0.06341435 0.16602243 -0.014803397 0.03027796 0.22243239
0.026851166 -0.22927976 0.2763519 0.035285477 0.18769762 -0.1519545 0.024900714 0.15412569
0.17741126 -0.23910084 -0.23560749 -0.078986496 0.061842423 0.082686566 -0.25830993 0.0812227
-0.08231072 -0.15279683 0.0811168 -0.056498677 0.07341032 -0.03375595 0.15528205 -0.08354969
0.03133501 0.099384435 -0.05713696 -0.0918193 -0.01821538 -0.21812136 0.21301265 -0.026612766
-0.20959799 0.0052116527 -0.20442843 -0.06585996 -0.16304852 0.0627387 0.06643359 -0.024412721
0.28361276 0.14947487 0.18410087 -0.12145102 0.045455344 -0.27726498 -0.23697259 -0.17124262
-0.027907798 0.19242808 -0.045086965 -0.021793934 -0.14479484 -0.08037857 0.07554646 -0.031954203
