model/mmr.pt (torch, 801077 bytes, 14 tensors)

attention_net.0.weight f4 [256, 512]
00000000: 5457 c83d a1a7 28be 5548 78bd a83c 093d
00000010: 8bf5 9abc ea69 0e3d 65ae e1bd 1080 633c
00000020: f400 07bc 6ff2 043d ee6a 47bd 552d e53d
00000030: ef85 4b3d c958 fe3d de6d acbc dcd7 563d
00000040: 31cd 6cbd 6a2f a0bc a1af a03c 3fa7 f2bc
00000050: 7b2e a5bc a413 1dbd 250b a3bd 72c2 bbbc
00000060: cc96 1b3d f132 e03d 2103 42bd 1c2a 8f3d
00000070: 3178 f03c c22b a03d 446e 8cbd cb9e 82bb
00000080: 075b 3bbd 3222 c33c 6f19 853d bfeb 313e
00000090: 3a9e 3e3d 8b9d fcbc 989a 47bd 8d68 06bd
000000a0: 07ef 43bd 886d a2bd 38bd 11bc 15e4 bd3c
000000b0: c6ab 223d 5fc2 523d c730 82bd d323 b03d
000000c0: bcc6 cbbb da7a 88bd 6f6e 16bc 6337 e2bb
000000d0: b7c1 3dbd 8fdc b1bc 2e05 f83c bc17 bd3d
000000e0: 7c3a d3bd 8505 123d 004d 1fbd 7733 c0bd
000000f0: ffb6 b23c 1f32 d6bb cf96 b23d 2ff8 bd3d
00000100: fa3b 50bd 11c5 ee3a 97ba e43d 5b1c e23c
00000110: 017f 133d 2d13 edbc c028 17be e329 ffbd
00000120: f15b 3c3d c6cf a43d 2ad2 88bc 7155 b0bd
00000130: d873 b63c 5ade 0a3c cafe 063d c39e 363d
00000140: 076b b83b 81d7 03bd a376 c4bd e686 023c
00000150: 2b36 0a3e 60a3 283d 806d 1ebd 69ce f9bd
00000160: fdcd 9bbc d0eb f23c 253c eb3c 5adb b9bc
00000170: 133d a73d ae3c efbd 81dd b0bd 3c67 86bd
00000180: d4b6 8c3d 72cd b0bd e3f2 59bd 5704 f6bb
00000190: 372e e73c f38c cebd 9ad6 4d3d c49e 2ebc
000001a0: a05e 7cbd 710c 483b 0964 39bb 27ce 5cbc
000001b0: edbc 1cbd c059 92bd 3687 e63c 3503 583c
000001c0: dde1 e53c 4039 043b 2d6a debb 3d8e 92bc
000001d0: 4116 d03d 2a2d e93d b3c5 2c3c 3ab3 8fbd
000001e0: ceae 773d 483b e5bd ed69 093d b45b a4bc
000001f0: 6790 9f3c 5366 653d 5dd5 5abd 1073 95bc
00000200: 06b7 7c3c 59f2 e0bd 24cb f03d 9992 4d3d
00000210: 4e75 ed3c 7f09 85bd fc66 013d 55f2 62bd
00000220: 418b 89bc d477 ddbd 17c8 0ebd 0baf c43d
00000230: 5b7b 3e3d 4caf 2d3d b989 85bd 31ab f23b
00000240: ea78 da3c 592e bcbd 8379 57bd 024a 333c
00000250: a663 843d 2f82 e6bc 006e 283d 1108 823d
00000260: 9f83 0bbd 85da 67bc 3d0d 42bd fb79 0abe
00000270: 7472 cd3d 79b1 203d f0e4 bcbc 2bfd 503d
00000280: ca41 afbc e3dd 55bd 709c ca3d aad2 003d
00000290: 49b0 6bbd 61ad ac3d 061c 04bd 1c9b 603c
000002a0: d638 febb ffa5 d8bc a9f4 8b3d 767f 763c
000002b0: f79a 8eba 50f5 df3d 340c 6b3d f6a8 30bd
000002c0: 0f75 c63d cc57 69bd 20b0 793c 90ee d9bc
000002d0: 5b00 11bd 8a1d 0cbe 4e89 81bd a190 d93c
000002e0: 8bd3 4ebd 3972 f73a 001b d63c 94ae 923c
000002f0: f7ba 1dbc a7bc 96bd c9e9 1cb9 c253 2abd
00000300: 5ca1 0cbd f5c0 023e ca60 25bd 5816 35bd
00000310: 3e41 ba3d a042 1d3d ee2b 0e3d 0496 073c
00000320: 2408 e3bc 5269 bebc 732f 6c3d 41e2 87bd
00000330: 05da 763d 080e ebbd ecb5 5a3d aeff 04bd
00000340: d977 093c b215 623c 0df3 99bc 4101 c43d
00000350: fb12 96bc 822d 353d d5c5 143e c77b da3d
00000360: afc3 e63c efe8 e1bc ed89 0abe aa56 173d
00000370: 775f 1d3d b09f b5bd 449d 84bd 055c 243d
00000380: 0977 9ebc da00 58bd 0fd2 913d 97c3 29bd
00000390: 64b1 33bd e144 b83d 015c ea3c 1777 2f3e
000003a0: 9576 5c3d f826 7b3d e813 573b 720c 6abd
000003b0: b308 81bd 2297 3c3c 6437 533d 5f68 d53c
000003c0: 1315 2f3c d27c 203d 2afc a4bd 8e01 4a3d
000003d0: 3b2d 743d 1448 9cbc 2811 8b3d 119d c1bd
000003e0: 1a1a b03c 8f61 a13d ef80 88bc 82bb 84bd
000003f0: 0a46 f73b 0685 32bd 9a2c 64bc 0679 a9bc
0.097822815 -0.16470195 -0.060615856 0.033505112 -0.018915912 0.034768976 -0.11019591 0.013885513
-0.008239973 0.032457765 -0.04868596 0.11190287 0.049688276 0.12419278 -0.021048483 0.052451953
-0.057812873 -0.019553859 0.019614996 -0.029620765 -0.020163765 -0.03834881 -0.0796111 -0.022919867
0.037985608 0.10947216 -0.047366265 0.069904536 0.029354187 0.07820846 -0.06856969 -0.0039862148
-0.045741107 0.023820017 0.06498992 0.17375086 0.046537615 -0.030836841 -0.048731416 -0.03281455
-0.047835376 -0.07931048 -0.008895211 0.023180047 0.039714597 0.051454898 -0.0635696 0.08600583
-0.0062187593 -0.06664057 -0.009181603 -0.0069035753 -0.04632732 -0.021711616 0.030275907 0.092330426
-0.103138894 0.035649795 -0.038891792 -0.09384816 0.021815775 -0.0065367366 0.08720171 0.09275853
-0.050838448 0.0018216689 0.11168402 0.027601412 0.036009792 -0.028939808 -0.14761639 -0.12459161
0.04598612 0.08047442 -0.016701777 -0.08610047 0.022272035 0.008475864 0.03295783 0.044585
0.005627993 -0.032187942 -0.09592941 0.007966733 0.13497226 0.04117143 -0.038678646 -0.12197573
-0.019019121 0.02965346 0.028715203 -0.022687603 0.08165946 -0.116814956 -0.086359985 -0.06562659
0.06870809 -0.086329356 -0.05321015 -0.0075078416 0.02822028 -0.10085478 0.050253488 -0.01065797
-0.06161368 0.0030524994 -0.0028288385 -0.013476885 -0.03826611 -0.07146025 0.028140645 0.013184358
0.028061802 0.0020175725 -0.0067875595 -0.01789009 0.101604946 0.113855675 0.010545182 -0.07016607
0.06046944 -0.111929476 0.033548284 -0.020063259 0.019478036 0.056005787 -0.053426135 -0.018243343
0.015424496 -0.10983724 0.11757496 0.050188635 0.0289866 -0.06495952 0.031592354 -0.055406887
-0.016790034 -0.10813871 -0.03485879 0.09603699 0.04650436 0.042403504 -0.06520409 0.0074056615
0.026668984 -0.091885276 -0.052606117 0.010942938 0.06464319 -0.028138248 0.04112053 0.06349195
-0.03406107 -0.01415122 -0.047375906 -0.13523094 0.10031596 0.03923175 -0.023058385 0.05102269
-0.021393675 -0.05221356 0.09893119 0.031450905 -0.057541166 0.08431507 -0.032253288 0.013708856
-0.00775824 -0.02644634 0.068337746 0.0150450375 -0.0010879923 0.109354615 0.057384685 -0.043129884
0.09690296 -0.056968495 0.015239745 -0.026603013 -0.03540073 -0.13683143 -0.06325017 0.026558222
-0.05049471 0.0018878645 0.026135921 0.017905511 -0.009627095 -0.07360201 -0.00014964411 -0.041583784
-0.03433357 0.1276892 -0.04037551 -0.04421076 0.09094475 0.038393617 0.034709863 0.008275513
-0.027713843 -0.02324358 0.05766244 -0.066349514 0.060266513 -0.114772856 0.05339615 -0.032470398
0.00839039 0.013799118 -0.018792653 0.09570552 -0.018319597 0.044232853 0.14528592 0.1066814
0.028169481 -0.027576892 -0.13529177 0.036947884 0.03842112 -0.088683486 -0.064753085 0.04012682
-0.01934387 -0.052735187 0.071201436 -0.041446295 -0.043870345 0.089975126 0.028608324 0.17135273
0.053824026 0.06131646 0.0032818262 -0.057140775 -0.06300487 0.011510642 0.051566496 0.026050745
0.010686177 0.039181538 -0.08055909 0.04931789 0.059613448 -0.019077338 0.06790382 -0.09453786
0.021496821 0.07879936 -0.016663043 -0.06481077 0.007546191 -0.043583892 -0.0139266495 -0.020687591

attention_net.0.bias f4 [256]
00000000: e7a3 26bc fa90 193c d174 8bbc 6d90 953b
00000010: e5e5 abbc 832d 163c 206f 90bc 0be3 de3b
00000020: e45d 38bc 3d84 54bc 6b7a 7bbc 54ae 25bc
00000030: 94d3 30bc 4121 ff3b d012 52bc 5369 50bc
00000040: 15bf 48bc a6e0 37bb 648e 1cbc 1ef4 93bc
00000050: 7eaa 6cbc 219b 8dbb 18a0 893b 1d0d 8fbc
00000060: abd6 49bc 7c7e 94bb 2e20 55bc 1419 94bc
00000070: 9be0 23bc d559 15bd d487 91bc 8f1e 4dbb
00000080: 9b50 1dbc cad0 5bba 0e58 babc a73a 14bb
00000090: f378 48bb 20e3 82ba a708 3b3c 6ce0 8fbc
000000a0: 5791 0abc 5c00 2abc 7e03 c8bc e44d f5bb
000000b0: c360 ce3b 9df0 27bc f5c5 53bc aa89 98bc
000000c0: ff36 06bd 8935 1dbc 353c 86bc 3478 8dbc
000000d0: 1846 8c3c 2f7a f2b8 dd9e 42bc 0374 7ebc
000000e0: e61d 84bb 4aa8 df3a 7ac8 b3ba 9a14 9fbc
000000f0: 17d7 c0bb 724e 14bc 82a8 9bbb 61d9 cbbc
00000100: 440a 923c 898a 193c b86b e4bc 6f93 8bba
00000110: d6d1 42bc 49ba acbc 6535 f93a 6913 23bc
00000120: 27df 87bc 84fd b93b 3cd1 33bc 9ac3 08bc
00000130: 0039 33bc 26bc 893b a393 0fbb 0be1 72bc
00000140: ab8c 04bd 8adb 48bc 6a17 42bc 148d 66bc
00000150: 9fdd a2bc 2879 d4bc 68a0 96bc 5cc5 d5ba
00000160: eb21 c0bc 14dd 58bc 8362 21ba 32a4 1abc
00000170: 8388 5e3b 7d7e 5dbc e038 37bc 5544 12bc
00000180: ef02 083c f633 98bb 4138 27bc 4608 d6bc
00000190: 8048 cebb 9691 16bd 6c1a 73bc 103b 7c3b
000001a0: 435a d9bb 43a0 453b 9776 79bc 0cbc 7cbc
000001b0: 867b d0bc 868f bdbb 1c2e a0ba fd20 02bd
000001c0: a5ad d9bb 879e 44bb ed2c f8bb c4d9 9fbc
000001d0: 9377 23bc 1c65 6ebc cd69 abbc 61cc fdbb
000001e0: 4942 ccbb f0bc 9fbc a157 23bc 99eb 4dbc
000001f0: 2753 23bc d491 29bc dfac e3bc 0dbd 483c
00000200: afd1 62bb 7718 063c edf5 693c 3cd7 bebb
00000210: 5a72 91bc 3fcb 7abc bcd2 013c 78ba 3fbc
00000220: b67a f83b e6f2 033c 0003 dfbb e12c 25bb
00000230: 7444 6bbc f7a0 a53a 00e7 dfbb 4428 fcbb
00000240: 5c94 93bc 791f 89bc 9eb1 7c3b a7ee 18bb
00000250: 8c97 8abb f0ee 28bc e17c bbbc c4f2 533c
00000260: 5659 26bb 0730 87bc a8b6 46bc 8cc3 18bc
00000270: ac08 19bd fa0c 513b bdaa 98bb b58d 393c
00000280: 08c4 10bc 4565 bbbc e594 5fbb d41a 11b9
00000290: 663a 85bc adce 9fbb 566e 91bc db71 e2bb
000002a0: 47f4 993a 5da7 06bc 4d98 92bc ac81 ddbb
000002b0: 77f4 12bd 4041 b0bc fb21 f5bc 07e5 78bc
000002c0: 66f0 dfbc 91f0 33bc 0486 35bb eb13 4abc
000002d0: 3802 1bbb 6619 8cbc a60d 99bc 5ee3 47bc
000002e0: d0a6 9b3b e12b 5abb eb1a e1bb ff35 c7b9
000002f0: 631d 10bb dcbc 8fbc 8dd3 17bc eebb cabc
00000300: 6719 013c 6a0a b9bb 0105 e7bb 987b 5e3a
00000310: aee7 5bbc e180 dc3a 8b62 90bc 3a37 5dbc
00000320: 3f95 16bc a3a4 1fbc 464f fabc 94c8 03bc
00000330: 9f53 3dbc ec57 59bc 4f49 5ebc dc7a f2bb
00000340: 6bb1 1fbc bd2e 16bb 716f a1bb 71ab d63b
00000350: 96a4 06bc 287e b2bc aeb6 dabb dfe5 8dbc
00000360: 0687 63bc 5ba1 86bc e2cf c1bc ac7b 2bbc
00000370: 107e 7cbc 9b27 203c 47ae 57bc b813 38bc
00000380: 68c8 c4bb 3c72 d1bb 2272 85bc 78c7 7abb
00000390: 12a3 23bc 54bb 65bc e708 fdbb 84fe 59bb
000003a0: 91ed b9bc 3ad1 133a c9dd bcbc c90a 143a
000003b0: 325e 213b 9cd5 a1bb 4447 53bc 1a9a a6bb
000003c0: c2ad bebc 024c 26bc 5ca9 ecba 7c6f 9ebc
000003d0: 9f9b a2bc 52e9 5cbc cc7d 4abc 67d6 edbc
000003e0: fea0 063c 55e9 a63b c7db 2abc a86f f3bb
000003f0: ab20 a23a 30e4 c0bb 9776 3b3b 3c3e 13bc
-0.010170913 0.009372944 -0.017023476 0.004564336 -0.020983646 0.009166124 -0.017631114 0.006801968
-0.011252854 -0.012970981 -0.015349011 -0.010112364 -0.010792632 0.0077859466 -0.012821868 -0.012720424
-0.012252589 -0.0028057485 -0.009555433 -0.01806074 -0.014444945 -0.0043214713 0.004199993 -0.017462308
-0.012319247 -0.0045316797 -0.0130081605 -0.018078364 -0.010002281 -0.036462624 -0.017764963 -0.0031298732
-0.009601737 -0.0008385299 -0.022747066 -0.0022617967 -0.003058967 -0.0009985901 0.011415637 -0.017563067
-0.008457503 -0.010376062 -0.024415728 -0.007486092 0.006298156 -0.010250238 -0.012925615 -0.01862033
-0.032767292 -0.009595283 -0.01638613 -0.017269231 0.017123267 -0.00011562218 -0.011878696 -0.015530589
-0.0040318845 0.0017063704 -0.0013716363 -0.019419003 -0.0058850157 -0.009051906 -0.0047503123 -0.024883928
0.01782716 0.009371408 -0.027883396 -0.0010648797 -0.011890849 -0.021084921 0.0019013105 -0.009953358
-0.0165859 0.0056759734 -0.010975178 -0.008347416 -0.010938883 0.0042033372 -0.0021908067 -0.014824162
-0.032360714 -0.012259373 -0.011846403 -0.014071722 -0.019881068 -0.025936678 -0.018387035 -0.0016309428
-0.023453673 -0.013236303 -0.0006156342 -0.009438561 0.003395588 -0.013518927 -0.011182994 -0.008927424
0.008301481 -0.004644866 -0.010206283 -0.026126992 -0.006295264 -0.036759935 -0.014837842 0.0038487352
-0.0066330745 0.0030155338 -0.015226028 -0.015425693 -0.025449526 -0.0057849316 -0.0012220773 -0.03176974
-0.0066430145 -0.0030001716 -0.007573715 -0.019513018 -0.009977239 -0.014550474 -0.020924473 -0.007745311
-0.0062334877 -0.019499272 -0.009969623 -0.012568378 -0.0099685555 -0.01034971 -0.027792392 0.0122521045
-0.0034609844 0.008184544 0.014279825 -0.005823998 -0.017754722 -0.015307247 0.007923778 -0.011702172
0.0075829877 0.008053517 -0.0068057775 -0.0025203752 -0.014359582 0.0012636472 -0.0068329573 -0.0076952297
-0.01801508 -0.01673864 0.0038558017 -0.0023335607 -0.0042294916 -0.010310873 -0.022886695 0.012936298
-0.0025382838 -0.016502393 -0.01212851 -0.009323966 -0.037361786 0.0031898604 -0.0046590255 0.0113252895
-0.0088358 -0.022875438 -0.0034115848 -0.00013838272 -0.016263198 -0.0048769326 -0.017752808 -0.0069105453
0.0011745774 -0.008218613 -0.017894888 -0.006759843 -0.03587767 -0.021515489 -0.02992343 -0.015191323
-0.02733631 -0.0109826485 -0.0027698288 -0.01233385 -0.0023652446 -0.017101955 -0.018683266 -0.012200205
0.00475011 -0.0033290314 -0.006869664 -0.00037996468 -0.0021990172 -0.01754611 -0.009266746 -0.024747815
0.007879592 -0.0056469934 -0.007050157 0.0008487045 -0.013421936 0.0016823077 -0.017625114 -0.013501937
-0.0091908565 -0.009743842 -0.030555379 -0.008043427 -0.011555581 -0.013265591 -0.013567283 -0.0073999
-0.00974689 -0.0022916042 -0.004926615 0.006551199 -0.008217951 -0.021788672 -0.006674609 -0.017321525
-0.013887173 -0.016434362 -0.023658697 -0.010466497 -0.015410915 0.009775068 -0.01316411 -0.01123517
-0.0060053356 -0.0063917916 -0.016289774 -0.0038265865 -0.009987609 -0.014021713 -0.0077220085 -0.0033263275
-0.022696288 0.0005638782 -0.023054974 0.0005647359 0.0024622795 -0.0049387943 -0.012895409 -0.0050842883
-0.023276214 -0.010149958 -0.0018055844 -0.01934027 -0.019849597 -0.013483362 -0.012359094 -0.029032899
0.0082170945 0.0050937333 -0.010428376 -0.007429082 0.0012369355 -0.005886577 0.002860462 -0.008987006

attention_net.3.attention_a.0.weight f4 [128, 256]
00000000: f4f4 d33c 8752 8abd 2c62 a23d be56 78bd
00000010: f21c e63d 186d 4b3d 16ed 3abd 90d5 86bd
00000020: 69a2 9cbd f463 8b3d 8c46 ad3c 2fe4 aa3c
00000030: 240c 0bbe 625d d43c b5a6 96bd bf9e f4bc
00000040: 7f3d 60bc c9a9 6f3d 0920 efbc d46c 533c
00000050: 4336 23bd 3284 ccbd c999 7d3c ea4a bcbd
00000060: 7fcb 57bd aecc ddbc eb59 803c 6748 163e
00000070: 3a62 9ebd e806 9436 c09e a33d c4be ddbd
00000080: 916b 213d 8b75 923d 49e1 883c 21bc 483d
00000090: 5f32 a73d 0398 4abe 51f4 54bc 0fa6 74bc
000000a0: 0095 883c caf6 253d 8d7e 783d 4f63 2dbe
000000b0: 4b86 b5bd af3d c83c c4a8 853c 3e60 fabc
000000c0: c898 ecbd 88da 193d 7d23 2f3c cc60 583c
000000d0: 3176 f13c b5b8 6d3c 31e3 8ab9 81a2 643d
000000e0: 3395 983d 70b3 dcbd ea89 26be c0f0 59bc
000000f0: 1325 4ebd fa6c 5c3c bd17 85bd 5f1e d23d
00000100: 9448 ec3c 739a 443d eab4 ea3b c436 7dbd
00000110: 7865 c93d 7ad9 9abd 0e54 d03d dfa8 523c
00000120: 6af1 f7ba 467f 443d 07dd cebc affe 6b3e
00000130: 9bbb afbd 92f9 473d 07f4 cebd 1eef 523d
00000140: 5da3 26bd 6880 febc f998 0d3e 6f60 853d
00000150: 9c14 b4bd 8376 2abd 6782 0838 b5fa 2f3d
00000160: a5dd 9f3a 6edb b93d 349f 083e 560a c83c
00000170: 4cb7 803d 525a d63c 6b8f 97bd 496b 843b
00000180: ae2c d1bd 85a4 0d3e b690 023e 0665 0b3e
00000190: b204 913b 138c 863c ff42 8cbc a3fb bebb
000001a0: 43b7 3a3d adfd 273d 75d9 b43d 3463 3fbd
000001b0: 69db 353e 9528 833d 6070 573c 287c 973d
000001c0: 4ac4 a53c cd12 23bc 4fee 58bd 8fd1 0dbc
000001d0: d55f fc3c bbe3 233d 3500 cb3d 16db 933b
000001e0: ce34 27bd e88c bb3d 243c 953b 84ac 163d
000001f0: 7bfe 7b3c f531 f13b 40e5 a3bd ccce ccbd
00000200: 9a8d cfbd e9d0 b5bd 36e9 84bd d4c5 793c
00000210: 70cd 3d3d 978a 843d 478b 2f3d 2851 8b3d
00000220: 3462 84bd 5c1d 8c3b 2358 bbbc 2247 0d3c
00000230: d901 db3d 79d9 5dbd 8875 c7bd 63c9 283c
00000240: c2ea 91bd c172 88bd 4168 d43c 9515 c739
00000250: 4d07 a23d 8c61 01bd ce7e 383d 3798 33bd
00000260: 385d c6bd a9a5 a039 817a 403d b607 b2bd
00000270: 4a03 663a 0e75 46bd 4519 0dbd 015f a83c
00000280: bcd3 073d bda5 3cbd e324 ebbd fc29 433d
00000290: 03e2 fcbb 1aa5 9b3c d7ad bfbd 1517 10bc
000002a0: aa98 b7bd 7007 14bd ff8a 35bc 8a8e 813d
000002b0: 7faf d93c 93cb a43d 44a0 61ba d060 26bd
000002c0: 006f 243d bced 7e3d e101 25bd cec7 05be
000002d0: d5e6 5d3d 2e63 503d 939b fd3d bb36 21be
000002e0: e69f 8c3d 6d7c 67bd 986e 0a3e ecb1 90bc
000002f0: 53c0 e3bb 66f6 8c3d 4447 8f3d ed97 723d
00000300: c085 2e3d a909 88bd 2f96 793c edc6 f9bd
00000310: 6c8c a0bd 8cd9 30bd ae5d d53c 51b8 8bb7
00000320: 4942 0f3d 381f 65bd d6c9 173d da38 1f3e
00000330: ee26 03be faad 76bd 6ef3 9fbd 41d6 083c
00000340: 6e22 b0bd 8086 95bd 9de8 a739 5c91 e7bc
00000350: 6596 afbc 1920 413d 55c6 21bd 3064 383d
00000360: 4520 853d 6f22 9a3d f984 14bd b0ca 88bd
00000370: 5cf9 32be f78d e8bc 2f53 fabd 3881 dd3c
00000380: 3831 ccbd 6baf 733c ae2d 023e 457d c63d
00000390: 2234 60bd 7c02 a1bd 5e82 863c fe2a adbc
000003a0: f213 213c bf85 13bd 4334 81bd a430 cfba
000003b0: 2910 633a 4bb9 90bd dc48 eabd 182b 41be
000003c0: ae9b a13b 9aa2 64bc 2b24 4abd 0e14 853d
000003d0: a982 90bd e21f c03d ce34 fd3a a226 913c
000003e0: 54d1 1abd fd8f b6bc 35b5 e1bd b967 93bd
000003f0: 2b69 613d 6411 0e3d 245f 13bd 9dfe 2fbd
0.025873639 -0.06754022 0.07928881 -0.0606296 0.1123599 0.049664587 -0.04563626 -0.065837026
-0.07648165 0.06806174 0.021151803 0.02086076 -0.1357885 0.025923435 -0.073560156 -0.029860852
-0.013686537 0.05851153 -0.02919008 0.012904365 -0.03984667 -0.09986152 0.01547856 -0.09193976
-0.052684303 -0.027075138 0.015667876 0.14676057 -0.07733579 4.4115477e-06 0.079892635 -0.10827401
0.039409224 0.07151326 0.016708987 0.04900754 0.081639044 -0.1978455 -0.012997703 -0.01493217
0.016672611 0.04051856 0.060667563 -0.16932414 -0.08863505 0.024443476 0.016315825 -0.03056347
-0.11552578 0.037561923 0.010689613 0.013206672 0.029475303 0.01450937 -0.00026490682 0.05581904
0.074503325 -0.107764125 -0.16263548 -0.013302028 -0.050328325 0.013453716 -0.06498668 0.10259699
0.028843202 0.047998857 0.00716268 -0.061819807 0.09833807 -0.075610116 0.10172282 0.012857645
-0.0018916551 0.04797294 -0.025251878 0.23046373 -0.08580705 0.048821993 -0.10105138 0.05149757
-0.04068314 -0.031067088 0.13827886 0.06512534 -0.087929934 -0.041616928 3.2546373e-05 0.042963702
0.0012196793 0.09075056 0.13341981 0.024418991 0.06284961 0.026166115 -0.07400402 0.0040411097
-0.102136 0.1383229 0.12750515 0.13612756 0.0044256086 0.016424214 -0.01712179 -0.0058283373
0.04558493 0.04101341 0.08830539 -0.046725467 0.1775948 0.06404225 0.013149351 0.07396728
0.0202352 -0.009953213 -0.052961644 -0.00865592 0.030807415 0.040012103 0.09912149 0.004512201
-0.040821843 0.09157735 0.0045542885 0.036785617 0.015380497 0.0073606917 -0.0800271 -0.10000381
-0.1013443 -0.08877737 -0.06489794 0.01524492 0.0463385 0.064717464 0.042857435 0.06802589
-0.06464043 0.004275961 -0.022869175 0.008622916 0.10693712 -0.054162476 -0.09739214 0.010301921
-0.071248546 -0.066625126 0.025928618 0.00037972318 0.07911549 -0.03158717 0.045042805 -0.043846335
-0.09685749 0.00030641005 0.04699183 -0.08692877 0.0008774294 -0.048451476 -0.034447927 0.020553114
0.03316091 -0.046056498 -0.11481645 0.04764746 -0.0077173724 0.018999625 -0.09359329 -0.008794566
-0.08964665 -0.036139905 -0.0110805025 0.06326015 0.02657294 0.08046641 -0.000860695 -0.04061967
0.04014492 0.06223844 -0.040284995 -0.130645 0.054175217 0.050875835 0.12383189 -0.15743534
0.06866436 -0.056515146 0.1351875 -0.017662965 -0.006950417 0.06882934 0.06996015 0.05922692
0.042608023 -0.066424675 0.01523356 -0.12196145 -0.07839283 -0.04317622 0.026045647 -1.665592e-05
0.034975324 -0.055937976 0.03705772 0.15549031 -0.12807819 -0.06022451 -0.078101024 0.008351863
-0.08600317 -0.073010445 0.00032026033 -0.028267555 -0.021434018 0.04714975 -0.039495785 0.04501742
0.065002955 0.07526099 -0.036259625 -0.066792846 -0.17477936 -0.028388007 -0.12222897 0.027039155
-0.09970325 0.014873366 0.12712738 0.09691862 -0.054737218 -0.07861802 0.016419586 -0.021138664
0.0098314155 -0.036016222 -0.06308796 -0.0015807343 0.0008661771 -0.07066592 -0.11439678 -0.18864095
0.0049318885 -0.013954783 -0.0493509 0.06497966 -0.070561714 0.09381081 0.0019318105 0.017718617
-0.037797287 -0.022285456 -0.110208906 -0.07197518 0.055031937 0.034684554 -0.035979405 -0.042967428

attention_net.3.attention_a.0.bias f4 [128]
00000000: ef56 8dbc 4c3f 013c 78ad 05bd 085d 903c
00000010: 1b60 dcbc 8a02 bbbc dc6b 11bc 72c9 53bc
00000020: 1c51 df3c 48e6 373d 25d8 b73c ebe4 b2bc
00000030: 7596 ed3b 4f27 033c ded8 663a 3823 673d
00000040: e143 88bc fada 4cbd 12ae 833b 4c37 3d3c
00000050: 3083 1cbd 9d63 cd3c a29d e0bb f11d 65bc
00000060: acf4 43bc edb2 f7bc 79a9 ee3b a63b a0bd
00000070: ffce ecbb 9227 a43b b138 593d 2e74 073c
00000080: b556 1abd 39db 2c3d 63ba 2bbd d5a5 abbb
00000090: b050 cf3a 46d7 83bc 41c4 163c 3927 413c
000000a0: dc51 bb3c 8dd0 d6bc 751c 2fbb a8d7 0b3d
000000b0: ebb4 d93c 8dff b539 6dfc 143c 7039 01bd
000000c0: 7539 85bb 6da0 36bc d0c7 eabb 4e9a 2fbc
000000d0: 55ef a33c 88e4 4c39 5be8 a1bc 459f ab3c
000000e0: 4e41 3b3c d219 b6bc 89cc d3bc 642c ad3c
000000f0: d044 863d 94c9 3b3b 0276 82bc 91ed 47bb
00000100: 5b85 1c3c 4f1e fabc 2056 e6bc 1671 863c
00000110: f751 a53c 36ba cf3c f3a5 a8bc 40ad 603d
00000120: 2711 03bc 7b80 b2bb fa11 eebb 7e5c 6bbd
00000130: d136 e1bc 4fcf 3c3c 4ef3 5c3c 4bea 84bb
00000140: 6dfe c13c 849f 3a3a ce40 19bd dd9c 8bbc
00000150: 2ced 86bc c186 383c dee5 04bd 897e 183c
00000160: ac53 d4bc 8c6b b93c beb7 80bd ad40 273c
00000170: 733e 9bbb d947 003c d7ae 033d d9c8 80b9
00000180: fa27 b33c 2798 0ebc 1449 5ebd fb71 bfbb
00000190: 8f4c da3b 4e9e 1dbd f0dc d33c 9cf4 5c3c
000001a0: bb91 203c 73c1 baba a69c 653c 54bc a43c
000001b0: 8ff9 49bd 28b9 e6bb bc5d b3bb f457 8d3c
000001c0: b0ce f2bb 2720 efbc c6d9 553d 4548 983c
000001d0: 4af4 8d3c dcc0 9ebc 8f30 13bb c8c8 d13c
000001e0: 2fb4 afbb e1c8 de3c ee7c 303c fec3 6fbc
000001f0: d21e ba3b 4e75 483b d916 303c 82c4 56bd
-0.017253367 0.007888626 -0.032636136 0.017622486 -0.026901295 -0.02282836 -0.008875813 -0.012926446
0.027260356 0.044897348 0.022441933 -0.021837672 0.007250602 0.008004977 0.00088061194 0.05643007
-0.01663393 -0.05001352 0.0040185535 0.011548828 -0.038211048 0.025071913 -0.006854729 -0.013984189
-0.01196019 -0.030236686 0.0072833863 -0.07823877 -0.0072268243 0.0050096 0.05303258 0.0082674455
-0.037680347 0.042201255 -0.0419258 -0.0052382746 0.0015816893 -0.016093861 0.009202064 0.011789137
0.022866182 -0.026222492 -0.0026719843 0.034141213 0.026575526 0.0003471341 0.009093386 -0.031548917
-0.0040656873 -0.011146647 -0.007164933 -0.010717941 0.020011583 0.0001954009 -0.019764116 0.020949969
0.011429144 -0.022229109 -0.025854366 0.021139331 0.06556094 0.0028654085 -0.015925411 -0.003050659
0.009553279 -0.03053203 -0.02811724 0.016411345 0.020180685 0.025357347 -0.020586943 0.054852724
-0.007999695 -0.005447445 -0.0072653266 -0.057461254 -0.027491959 0.011524036 0.013485743 -0.00405625
0.02368089 0.00071191066 -0.03741532 -0.017042572 -0.016470514 0.011262597 -0.03244578 0.009307512
-0.025918804 0.02263429 -0.06285046 0.010208291 -0.004737669 0.00782963 0.032149162 -0.00024563706
0.021869648 -0.008703268 -0.05426891 -0.005842445 0.0066619585 -0.03848105 0.025862187 0.013486054
0.00980037 -0.0014248326 0.014014399 0.020109333 -0.049310263 -0.0070411153 -0.0054738205 0.017253853
-0.007409893 -0.029190136 0.052209638 0.018589148 0.0173284 -0.019379072 -0.0022459363 0.025608435
-0.0053620557 0.027195396 0.010771973 -0.0146341305 0.0056799436 0.0030587497 0.010747635 -0.0524335

attention_net.3.attention_b.0.weight f4 [128, 256]
00000000: 158b 11be 2532 323d e334 a3bc 835a 08be
00000010: 4a25 eebd 75ce 74bd 747e 99bd 46cc afbc
00000020: 6d00 e23c 8abc cbbd e0b0 f13d 247b 10bd
00000030: e371 13bc dce3 47bd 005b b9bd 1ce8 88bd
00000040: 6de9 15ba 5751 25ba 4b3b b13d bde8 cb3c
00000050: fc75 0a3c 677c cd3c 52c3 e63c 55cd 7cbd
00000060: 04da 203d c37c 2c3d 04f9 1bbe 4d85 43bd
00000070: a9f3 0e3d 19f1 59ba bce3 763d a2cf 8dbc
00000080: b7b8 6bbc e059 183d 74e2 c5bd 3f75 50bc
00000090: 7f2c 1dbd 2b68 a93d 613a ef3c 92f2 2dbe
000000a0: d387 333d 47a7 2dbd 33fe b43c ab2c 67bd
000000b0: 31d1 183d 40c7 87bd 837c c73b 134c b8bc
000000c0: 0c33 64bd e48d 18bc b679 603c 887c 92bd
000000d0: 2f92 6ebd ef2d 82bd bdb3 0d3d ed37 6b3d
000000e0: ba90 d9bd cbc8 ffbc 5cc4 823b 6d22 1dbe
000000f0: b703 27bd 05b6 4a3c ca2c dd3d 14d9 0abe
00000100: b045 963d a5d4 5dbd acda 413c c638 13bd
00000110: b405 b6bd 60f0 31be bf66 35bd 7c80 1fbc
00000120: 3c21 953c a023 8e3c f282 0cbe 98a2 543c
00000130: 42a2 bfbd 7080 0e3d ad20 0cbe 73e0 a33d
00000140: 1afe 993d d0b7 dfbb 86b4 79bd 7086 3ebd
00000150: befc c6bd 06ec 0d3d fb58 f53d 65b4 78be
00000160: 82ea 133d c4eb 46be f3ec 0c3e 1db0 4ebd
00000170: de6b e9bd 5666 e0bd 243d 893d 15c2 b93c
00000180: 891d 863d 523d 6bbd 7604 71bd dbad 85bd
00000190: c141 56bc ddf2 66bd db45 d8bc f065 a63d
000001a0: 5bdd 503c 2c41 6fbd 396f cfbd 3f7f 8dbb
000001b0: b266 65bd 5059 af3c 7bd4 cebd 48f8 42bd
000001c0: a3bc 73bd 7df9 c7bc ae7f 473a 21c3 913b
000001d0: 30cb 53bb 251a b6bd 9eea db3c e86a 9ebd
000001e0: a41c c8bd fd97 cb3d 0d34 35bd e907 3a3e
000001f0: 57ac 633d 1c23 c73d 5c4b 913d 6838 743c
00000200: 56f6 f33d c5aa a23d f029 673b 2729 aebd
00000210: aab3 e43c ef4c 3a3d 80b9 413c 24bd 98bd
00000220: a37c 0bbb 29d9 23bd 8cf4 5bbd baff b0bc
00000230: d6a5 e5bc 423e 24bd 0664 6cbd f72c 273e
00000240: e0dc bc3d 144d 103c 2e0a ce3d 9840 b23d
00000250: bcb7 f4bd d21a c8bd 6318 bbbc b225 e4bd
00000260: 9920 b23c 38bf 873c f990 4dbd e17f aebd
00000270: 4917 113c 603e fdbd 14a5 71bd a50f 2dbd
00000280: 7161 e6bc bdfa 4cb8 580e c9bc c315 69bd
00000290: 6b1f 5e3d f9f1 fcbd 8095 af3b 6070 acbc
000002a0: d6b9 9fbd 5018 50bd 0b78 493d 654d 38be
000002b0: 22ab 08bb 36be 9f3d 508e 323c 640a 923d
000002c0: 20a0 0e3d 8888 20bd 736d d93c 86ef a0bd
000002d0: 836a 0c3d 03ec 823d f9e1 923c 1aec 91bd
000002e0: 273c f03b c2cc 96bd 7683 ab3d cffb d1bd
000002f0: 8d3f a63d 34bf a23d a148 d93c d408 32be
00000300: 3193 f8bc ddc2 5cbc 019b 58bc f409 043d
00000310: 3e58 633c e042 98bb 280e b43c ff71 d1bc
00000320: 114e 5a3d 955a cebd 801e 82bd 065a 80bd
00000330: 6899 17bd 196c 33be 1dff 3d3d 4097 d63d
00000340: 883b 95bd fd6c ce3c 77a4 9ebc 48e3 6d3c
00000350: 456d dbbd c35d 1a3d f8ae 9f3d c7db a3bd
00000360: 11ed 8ebd d608 3a3d 9866 0ebd b14d dfbd
00000370: fa9d 13bd 36bc 6bbc 234c 02bc cd7d 5c3d
00000380: 6139 cfbc 96a6 3fbd 7d56 04be 78a5 973d
00000390: b634 963d 36ed 253c 85b3 49bd 445e 683d
000003a0: dd2f 65bd ef94 803d f5dc 133d 1729 873d
000003b0: 628d 86ba 54c4 40bd ce8a bf3c 1034 33be
000003c0: aa5b 653e 287f cf3d cfa2 41bd fd5c 5abd
000003d0: b47c bf3d 12f8 5abd 38db 6a3d 5536 dbbc
000003e0: 15b9 4fbd 9723 813c ed23 293e 39b7 413d
000003f0: 8941 6ebd 8644 37bd 264f b93d f11c 0c3c
-0.14213212 0.043504853 -0.01992268 -0.13315777 -0.11628206 -0.059767205 -0.07494822 -0.02145971
0.027588094 -0.0994807 0.11801314 -0.035273686 -0.008999321 -0.048801288 -0.0905056 -0.06684896
-0.0005718682 -0.0006306371 0.08653887 0.024891252 0.008450981 0.025083734 0.028169308 -0.061719257
0.039270416 0.04211117 -0.1523171 -0.047734547 0.03490034 -0.00083138194 0.06027578 -0.017310921
-0.014387301 0.037195086 -0.09662333 -0.012723266 -0.038372513 0.082718216 0.029202642 -0.16987064
0.043830704 -0.042395856 0.022093868 -0.056439083 0.037308875 -0.06629801 0.006087841 -0.022497213
-0.055712745 -0.009311173 0.013700893 -0.07152659 -0.05824488 -0.063564174 0.03459524 0.05742638
-0.106233075 -0.031223675 0.003990693 -0.15345164 -0.040775027 0.012372498 0.107995585 -0.13559371
0.073375106 -0.05415787 0.011831921 -0.035942815 -0.088878065 -0.17376852 -0.04428744 -0.009735223
0.018204324 0.017350972 -0.13721827 0.0129782185 -0.0935712 0.034790456 -0.1368434 0.08001795
0.07519169 -0.006827332 -0.060963176 -0.04651493 -0.097161755 0.034648918 0.11979862 -0.24287565
0.036112316 -0.19425875 0.13762264 -0.050460923 -0.11397527 -0.10957019 0.06701115 0.022675553
0.06548602 -0.057431526 -0.058842145 -0.06527301 -0.0130772 -0.056383956 -0.026400497 0.08124912
0.012748088 -0.058411762 -0.10128636 -0.0043181474 -0.05600614 0.021404892 -0.10099121 -0.04760006
-0.05950607 -0.024410957 0.00076102733 0.00444831 -0.0032317154 -0.088917054 0.026845273 -0.077352345
-0.09771088 0.09941099 -0.044239093 0.1816708 0.055584278 0.097234935 0.07094452 0.014906026
0.11912219 0.07942728 0.00352728 -0.08503943 0.027917702 0.045483526 0.011824012 -0.07457951
-0.0021284006 -0.040002022 -0.053700015 -0.021606315 -0.028033178 -0.040098436 -0.057712577 0.16325746
0.09221816 0.008807439 0.10060535 0.087037265 -0.11949107 -0.097707406 -0.022838777 -0.11140002
0.02174406 0.016570672 -0.050187085 -0.08520485 0.008855649 -0.12365413 -0.05899532 -0.042251248
-0.028122636 -4.887091e-05 -0.024542972 -0.05690552 0.05422918 -0.1235084 0.005358398 -0.021049678
-0.07799117 -0.050804436 0.049186748 -0.17998274 -0.0020853956 0.07799952 0.010898188 0.07130888
0.034820676 -0.039192706 0.026541447 -0.078581855 0.034281265 0.06392672 0.017930018 -0.07125111
0.0073313895 -0.07363273 0.083746836 -0.10253107 0.0811759 0.07946625 0.02652389 -0.1738618
-0.030343624 -0.013474193 -0.01322055 0.032236055 0.013876019 -0.004646644 0.021979406 -0.025567053
0.053297106 -0.10075871 -0.06353474 -0.062671706 -0.037011534 -0.17521705 0.046385873 0.104780674
-0.07286745 0.025198454 -0.019365532 0.01451952 -0.10714201 0.037687074 0.077970445 -0.080009036
-0.069788106 0.045418583 -0.03476581 -0.1090349 -0.03603933 -0.014388135 -0.007952723 0.05383091
-0.025295915 -0.046789728 -0.12923618 0.074046075 0.073342726 0.010127356 -0.04924347 0.056730524
-0.05595385 0.06278407 0.036099393 0.06599634 -0.0010265524 -0.047062233 0.023381617 -0.17500329
0.22398248 0.10131675 -0.047274407 -0.053311337 0.09349957 -0.053459235 0.05733797 -0.026759306
-0.050713617 0.01576404 0.16517611 0.047293875 -0.058167968 -0.044743083 0.090482995 0.008551822

attention_net.3.attention_b.0.bias f4 [128]
00000000: 5d83 47bd d36b 8b3b 206e 36bc 2000 39bd
00000010: 843e 533c a435 793c 52fb b2bc 65f9 56bb
00000020: 5a57 9e3b f054 e9bb 1ce4 cebb 4de9 d2bc
00000030: ed63 983c c477 27bc cf2b 69bc e089 e7bc
00000040: b5cd 98bb f9c8 c03b 785f 00bd e0a5 0abd
00000050: 9a7f 8abc aafe 07bd 5dfd 6ebc c9ad b63c
00000060: 1a9d 08bc fa96 2f3d eabc 50bc 1573 68bc
00000070: 2d5d 1cbd 3f7c ffbc f26a cf3c 877d 15bd
00000080: 4954 75bd 5fad 25bb 2f4b 04bd 01f7 23ba
00000090: f830 0ebd 4928 99bc 6501 e3bc b405 1539
000000a0: 5444 c5bc 7182 0d3c d2b0 b53c 918b 26bd
000000b0: f33f 9d3c 6cde f63c cff8 ff3c 7f86 0d3c
000000c0: 6520 5dbd 6d7a f3bb fcaa c73b a58e 483c
000000d0: 8e55 a3ba c396 54bc 7010 163d c463 79bc
000000e0: 5d99 253c ed87 8c3c 8f4c 53bc d7eb d73c
000000f0: 485d e73c 5407 1bbc 88f4 233d 3639 303c
00000100: d8b1 373b 7595 e6bb e7a0 b7bb 336e ccbb
00000110: b22b 633a 9517 f3bc 3164 bebb b8d1 0bbd
00000120: 1203 f23c e38b 82bb 8a76 273b dc88 16bd
00000130: 1c77 d7bc 7757 3d3c 434c 923c 184d 67bb
00000140: 22ca c6bc ea8e e0bc 65ee a1bc ca1d b5bb
00000150: 43ef 5c3c 1eeb d93a d360 10bc 8a99 813c
00000160: 4ac8 60bc 1bdc 943b 48a9 ecbc 50be 85bc
00000170: fe46 feba f3aa f63b c0c3 e9bc cea8 a6bc
00000180: 3a61 0cbd 204e 08bd c357 e2bc 870d 97bc
00000190: a07e d5bb 0cb6 1c3d 61fb c43c 51db 87bc
000001a0: a68d 74bb 0018 21bd 425e 363d 607e e73c
000001b0: 2865 8ebc 05da 39bd 3473 fc3b 75ec 70bc
000001c0: fce9 3d3d 177f d73b e1ea 6ebc 529d 57bb
000001d0: 83be 4b3c 2fed 253b d797 1cbc 1717 9dbc
000001e0: bcad 86bc 88e6 3c3a 38a3 78bc ee9c fabb
000001f0: bffb 8ebc 5411 7eba aa2d e33b 6074 93bc
-0.048709262 0.004254797 -0.011134654 -0.045166135 0.012893323 0.015210543 -0.021848354 -0.003280246
0.0048321905 -0.007120721 -0.006313814 -0.025746012 0.018602336 -0.010221425 -0.014231636 -0.028263986
-0.004663194 0.005883333 -0.031341046 -0.033849597 -0.016906548 -0.03320185 -0.014586774 0.022299664
-0.008338237 0.04286859 -0.012740353 -0.014187594 -0.038174797 -0.031187175 0.02531955 -0.036496665
-0.059894834 -0.002528034 -0.032298263 -0.0006254763 -0.03471467 -0.018695967 -0.027710626 0.00014211872
-0.024080433 0.008637057 0.022179041 -0.040660445 0.019195532 0.030135356 0.03124657 0.008638023
-0.053985972 -0.007430366 0.006093381 0.01224104 -0.001246141 -0.0129753975 0.03663677 -0.01522154
0.010107365 0.017154658 -0.012896671 0.026357574 0.028242722 -0.009462196 0.040028125 0.010755828
0.0028029587 -0.0070368596 -0.005603898 -0.0062387227 0.0008665874 -0.02967433 -0.0058102836 -0.03413555
0.02954248 -0.003983961 0.0025552833 -0.036751613 -0.026301913 0.011556498 0.01785863 -0.0035293754
-0.024266306 -0.027411897 -0.019766996 -0.005527233 0.013484779 0.0016625857 -0.008812147 0.015820283
-0.013719628 0.00454284 -0.028889313 -0.0163261 -0.001939982 0.007527703 -0.028535724 -0.020344164
-0.03427241 -0.03327763 -0.027629739 -0.018439068 -0.006515339 0.03825955 0.024045648 -0.01658407
-0.0037315874 -0.03932953 0.044523485 0.028258502 -0.01738222 -0.045373935 0.007704163 -0.014704813
0.046365723 0.0065764296 -0.014582367 -0.0032900167 0.012435558 0.0025318374 -0.009557686 -0.01917605
-0.016440265 0.00072059827 -0.015175633 -0.007648102 -0.017454026 -0.0009691913 0.006932934 -0.017999828

attention_net.3.attention_c.weight f4 [2, 128]
00000000: 4e34 2a3c 49a9 0e3e 0c34 62be 5766 053d
00000010: a5e7 9ebd 8ab6 cc3d 20ce 0bbe a8f5 38be
00000020: 1c1a 5e3e dca4 d0bd d5d3 9c3d 00dc 383e
00000030: 4b21 643d aacd d9bd 2c5b 02be c443 42be
00000040: d349 88bd 1bb8 eabc 0c0e 3b3d 3808 093e
00000050: fa85 2abe 345d 763d ba01 2b3d c447 003e
00000060: df5c 02bd 4862 ce3d 7f58 433e 1bd8 43bd
00000070: 912f 6bbd b974 b43d b6ca afbd 6571 76be
00000080: d029 083d 6186 f63d 11ea ef3d cc2f 893e
00000090: fb9b bbbd 5a3c d23d 7aee b73d a91c edbd
000000a0: 27d6 5f3d 9a7f abbd ea05 873d ae5e 1abd
000000b0: 058d 913d b275 9bbd 6ec6 0e3e 238a 9bbd
000000c0: 1b1c 483c ec80 1dbe 72a4 55bd 4e65 b0bc
000000d0: e23e 143e 92b6 7a3d c0ac 1f3e ac52 ddbd
000000e0: 0bfb 813d 79f6 b03d 3406 8fbd 2cd5 d73d
000000f0: 202a ba3c da72 06bd 3359 2abe d6c0 10be
00000100: 6be4 913d 2d5a 19be c785 80bc f593 21be
00000110: 5fe4 893c 02c2 babc 4bae 9dbc 6ae5 15bb
00000120: 77b3 e33d 9889 d33d d45e 1f3e 90d6 213c
00000130: f59f ddbc 020f 88bd cf7a ba3d 5161 77bb
00000140: 50e1 dabc 0d30 043e aec9 633e ea68 3fbd
00000150: e0de 4ebe eab6 2a3e 9c0b 34bd d361 8c3d
00000160: d3a0 b6bc d03d 1d3d 91f3 08be 7d9e 3ebe
00000170: 9412 3dbd 3194 423e 7e3b 90bd d6a8 abbd
00000180: e47f f1bd 0b37 bd3b 6eab b83d 8474 333e
00000190: 54ac d53b dd50 c33d 41f7 f2bd cc94 b2bd
000001a0: f27c 523d 24d2 18be 698d 8bbd 1730 023e
000001b0: d908 36ba cb9f 02be 1bd1 c6bd a43b 72be
000001c0: 9660 ac3d 3916 e3bd 36f4 ad3c acf6 e43d
000001d0: 4afe cf3d b6f7 7cbd 84f8 2ebe c05d 683c
000001e0: 3f1b 9d3e a69e 81bd 76f5 d23d 24e8 55bc
000001f0: e2e2 b1bd 5197 7cbd 40fe 2b3e 7ead f73d
00000200: 27c9 973c 6491 3d3d 274c 92bd 45e8 203e
00000210: 63e4 dcbd 611f 0d3d f8dc 773c ba86 54be
00000220: caa6 03bd 99c5 bb3c caf9 31bc 11bf 2dbd
00000230: 29b0 62bd 0284 eb3d e196 193d a1f1 243d
00000240: 2129 68bd 4e9e a1bd 65c8 5a3d 3957 1b3e
00000250: 43a1 c0bb c093 453e 02b6 ac3c 937c db3d
00000260: aed7 0b3d 1b45 0fbe d161 82bd b092 17be
00000270: a175 6bbb f3eb 2ebd 99a1 213e 9e32 f03d
00000280: 48dc 1ebc 8c47 873d c5bb 39be edd9 e23d
00000290: c50a 69be 98d0 3cbe 5c0a 7ebd b036 2abd
000002a0: 1a80 82bb 8d43 03bd 2f3b 23bd cd43 87bc
000002b0: 0278 fb3d 3f95 113e 8064 8b3d 3c99 5fbd
000002c0: 86a1 88bd 2a0d 69bd 9569 ed3d 15e2 bebd
000002d0: 23e1 e53d a498 953d 943a 5bbd 74a2 a73d
000002e0: c2a4 e73b 1983 5ebd 338e 703c b9b8 843d
000002f0: 2309 853d 5872 9fbd 2993 7cbb 96b0 843d
00000300: 3c6f 2d3e eb64 843c 6e85 e2bd 8fbb 7e3e
00000310: 5e62 84bd dc58 833d 67f3 32be 6eaf ff3d
00000320: 9ee4 b9bd b079 f8bd 6428 babd 30df 27bd
00000330: f017 5abe 5c00 1c3e c630 2cbe 33dd 26be
00000340: 5d13 55bd c0ec b9bc 69c5 98bb 731f 8cbd
00000350: 11cb 2abe c1ef 5b3d 1d03 ee3d 3636 12be
00000360: 6d14 10bd a26b 06be 52da d5bd d690 1f3e
00000370: e973 293e 133e 5d3d 19d4 74bd 6446 40be
00000380: 4c97 cb3d b72d a3bd 2a7c 28be 2410 71bd
00000390: ae69 50be 06af 97bc 4d84 0e3d 1c79 f83d
000003a0: 2c77 a53d b465 f03c e501 7a3d 6edc cbbb
000003b0: 567b 87bc 4174 053e 9481 fc3d 5519 4abd
000003c0: 7b84 3cbd cfd1 f2bd 6eab fb3d 2b9f 343e
000003d0: 05b4 dcbc b87f 2e3e 5fd2 eabd 8e5c a73e
000003e0: c854 da3d 6808 19bd 4b61 953d d76f 8e3e
000003f0: c561 4ebe fe3b d8bd 0ee0 16be 194d 6d3d
0.010388447 0.13931765 -0.22090167 0.032568302 -0.077590264 0.09995754 -0.13652849 -0.1806246
0.21689647 -0.101876944 0.07657591 0.18052673 0.055695813 -0.106349304 -0.12730092 -0.18971163
-0.06654706 -0.028652241 0.045667693 0.13382041 -0.1665267 0.06014748 0.041749693 0.12527376
-0.03182685 0.100773394 0.19076727 -0.047813516 -0.05741841 0.088113256 -0.08583586 -0.24066694
0.033243 0.120373495 0.117145665 0.2679428 -0.0916061 0.102654174 0.08981033 -0.11577732
0.05464759 -0.083739474 0.06592925 -0.03768795 0.071069755 -0.07590808 0.13942882 -0.07594707
0.012213732 -0.15381211 -0.05215878 -0.02153268 0.14477113 0.06120927 0.15593243 -0.10806784
0.06346711 0.08640761 -0.06983605 0.10538706 0.022725165 -0.032824375 -0.1663559 -0.14136061
0.071236454 -0.14975806 -0.01568879 -0.15779097 0.016832529 -0.022797588 -0.019248148 -0.0022872337
0.111182146 0.10328978 0.15563518 0.009877816 -0.027053813 -0.066434875 0.09105455 -0.0037747214
-0.026718765 0.12908955 0.22244903 -0.046730913 -0.20202208 0.16671339 -0.043956384 0.06854596
-0.022293484 0.038389027 -0.13374163 -0.18615146 -0.046160296 0.19001843 -0.07042597 -0.08381812
-0.11791971 0.005774384 0.090170726 0.17524916 0.0065207873 0.09536908 -0.11863566 -0.08719787
0.05138869 -0.14923912 -0.06814081 0.12713657 -0.00069440674 -0.12756269 -0.097078525 -0.23655564
0.0841686 -0.11088223 0.021234613 0.111798614 0.10155924 -0.061759673 -0.17086989 0.014182508
0.3068485 -0.06329088 0.10300724 -0.013055835 -0.086858526 -0.061667744 0.16796207 0.12093638
0.018528534 0.046281233 -0.07143431 0.15713604 -0.10785749 0.034453753 0.015128367 -0.20754519
-0.032141484 0.02292137 -0.010862777 -0.042418543 -0.05534378 0.11499788 0.037497405 0.040269498
-0.05667985 -0.07891522 0.053413767 0.15169992 -0.005878599 0.19294643 0.021082882 0.1071712
0.034141235 -0.13991205 -0.06366313 -0.1480205 -0.0035928267 -0.042705487 0.15784301 0.117284045
-0.009696074 0.06605443 -0.18138035 0.11076722 -0.22758015 -0.18438947 -0.0620216 -0.04155606
-0.003982556 -0.032046843 -0.039851364 -0.016511822 0.12278749 0.14217089 0.06806278 -0.054589495
-0.06671433 -0.05689732 0.11592404 -0.093204655 0.11224582 0.073045045 -0.05352266 0.08185282
0.007069201 -0.054324243 0.01468234 0.064805456 0.06495883 -0.07785481 -0.0038539863 0.064789936
0.16936964 0.016161403 -0.11060606 0.24876235 -0.064640746 0.06413433 -0.17475663 0.124846324
-0.090768084 -0.12132585 -0.09089735 -0.040984333 -0.21298194 0.15234512 -0.1681548 -0.16295318
-0.05202042 -0.022695899 -0.004662205 -0.06841936 -0.16679026 0.053695444 0.116216876 -0.14278492
-0.03517573 -0.13126996 -0.10442032 0.15582594 0.16548122 0.054014277 -0.059772585 -0.18776852
0.09940967 -0.07967704 -0.16453615 -0.058853284 -0.20352814 -0.018516075 0.03479414 0.12132475
0.08079371 0.02934537 0.061036963 -0.0062213456 -0.016538303 0.13032629 0.123294026 -0.049340565
-0.04602478 -0.11856424 0.12288557 0.17638843 -0.026941309 0.17040908 -0.11465906 0.326878
0.10660702 -0.037361532 0.07293948 0.27819702 -0.20154484 -0.105583176 -0.14733908 0.057934854

attention_net.3.attention_c.bias f4 [2]
00000000: 75e6 1eb9 f314 b639
-0.00015153906 0.00034729354

classifiers.0.weight f4 [1, 256]
00000000: e38c b4bd 060f d0bd 8624 abbd cb63 4b3e
00000010: 8eb1 2a3d 9450 b6bc ad25 51be 585f 673c
00000020: 6234 96bc c1b9 903d a462 8abd 16d2 073e
00000030: 61b7 223b ada4 22bd 119e c4bc 2c18 1f3e
00000040: d62a f5bc 8fcb b2bb 1308 83bd e5ca 1dbe
00000050: adaf 863d e043 cf3c 4699 24bd d0e3 7fbd
00000060: 5853 8fbe d1de 733d be7b 1b3e 3b1a 26be
00000070: 1c8f 283e c51e 0dbc 66c5 8cbd eb26 1ebd
00000080: c4b4 b93d 2deb 25be 386e 93bd 8ea1 4fbe
00000090: c70e 0cbe 808d 0c3e c5c9 803e def9 64be
000000a0: abf5 223e 32d6 57be f726 9abd cd07 42be
000000b0: 78d8 94bc 01ab 0b3e c449 aebd 8fb6 f63c
000000c0: 971f d8bd 0914 4fbd 2658 a0bd bc04 cfbc
000000d0: 0e8e 813d 8b87 b53d 020f 4bbb 9ca8 0fbe
000000e0: a978 b73d 79e1 283d 3fd6 2d3e 5a38 f53d
000000f0: be59 bcbc 1ad5 02bd 5b5c 0d3d adee 2b3d
00000100: a784 04be a902 df3d 0cf9 633c cccc 12bc
00000110: 3d31 34be 2801 883d aa48 5b3e 5599 313e
00000120: 8bb4 36be a72c 983c e847 3cbe b082 e13d
00000130: dc12 053b e9a2 76bc 081b 9fbb 9605 b43d
00000140: e0d0 733d f2cf 1a3e 6a9a 00be 00e1 993c
00000150: 197b 09be 2b74 50bc 3841 fcbd abd8 7e3d
00000160: 0a20 9ebd bc64 17be e8a3 523e 3fdf 36be
00000170: fe2d 6cbd 5319 4abe a7ce 3abc 7c19 553e
00000180: b225 e03d c625 fbbd e918 3bbe 1559 e63d
00000190: 16ec da3d 2c53 1a3e 87f4 273e eff7 b73c
000001a0: bc69 afbd ec6c 2f3e 156c 793d 539a 80bd
000001b0: 1587 40bd b913 ee3d d19b a73d c5f7 9ebc
000001c0: c52a fe3d ac1f be3d 5943 933b ceb9 433d
000001d0: 0c93 30be abc8 dcbd 2462 703c 64a3 19be
000001e0: 0bd8 393d 5d9d b43c 3bae 4f3d b0b8 293d
000001f0: 64ff aa3d f5ca 36bc bae0 173c 781e ee3c
00000200: fce5 96bd 1850 05be d795 8abd 2fca b13d
00000210: bff2 dc3b 296a f7bd 076e 353e ae71 49be
00000220: b417 1dbd 9711 b13d 060b db3c d8de fcbd
00000230: 5179 ccbb 3a62 d6bd 5e1a 903d 1b96 14be
00000240: d00b c33d 45f1 d73d 5f02 4d3c a44d 09bc
00000250: 0fdf e13b ec99 ccbd 362f 1fbe eb79 813d
00000260: beac 823e 32a5 36bc 2312 653d fc83 023e
00000270: 17d5 fcbb 2294 583e 9d6d 38be 30a5 ffbc
00000280: 23a0 ab3d 039a 0c3d 313c a63d 026f 27bc
00000290: 8f44 743e f8e5 763d aa7d 083e 35a8 bbbd
000002a0: 4cd3 5bbd bc66 73bd 5d17 f33d e613 a53d
000002b0: a615 ce3d 8c64 e5bd ba8b e83c e802 70bb
000002c0: 3b62 e8bc 870e 7dbc 7396 1cbd 3a31 28be
000002d0: c3b3 b93d b35d 18bd c2ac a23d df75 e83c
000002e0: 9260 85be 8a15 db3d 8b8d 483c ee1a 703d
000002f0: 7001 553e e197 093e cf10 43bd 8f49 b63c
00000300: 141d 383e a4b2 7d3d 5232 68be 1753 fa3d
00000310: 9459 8e3c 63a9 f7bd 3dfa 3d3e 6e3a 32be
00000320: 0566 abbd 8982 553d 4fc0 433d e3ff b3bd
00000330: e120 143e 5027 6639 6690 3fbc 05d2 a53c
00000340: 3805 10be ecee 533e f956 183e e725 bebc
00000350: 8780 b2bd 82c8 c93d c266 00be 2187 c13d
00000360: 9eca 38bd 264a 82be 0966 733d 515a 06ba
00000370: 1f49 043e 63d2 ab3b 0787 a3bd 37ac 93bd
00000380: 79ad 3c3b 8f2e d13a 1ad2 97bd ae59 f83d
00000390: da4b 4abd c879 f33c e387 1cbe a283 e8bc
000003a0: fbd8 45bd 0b8d 583e bc4e 373b 5a2f 2d3e
000003b0: bcd8 c53d af35 2c3d 465e f9ba e672 37be
000003c0: 66cb 1bbd b3a6 08be 2f4d 073d 1e99 d3bb
000003d0: 9e9e 043c 8e1d e2bd f967 82bd dbae cdbd
000003e0: a761 3f3e 5016 bdbc f1b6 6c3d 47fd 4d3d
000003f0: f771 c33d 41a6 91be f10c f03a 5cb8 11be
-0.088159345 -0.101591155 -0.08356576 0.19862287 0.041673236 -0.02225522 -0.20424528 0.014121853
-0.018335525 0.0706668 -0.067570955 0.13263735 0.002482854 -0.03970783 -0.024001153 0.15536565
-0.029927652 -0.005456395 -0.063980244 -0.1540943 0.06576476 0.02530092 -0.040185235 -0.06247312
-0.27993274 0.059538666 0.15183923 -0.16220944 0.16460842 -0.008613293 -0.06873588 -0.038611334
0.090676814 -0.16202994 -0.07198757 -0.20276472 -0.13677512 0.13725853 0.25153938 -0.22360942
0.15914027 -0.21077803 -0.07526963 -0.18948288 -0.018169627 0.13639452 -0.085101634 0.030116348
-0.105529 -0.050556216 -0.07829313 -0.025270812 0.06325923 0.088637434 -0.0030984287 -0.14029163
0.08958561 0.041230652 0.1697626 0.11973639 -0.022992011 -0.03194151 0.034511905 0.041975666
-0.12941228 0.10889179 0.013914358 -0.00895996 -0.17596908 0.066408455 0.21414438 0.17343648
-0.17842309 0.01857598 -0.18386805 0.11011255 0.002030543 -0.015053489 -0.0048555173 0.08790128
0.05952537 0.15118387 -0.12558904 0.018784046 -0.13425864 -0.012723009 -0.12317127 0.06221835
-0.07720955 -0.14784521 0.20570338 -0.17858599 -0.05766105 -0.19736223 -0.011401809 0.20810503
0.1094469 -0.12263064 -0.18271221 0.1124746 0.10689561 0.1507079 0.16401874 0.022457091
-0.08565089 0.17131394 0.06089409 -0.06279435 -0.047003824 0.116248555 0.081840165 -0.019405255
0.124105014 0.09283385 0.0044941125 0.04778462 -0.17243594 -0.10780462 0.014671836 -0.15003735
0.04537205 0.022047693 0.05070327 0.041435897 0.08349493 -0.011156787 0.009269888 0.029067263
-0.07368085 -0.13018835 -0.06766861 0.086811416 0.006742805 -0.12080795 0.17717753 -0.19672272
-0.038352683 0.08645933 0.026738655 -0.123471916 -0.006240048 -0.10467954 0.07036279 -0.14510386
0.095237374 0.105440654 0.012512772 -0.008380327 0.0068930457 -0.09990296 -0.15545353 0.06322082
0.25522417 -0.011147784 0.0559255 0.1274566 -0.007715832 0.21150258 -0.18010564 -0.031206697
0.08380153 0.034326565 0.08116949 -0.010219337 0.23854278 0.06027791 0.13329187 -0.09162942
-0.053668305 -0.059424147 0.118696906 0.08060436 0.10062723 -0.112008184 0.02838694 -0.0036622826
-0.028367152 -0.015445358 -0.038229417 -0.16425028 0.0906749 -0.037198734 0.07943107 0.028376518
-0.2605024 0.106974676 0.012240778 0.058619432 0.2080133 0.13436843 -0.04762345 0.022251872
0.17979842 0.061937943 -0.22675446 0.122228794 0.017376699 -0.12092855 0.1855249 -0.17405102
-0.08369068 0.05212644 0.04779082 -0.08789041 0.14465667 0.00021949154 -0.011692142 0.020241747
-0.14064491 0.2069661 0.14876927 -0.023211433 -0.08715921 0.09852697 -0.12539199 0.09449602
-0.045115106 -0.25447196 0.05942348 -0.00051251525 0.12918518 0.005243586 -0.07984739 -0.07210582
0.0028789921 0.001595931 -0.074131206 0.1212648 -0.049388744 0.029721156 -0.15286212 -0.02838308
-0.04830263 0.21147554 0.0027970513 0.16912594 0.096604794 0.042043384 -0.0019025288 -0.17914924
-0.038035773 -0.1334484 0.033032592 -0.006457462 0.008094458 -0.11040793 -0.063674875 -0.10043117
0.18689595 -0.023081928 0.057791654 0.050290372 0.095432214 -0.28447154 0.0018314404 -0.14230484
