model/perineural.pt (torch, 801077 bytes, 14 tensors)

attention_net.0.weight f4 [256, 512]
0	0x3d4b848f	0.049686965
1	0xbdac6805	-0.08418278
2	0xbc278eaf	-0.0102268895
3	0x3cf3c6be	0.029757854
4	0xbd0f5aba	-0.034998633
5	0x3c78011f	0.015136986
6	0xbd875a93	-0.066090725
7	0x3c71d361	0.014759869
8	0xbc2dc7b4	-0.010606695
9	0x3cd9702a	0.026542742
10	0xbd9c0007	-0.07617193
11	0x3d10b541	0.035329107
12	0x3baae392	0.005215117
13	0x3dc0b0c1	0.09408713
14	0xbcfa79c0	-0.030575633
15	0xbd70bf34	-0.058776096
16	0xbc3f1c38	-0.011664443
17	0xbbd743c3	-0.006569357
18	0x3d96ed40	0.073694706
19	0xbca18984	-0.019718893
20	0xbd13e341	-0.036105398
21	0xbc8cdbd8	-0.017194673
22	0xbdc82b56	-0.09773891
23	0x3d479ce4	0.048733607
24	0x3d852a54	0.06502214
25	0x3da0f2f6	0.07858841
26	0xbd28ad37	-0.041180816
27	0x3d6a4b6f	0.057200845
28	0x3d4d8c79	0.050182793
29	0x3c930fbe	0.017951842
30	0xbc72ea32	-0.014826344
31	0x3ce0d0a2	0.027443234
32	0xbd7a4e98	-0.06111011
33	0xbc92d4ea	-0.017923791
34	0x3c8cd0ca	0.017189402
35	0x3e0cda26	0.13755092
36	0xba23342c	-0.0006225731
37	0xbd4337a9	-0.047660504
38	0xbcbb5c7a	-0.022871245
39	0xbc96bdc4	-0.018401034
40	0xbc0341ca	-0.008011291
41	0xbd93b9f8	-0.07213205
42	0x3bd9aba2	0.0066427747
43	0xbb066f46	-0.0020513101
44	0x3c79b997	0.015242002
45	0x3d366d32	0.04453773
46	0xbd411812	-0.047142096
47	0x3d97566e	0.07389532
48	0xbd003823	-0.031303536
49	0xbc700e14	-0.014651794
50	0xbdfaf5f5	-0.12253944
51	0xbbb14b3d	-0.0054105804
52	0xbcea5707	-0.028605951
53	0x3d0777b8	0.033073157
54	0x3c89f296	0.016839307
55	0x3dd362e7	0.103215985
56	0xbe00f5af	-0.12593721
57	0x3d0a3c33	0.033748817
58	0xbd801ee2	-0.062558904
59	0x3c05c383	0.008164289
60	0x3cd44553	0.025911963
61	0xbd5b61fd	-0.053560246
62	0x3dc90eea	0.09817298
63	0x3d009380	0.031390667
64	0xbd3791a8	-0.044816643
65	0xbd0e19e8	-0.034692675
66	0x3dfccb9b	0.12343522
67	0x3d3bea88	0.045877963
68	0x3cd81af6	0.026380043
69	0xbd4ec033	-0.050476264
70	0xbc7e2aa9	-0.015513101
71	0xbdc0b811	-0.09410108
72	0xbc1bb51c	-0.009503629
73	0x3d80d47b	0.062905274
74	0xbc9d6404	-0.01921273
75	0xbd8063c1	-0.062690265
76	0x3d20a39c	0.03921853
77	0xbd197def	-0.037473615
78	0x3cd2ca0d	0.025731111
79	0x3d07023a	0.032961108
80	0x3ba5d263	0.0050604804
81	0xbda969ec	-0.08272156
82	0xbccf66b8	-0.025317535
83	0xbcd5ee18	-0.026114509
84	0x3cfba356	0.030717533
85	0x3d55e0f9	0.052216504
86	0xbd3229fd	-0.043497074
87	0xbdcd5c6a	-0.10027392
88	0x3b8974f0	0.0041948482
89	0x3c469e5a	0.012122715
90	0x3d63767d	0.05553292
91	0xbc879295	-0.016549388
92	0x3e0254af	0.12727617
93	0xbdc2ef8d	-0.09518347
94	0xbcba0690	-0.022708207
95	0xbc3a7e40	-0.011382639
96	0x3d72b8f1	0.059258405
97	0xbdd3145d	-0.10306618
98	0xbd880398	-0.066413105
99	0x3d84f08d	0.06491194
100	0x3c9458e0	0.018108785
101	0xbcce538b	-0.02518632
102	0x3d5cd2dd	0.053912032
103	0x3cd5feb6	0.026122432
104	0x3ba8a224	0.005146282
105	0xbc79bb33	-0.015242386
106	0xbce419b0	-0.02784428
107	0x3d0a9c6e	0.03384059
108	0x3c623d03	0.013808492
109	0xbdaae867	-0.083451085
110	0x3d8806a0	0.066418886
111	0x3c16960a	0.009191046
112	0x3d022651	0.031774823
113	0xbd2a2072	-0.04153485
114	0x3b7a1063	0.003815674
115	0xbd59dd03	-0.05318929
116	0x3b7d2797	0.0038628334
117	0x3dbb10e5	0.09134082
118	0x3c25acdd	0.010112015
119	0xbca05913	-0.019573724
120	0x3d9f1ca8	0.077691376
121	0xbd6470f5	-0.055771787
122	0x3d510307	0.051028278
123	0xbc613089	-0.013744482
124	0x3cb22871	0.0217478
125	0x3d70f428	0.058826596
126	0xbd725f60	-0.059172988
127	0x3ca447c5	0.020053754
128	0x3caf3604	0.021388061
129	0xbd482ede	-0.04887282
130	0x3bfebf32	0.007774257
131	0x3d93f302	0.072240844
132	0x3ba65055	0.0050754943
133	0xbdafc419	-0.085823245
134	0x39a95190	0.0003229496
135	0xbd1ca026	-0.038238667
136	0xbcf85c95	-0.030317584
137	0xbd8392c5	-0.064244784
138	0xba9f16a3	-0.0012137484
139	0x3dc611cd	0.09671364
140	0x3c3f4ec4	0.011676494
141	0x3c04cfcf	0.008106186
142	0xbb4c588e	-0.0031180712
143	0xbcac7da1	-0.021055998
144	0x3cebe458	0.028795406
145	0xbccd329b	-0.025048545
146	0xbda73391	-0.081641324
147	0x3cad3539	0.021143543
148	0x3ddabb3d	0.10680244
149	0xbac4e230	-0.0015021022
150	0x3d3edd84	0.046597973
151	0x3ce5ecc9	0.02806701
152	0xbd2bc810	-0.04193884
153	0x3c3ba82c	0.0114536695
154	0x3cd4df0d	0.025985265
155	0xbd3dbaeb	-0.046320837
156	0x3d4bfb14	0.049799994
157	0x3bdbef20	0.0067118555
158	0xbd36cd06	-0.04462912
159	0x3d150a01	0.036386494
160	0xbd4bb496	-0.049732767
161	0xbccecd29	-0.025244312
162	0x3db478ba	0.08812089
163	0x3cbecdbe	0.023291465
164	0xbcc11849	-0.02357115
165	0x3d6e0e50	0.05811912
166	0x3bae5d5c	0.005321188
167	0xbd578180	-0.052613735
168	0xbbd52450	-0.006504573
169	0xbc842ba8	-0.016134098
170	0xbcae00f3	-0.021240687
171	0xbb3fdd2c	-0.0029276116
172	0xbbd451d1	-0.00647948
173	0x3dc6760f	0.09690487
174	0x3daa53ff	0.08316802
175	0xbd04a4b3	-0.032383632
176	0x3c77d58f	0.0151266
177	0xbda2ea85	-0.07954887
178	0x3bbb6e5c	0.005719943
179	0xbd33b6bb	-0.043875437
180	0xbd4359cd	-0.047693063
181	0xbdab0c96	-0.0835201
182	0xbd5d7592	-0.054067202
183	0x3b6db27c	0.0036269715
184	0xbd0fc980	-0.035104275
185	0x3b5b3bcf	0.0033452397
186	0xbce5ec22	-0.028066698
187	0x3cd6db2a	0.026227552
188	0xbc33d4c6	-0.010976022
189	0xbdc7fbda	-0.09764834
190	0x3be1a48f	0.006886072
191	0xbc938233	-0.01800642
192	0xba899e2e	-0.0010499412
193	0x3de87d06	0.11351971
194	0xbd0a13e3	-0.03371037
195	0xbc461d28	-0.012091912
196	0x3da49f15	0.08038155
197	0x3d27af2d	0.040938545
198	0x3d18a752	0.037268944
199	0x3bba3051	0.0056820293
200	0x3d374eda	0.044752933
201	0xbd14e326	-0.036349438
202	0xbd3165fc	-0.04331015
203	0xbd589cf8	-0.052884072
204	0x3d11a323	0.03555597
205	0xbdf838ca	-0.12120207
206	0x3d52c86e	0.051460676
207	0xbcfe6ff2	-0.031059239
208	0x3c99bd4a	0.018767018
209	0x3be63144	0.007024916
210	0xbd65332b	-0.055957
211	0x3ddb7535	0.10715715
212	0xbc537292	-0.012905734
213	0x3bfe0e69	0.0077531827
214	0x3dc88c9f	0.09792446
215	0x3d4baa2c	0.049722835
216	0x3d3fceea	0.046828188
217	0xbd5754e5	-0.052571196
218	0xbdd0fd8c	-0.1020461
219	0x3ce783b9	0.028261052
220	0x3d66e36b	0.056369226
221	0xbdb2729c	-0.08713266
222	0xbda506d9	-0.08057947
223	0xbc5ab6ee	-0.013349278
224	0x3bee4770	0.0072716996
225	0xbd4d9f41	-0.050200704
226	0x3d564697	0.052313413
227	0xbd0856cd	-0.033285905
228	0xbd47f17c	-0.04881428
229	0x3c5dda72	0.013540851
230	0x3d0747b8	0.03302738
231	0x3dd2ad6f	0.10286986
232	0xbbdab50a	-0.0066744136
233	0xbbba4b46	-0.005685243
234	0xbd05c509	-0.03265861
235	0xbd0bdf26	-0.034148358
236	0xbd439075	-0.047745187
237	0x3d3d1f51	0.046172444
238	0x3d1a3cc3	0.037655603
239	0x3d4fe8b1	0.05075902
240	0x3ceb2dc2	0.028708342
241	0x3ca0db57	0.01963584
242	0xbdb1dc57	-0.086846046
243	0x3d3c4d5c	0.045972213
244	0x3d00ab8a	0.031413592
245	0xbccf838a	-0.025331277
246	0x3d2158f1	0.03939146
247	0xbaf3a379	-0.0018588147
248	0xbd309879	-0.04311416
249	0x3cd472f4	0.02593372
250	0x3cd44322	0.025910918
251	0xbdaa1f0f	-0.08306705
252	0x3d083651	0.033254925
253	0x3d51bdd7	0.051206436
254	0x3d9100e4	0.07080248
255	0xbc662520	-0.014046937

attention_net.0.bias f4 [256]
0	0xbbf9f40f	-0.007627971
1	0xba895538	-0.0010477668
2	0xbb452953	-0.0030084446
3	0xbafed8d9	-0.0019443288
4	0xbb924ff8	-0.0044650994
5	0xbb8c8014	-0.004287729
6	0xbba6d1c6	-0.005090925
7	0xbafbb321	-0.0019203165
8	0xbc276d11	-0.010218875
9	0xbbd9d3e2	-0.006647573
10	0xbc3ddf0f	-0.011588826
11	0x38743701	5.822536e-05
12	0xbb2e3bab	-0.0026585858
13	0xbb963c42	-0.00458482
14	0xbb46b548	-0.0030320454
15	0xbbb4de56	-0.0055196686
16	0xbb96f6df	-0.004607066
17	0xb9bc5ce3	-0.0003592736
18	0x3b16efd9	0.0023031144
19	0xbbb333ff	-0.005468845
20	0xbba1c707	-0.004937056
21	0xbbbb0897	-0.005707811
22	0xbbc337f4	-0.005957598
23	0x3988e1a4	0.00026108057
24	0xbc0c280b	-0.008554469
25	0xbbfc8292	-0.007705995
26	0xbbb43e03	-0.0055005564
27	0xbba62566	-0.005070376
28	0xbc0a6a25	-0.008448158
29	0xbba3b27f	-0.0049956436
30	0xbb4f4f92	-0.003163312
31	0xbb538b45	-0.0032279056
32	0xbaafee9b	-0.001342255
33	0xbbc64ceb	-0.00605165
34	0xba3f4cf7	-0.00072975404
35	0xbc206fc2	-0.00979227
36	0xbbeddd94	-0.00725908
37	0xbbba11ab	-0.0056783757
38	0xbbd36768	-0.006451536
39	0xbbbf2488	-0.0058332123
40	0xbb648e63	-0.0034874908
41	0xbb997a43	-0.004683764
42	0xbb89de22	-0.0042073885
43	0xbbdc26a7	-0.006718475
44	0xbb89a970	-0.0042011067
45	0x3b0ef02c	0.0021810634
46	0xbb2a047c	-0.0025942614
47	0x3b857e3e	0.004073887
48	0xbb854e2b	-0.0040681562
49	0xbc5f9a3a	-0.01364761
50	0xbb8a9a18	-0.004229795
51	0xba70b17e	-0.0009181722
52	0xbc008c22	-0.00784591
53	0xbbd5f7df	-0.0065297927
54	0xbc0050d3	-0.00783177
55	0xbc162040	-0.009162962
56	0xbaaaa02f	-0.0013017709
57	0xbadd129a	-0.0016866506
58	0xbc25fec3	-0.010131541
59	0x3adb2579	0.0016719542
60	0xbbae2016	-0.0053138835
61	0x3aec9246	0.0018048964
62	0xbbe062cc	-0.006847715
63	0xbb621570	-0.003449764
64	0xbb498759	-0.003075084
65	0xbb0614a4	-0.002045908
66	0xba7a1fdd	-0.0009541491
67	0xbba49956	-0.005023162
68	0xbc0fd4a2	-0.008778723
69	0xbc0c44db	-0.008561338
70	0xbb28b847	-0.0025744603
71	0x3a1d72d4	0.00060061854
72	0xbbe3d188	-0.0069524683
73	0xbbf1dfd5	-0.007381419
74	0xbbc4eb18	-0.0060094707
75	0xbb6293c5	-0.003457294
76	0xbb9a29a5	-0.0047046714
77	0xbbad0fa6	-0.0052814065
78	0xbb1b2373	-0.0023672252
79	0xbbf9c9f9	-0.007622954
80	0xbc18ff18	-0.009338163
81	0xbba25367	-0.00495379
82	0xbc0a9a7c	-0.0084596835
83	0xbbac3e99	-0.0052564857
84	0xbbc67f4e	-0.0060576564
85	0x3b8f279b	0.004368735
86	0xbaf1d2b5	-0.0018449636
87	0xbb3425b5	-0.0027488295
88	0xbb6534da	-0.003497413
89	0xbc33a23c	-0.010963973
90	0xbb6ffdb8	-0.0036619734
91	0x3ba6656d	0.005078009
92	0xbba0b8e6	-0.004904854
93	0xbbacd662	-0.00527458
94	0xbb006d36	-0.0019596345
95	0xba0a2cf2	-0.00052709796
96	0xb9f2c1fc	-0.00046302367
97	0xbb9e4eb1	-0.004831158
98	0xbb5b76a6	-0.0033487468
99	0xbc16bd37	-0.009200386
100	0xbb953d80	-0.0045544505
101	0xbbc7e713	-0.0061005442
102	0xbbb7bb52	-0.005607047
103	0xbba51f33	-0.0050391196
104	0xbbf81e20	-0.0075719506
105	0xbb79e7ff	-0.0038132665
106	0xbb7b2ce5	-0.003832632
107	0xbc15d7d6	-0.009145698
108	0xbbb45af5	-0.005504007
109	0xbb363358	-0.00278016
110	0xbba165a2	-0.0049254457
111	0xbb839428	-0.0040154643
112	0xbaacbb7a	-0.0013178431
113	0xbba5d23d	-0.0050604627
114	0xbb05e992	-0.0020433408
115	0xb9e6067a	-0.00043873844
116	0xbc0c7e46	-0.008575028
117	0xbb145e23	-0.0022639118
118	0xbbeb16eb	-0.007174363
119	0xbb3613fe	-0.0027782912
120	0xbb691a76	-0.003556875
121	0xbb9d14c5	-0.0047937357
122	0xbb91241e	-0.0044293543
123	0xbb39fb71	-0.002837863
124	0xbc1b14fc	-0.009465452
125	0x3a598a91	0.0008298541
126	0xbc996c56	-0.018728416
127	0xbc129080	-0.008945584
128	0xbada9786	-0.0016677238
129	0xbba66d7b	-0.005078969
130	0xbabd0f2d	-0.0014424078
131	0xbc3c2509	-0.011483439
132	0xbb9d2479	-0.0047956076
133	0xbb844423	-0.004036443
134	0xb94a3054	-0.00019282225
135	0xbb7c8395	-0.0038530577
136	0x3c46e8aa	0.012140432
137	0xbb3a7990	-0.0028453805
138	0xbb624338	-0.0034524929
139	0xbbe6c301	-0.0070422892
140	0x3bb7ba2e	0.005606911
141	0xba9cc9c4	-0.0011961986
142	0xbbd1ca9d	-0.006402327
143	0xbbb110e7	-0.0054036262
144	0xbaa20d9d	-0.0012363676
145	0xbb0fb8a8	-0.0021930132
146	0xbbaf62bd	-0.0053523467
147	0xbab460b3	-0.0013761729
148	0xbc5cdd6c	-0.013480525
149	0xbb83594c	-0.0040084478
150	0xbb2f9d31	-0.0026796574
151	0xba84e70d	-0.0010139659
152	0xbbc74046	-0.00608066
153	0xbc0a9be7	-0.008460022
154	0xbbd2bf30	-0.0064314827
155	0xbbc28ab5	-0.0059369453
156	0xbace4ae9	-0.0015738878
157	0xbbd25951	-0.0064193388
158	0xbc411362	-0.011784406
159	0xbbd5a240	-0.006519586
160	0xbbb68dae	-0.0055710888
161	0x39841d51	0.00025198844
162	0x3a2eaf0c	0.0006663657
163	0xbc34781e	-0.011014966
164	0xbb9f6ab7	-0.0048650163
165	0xbb7760d7	-0.003774693
166	0xbc913438	-0.017725095
167	0xbbcdfdc5	-0.006286355
168	0xbb2c5aeb	-0.0026299309
169	0xbb9f7864	-0.0048666466
170	0xbb91f3ab	-0.0044540963
171	0xbc0092d0	-0.007847503
172	0xbb91fb24	-0.004454987
173	0xbbb5dbb5	-0.0055498728
174	0xbc0296fe	-0.00797057
175	0x3a3b1d5f	0.00071378605
176	0xba5b7b82	-0.0008372591
177	0xbaa8b9d4	-0.0012872764
178	0xbb0dec32	-0.0021655676
179	0xbbfbf407	-0.0076890024
180	0x3b96818d	0.0045930804
181	0xbbb97105	-0.005659225
182	0xba2d079c	-0.000660056
183	0x3b98b2f2	0.004660004
184	0xbb05313d	-0.0020323538
185	0x3b697919	0.0035625158
186	0x3b36f3f9	0.0027916415
187	0xbc2205cd	-0.009889078
188	0xbbdd09fd	-0.0067455755
189	0xbbc584dc	-0.006027801
190	0xbc07139d	-0.008244422
191	0xbc0f21f0	-0.008736119
192	0xbb5f2332	-0.0034048078
193	0x37a017ad	1.9084511e-05
194	0xbbac5383	-0.005258979
195	0xbb89301e	-0.004186644
196	0xbbe37b2b	-0.006942173
197	0xbc014231	-0.007889316
198	0xbc262774	-0.010141242
199	0xbb484e67	-0.003056431
200	0xbb6b0b3a	-0.0035864846
201	0xbaa6b336	-0.0012718204
202	0x3a5ae7a7	0.0008350559
203	0xbb45178d	-0.0030073852
204	0xbb35183f	-0.002763286
205	0xbbc4c905	-0.0060054087
206	0xbb3ea710	-0.0029091276
207	0xbb318357	-0.0027086341
208	0xbb64ce0d	-0.0034912855
209	0xbbbfcd79	-0.0058533517
210	0xba77186b	-0.0009425941
211	0xbb3412e6	-0.0027477085
212	0xb9c1e7da	-0.00036984571
213	0x3c32829e	0.010895399
214	0xbbc59ccc	-0.0060306545
215	0xbb9f6c83	-0.0048652305
216	0xbbad01b6	-0.005279745
217	0xbb4d7bbb	-0.0031354267
218	0xbc031976	-0.008001676
219	0x3bcb25db	0.006199581
220	0x3a85f979	0.0010221443
221	0xbb8bc181	-0.004265011
222	0xbb46fbb8	-0.0030362438
223	0xbb96dc15	-0.0046038725
224	0xbb5cb9d5	-0.00336801
225	0xbb249246	-0.00251116
226	0xb910a1c3	-0.00013793171
227	0xbbc567e6	-0.0060243485
228	0x3b7ba3f6	0.003839729
229	0xbc05ed0e	-0.008174194
230	0xbbd1f9ac	-0.006407937
231	0xbb097c87	-0.0020978765
232	0xbc024199	-0.00795021
233	0xbc036a45	-0.008020942
234	0xbb8df29c	-0.0043319
235	0xbc3a8d31	-0.011386202
236	0xba716b30	-0.00092093926
237	0xbc0805b5	-0.008302142
238	0xbb65aa40	-0.0035044104
239	0xbbc3ce3b	-0.0059755123
240	0xbbef5194	-0.007303426
241	0xbc0be9ae	-0.0085396
242	0xbb8ffec9	-0.0043943864
243	0xbbbe3bf7	-0.005805488
244	0xbba6754f	-0.0050799022
245	0xbb98b053	-0.0046596914
246	0xbc374d61	-0.011187882
247	0xbbbbbd3c	-0.0057293456
248	0xbb940d45	-0.0045181834
249	0xbbb8fc7b	-0.0056453324
250	0xbc13b5bb	-0.009015496
251	0xbb042e17	-0.0020169073
252	0xbb03b32e	-0.0020095813
253	0xb9895115	-0.00026191087
254	0xbb605f9c	-0.0034236675
255	0xbb6d4818	-0.0036206301

attention_net.3.attention_a.0.weight f4 [128, 256]
0	0x3cd4c1c1	0.025971295
1	0xbbd097fd	-0.0063657747
2	0x3d1493c6	0.03627374
3	0x3ad818da	0.0016486899
4	0x3d5d6cea	0.054058947
5	0x3d50a3ea	0.05093757
6	0xbd7d4947	-0.06183746
7	0xbc26a93f	-0.010172187
8	0xbdd8d60c	-0.10587701
9	0x3d424f75	0.047439057
10	0x3d67eb08	0.056620628
11	0x3cbee242	0.023301248
12	0xbe184140	-0.14868641
13	0x3c8fb249	0.017541068
14	0xbd929508	-0.07157332
15	0xbb7d6baa	-0.003866891
16	0xbd6985d7	-0.057012405
17	0xbc3bf7d1	-0.011472658
18	0x3cdb79e3	0.026791519
19	0x3d40cf4f	0.047072705
20	0xbc2be2c0	-0.010491073
21	0xbd6333ef	-0.05546945
22	0x3cd5aa26	0.02608211
23	0xbda30c02	-0.07961275
24	0xbd866e74	-0.06564036
25	0x3d5ad4f7	0.053425755
26	0x3cd4ebfa	0.025991429
27	0x3e3e02da	0.18555775
28	0xbd7c0b38	-0.061534137
29	0x3dd3336a	0.10312541
30	0x3d91c84e	0.07118283
31	0xbd98297d	-0.07429788
32	0x3c61299e	0.0137428325
33	0x3dcd66ce	0.10029374
34	0x3b749542	0.003732041
35	0x3d9823c5	0.074286975
36	0x3dec77ca	0.115462855
37	0xbe1c1030	-0.1524055
38	0x3d6172df	0.05504119
39	0xbd8b50db	-0.06802531
40	0xbc06d7b6	-0.00823014
41	0x3d5d1281	0.053972725
42	0x3c75e845	0.015008991
43	0xbdc2da81	-0.095143326
44	0xbd359f03	-0.0443411
45	0x3cdfb1b2	0.027306411
46	0xbd0adb6b	-0.03390066
47	0xbc02ed03	-0.007991078
48	0xbe232c3a	-0.1593484
49	0x3ca088b8	0.019596443
50	0x3d52c1ac	0.05145423
51	0xbcfb2085	-0.030655155
52	0x3d83248f	0.064034574
53	0x3ca859be	0.020550605
54	0xbcd30894	-0.025760926
55	0x3dbabd60	0.09118152
56	0x3d2604d7	0.04053196
57	0xbd93b5d8	-0.07212418
58	0xbe2d779d	-0.1694016
59	0x3d28bd62	0.041196235
60	0x3d0720ef	0.032990392
61	0xbcb87330	-0.022515863
62	0xbd48523f	-0.04890656
63	0x3e1ae150	0.15125012
64	0x3c884e47	0.016638888
65	0x3d9d5ebd	0.076840855
66	0xbd2350a0	-0.039871812
67	0xbd322228	-0.043489605
68	0x3d520fae	0.051284485
69	0xbcabf5a3	-0.020991152
70	0x3e08e2c8	0.1336776
71	0x3d017cd8	0.0316132
72	0x3c359504	0.011082891
73	0x3d807d7c	0.06273934
74	0xbcfcedac	-0.03087505
75	0x3e73550e	0.23762915
76	0xbc881122	-0.016609732
77	0x3ddd56ea	0.10807593
78	0xbd95f781	-0.07322598
79	0x3d8a2a83	0.0674639
80	0xbc5d0dc5	-0.013492052
81	0xbcd53b90	-0.026029378
82	0x3ddc53db	0.10758182
83	0x3dc53d11	0.09630788
84	0xbdbb7935	-0.09153978
85	0xbd093e1d	-0.0335065
86	0xbd912861	-0.0708778
87	0x3cb9e0ef	0.022690265
88	0x3a1a8ba7	0.00058954436
89	0x3ded6737	0.11591952
90	0x3df6cd61	0.12050892
91	0x3ba4c089	0.005027835
92	0xbd1786a6	-0.036993645
93	0xbbc5269b	-0.006016565
94	0xbd815d30	-0.06316602
95	0xbd34cef4	-0.04414268
96	0xbd56165c	-0.052267417
97	0x3de922ca	0.113835886
98	0x3d9f76a8	0.07786304
99	0x3e1a795f	0.15085362
100	0xb80daf1a	-3.3780096e-05
101	0x3ceb6b86	0.028737795
102	0xbddcd0a5	-0.10781983
103	0xbaf85f3e	-0.0018949283
104	0x3b843f87	0.0040358934
105	0x3d3e0a5d	0.046396602
106	0x3dab45c8	0.08362919
107	0xbd5b1b01	-0.05349255
108	0x3dcdc79d	0.10047839
109	0x3cf4212d	0.029800976
110	0x3ce8281d	0.02833944
111	0x3d293168	0.041306883
112	0xbd4d59f0	-0.0501346
113	0xbd27ad47	-0.040936735
114	0xbc032c24	-0.008006129
115	0x3cb60fb2	0.022224281
116	0x3ba58010	0.0050506666
117	0x3c7eaa94	0.015543599
118	0x3e01b17a	0.12665358
119	0xbc7c06e6	-0.015382504
120	0xbcce8dca	-0.025214095
121	0x3dbbfcc2	0.09179069
122	0x3cf97df9	0.030455576
123	0x3d73d945	0.059533376
124	0xbc6d6f9a	-0.01449194
125	0xbca7ac0c	-0.02046778
126	0xbda5ca10	-0.08095181
127	0xbd6392cd	-0.055559922
128	0xbd1a437f	-0.037662026
129	0xbdecc5d9	-0.11561174
130	0xbd3e315f	-0.046433803
131	0x3d347049	0.044052396
132	0x3d820152	0.06347908
133	0x3d625f94	0.05526693
134	0x3d9caffa	0.07650752
135	0x3db82b73	0.08992662
136	0xbd50b203	-0.050951015
137	0xbcdf66c4	-0.027270682
138	0xbac27eff	-0.0014838873
139	0x3d485576	0.048909627
140	0x3de88243	0.113529705
141	0xbdb6f826	-0.08934049
142	0xbdc9c859	-0.098526664
143	0xbd8c32a9	-0.068456
144	0xbd5eb0b4	-0.054367736
145	0xbd996e6b	-0.07491764
146	0x3d3e3945	0.046441335
147	0xbd6447b5	-0.055732448
148	0x3dcd80ef	0.10034358
149	0xbd027192	-0.03184659
150	0x3ce25e70	0.027632922
151	0x3bdecdf9	0.006799456
152	0xbd8ada5c	-0.0677993
153	0xbd0ad890	-0.033897936
154	0x3ccf5045	0.02530683
155	0xbd969ed3	-0.07354512
156	0xbdc6a58d	-0.09699545
157	0xbd43ab93	-0.047771048
158	0xbda0b2e0	-0.07846618
159	0x3d0d65ef	0.03452104
160	0x3d42e73b	0.0475838
161	0xbd82e2bb	-0.06390902
162	0xbdb0a9b1	-0.08626116
163	0x3d157190	0.036485255
164	0xbc76c3aa	-0.015061298
165	0x3d579a12	0.052637167
166	0xbcd1209e	-0.025528248
167	0xbcba6a4e	-0.022755768
168	0xbd7c3cfb	-0.061581593
169	0xbd7adb67	-0.061244395
170	0xbcdc8ebe	-0.026923534
171	0x3de15e60	0.11004329
172	0x3cb9d0a8	0.022682503
173	0x3d5170e2	0.051133044
174	0xbd163cc9	-0.036679063
175	0xbc6c4201	-0.014420033
176	0x3cc78c65	0.024358938
177	0x3d58220e	0.052766852
178	0xbcc5898f	-0.024113445
179	0xbddac34f	-0.106817834
180	0x3cc7a6f9	0.024371611
181	0x3d02de71	0.031950418
182	0x3e197097	0.14984356
183	0xbe29e557	-0.16591392
184	0x3d06f8a0	0.03295195
185	0xbd459d0c	-0.048245475
186	0x3e02cbea	0.127731
187	0x3d335f02	0.04379178
188	0xbc3c587a	-0.011495704
189	0x3d9cecd0	0.07662356
190	0x3d362645	0.04447009
191	0xbb5ad7d9	-0.0033392815
192	0x3dc43c0e	0.09581767
193	0xbd9d3068	-0.076752484
194	0xbc9b5bad	-0.018964613
195	0xbdd747fa	-0.10511775
196	0xbd3c1ba7	-0.04592481
197	0xbd26d7e1	-0.040733222
198	0x3c87e79f	0.016589938
199	0xbd24fecc	-0.040282056
200	0x3c6198e4	0.013769362
201	0xbd91844e	-0.07105313
202	0x3d3e125f	0.04640424
203	0x3e256ec0	0.16155529
204	0xbda87bdd	-0.0822675
205	0xbd3c780c	-0.046012923
206	0xbd055d0d	-0.032559443
207	0x3c62538d	0.013813865
208	0xbd81d9e5	-0.06340388
209	0xbda1446f	-0.07874381
210	0xbc3631a0	-0.01112023
211	0xbbfe910e	-0.0077687567
212	0xbd3553b9	-0.044269297
213	0x3c81b8a5	0.015835116
214	0x3c93b064	0.018028446
215	0x3d9d0790	0.07667458
216	0x3d54f3fb	0.05199049
217	0x3deae0e7	0.11468678
218	0xbd3dc13a	-0.046326853
219	0x3b810f26	0.0039385734
220	0xbde4e3b5	-0.11176244
221	0x3cb85693	0.02250222
222	0xbe0db9d3	-0.13840418
223	0x3c86665b	0.016406229
224	0xbd24031c	-0.040042028
225	0x3d36f686	0.044668697
226	0x3d8c2a45	0.06844
227	0x3db2531d	0.08707259
228	0xbcddefe1	-0.027091922
229	0xbc89adc0	-0.016806483
230	0x3c51a4af	0.012795611
231	0x3c563492	0.013074057
232	0x3d30ee6d	0.04319613
233	0xbc9a765d	-0.018855268
234	0xbcbe5dec	-0.023238145
235	0xbbdc1c2b	-0.006717225
236	0x3c9ddde2	0.019270841
237	0xbba3f4d4	-0.005003551
238	0xbe1c676b	-0.15273826
239	0xbe62fe1b	-0.22167246
240	0x3cdb85f4	0.026797272
241	0xbcbc1401	-0.022958757
242	0xbd935ab5	-0.07195035
243	0x3de5419d	0.11194155
244	0xbc13699f	-0.00899735
245	0x3d264769	0.040595446
246	0x3bdada38	0.0066788457
247	0xbcfb1164	-0.030647941
248	0xbcf38796	-0.029727738
249	0xbc89ba9d	-0.016812617
250	0xbde436d0	-0.11143267
251	0xbcd7990d	-0.026318097
252	0x3d9fe326	0.07806997
253	0x3d811eaf	0.063046806
254	0xbd0be247	-0.03415134
255	0xbd91a409	-0.07111365

attention_net.3.attention_a.0.bias f4 [128]
0	0x38ca3d33	9.64351e-05
1	0x3c973903	0.018459802
2	0xbca06ca2	-0.01958305
3	0x3c994ebb	0.0187143
4	0xbb11ee17	-0.0022267157
5	0x3c3b8644	0.011445586
6	0xbbc67bcb	-0.0060572377
7	0x3c88a9c4	0.016682513
8	0x3c9c1eb5	0.019057611
9	0xbbf8ce27	-0.0075929346
10	0xbc8e0139	-0.017334567
11	0xbc3281c2	-0.0108951945
12	0xbc303777	-0.010755411
13	0x3ce5984a	0.028026719
14	0x3ac25daf	0.0014828945
15	0x3b04e203	0.0020276315
16	0xbc321235	-0.010868599
17	0xbcbbca63	-0.022923654
18	0x3c2ca2e4	0.010536883
19	0x3c4a5697	0.012349746
20	0xbc58ea37	-0.013239435
21	0x3c40bc1e	0.011763601
22	0x3c75d2fb	0.015003915
23	0x3bb1c88d	0.005425519
24	0x3bb6fb9f	0.005584195
25	0xb951f002	-0.00020021203
26	0x3c5c86b0	0.013459846
27	0x3bbc0433	0.0057378053
28	0x3ba77431	0.0051102866
29	0x3bca68a9	0.0061770272
30	0x3cae0edb	0.021247318
31	0xbb92c0d3	-0.004478553
32	0x384ea685	4.926931e-05
33	0xbbd8c63c	-0.0066154283
34	0xbcb12080	-0.021621943
35	0x3ca7a724	0.020465441
36	0xbc850ea0	-0.016242325
37	0xbbeaf958	-0.0071708374
38	0xbb39caf0	-0.002834972
39	0xbce0579e	-0.02738553
40	0x3c69d9b9	0.0142731005
41	0x3c20a905	0.009805922
42	0xbc4d74de	-0.01254007
43	0xbc6fc953	-0.014635402
44	0x3c912ab6	0.017720561
45	0x3c0f2809	0.0087375725
46	0xbba01c60	-0.004886195
47	0xbb68c3e4	-0.003551715
48	0xbcd7d499	-0.026346492
49	0xbc728eb5	-0.014804532
50	0xbc56e586	-0.013116246
51	0x3b3101c0	0.00270091
52	0xbba23cd6	-0.0049511
53	0x3c3a4a8c	0.011370312
54	0xbae9ca29	-0.0017836738
55	0x3bc4fa75	0.006011302
56	0x3c1f40f9	0.0097200805
57	0xbb02eb33	-0.0019976615
58	0x3b94c69f	0.004540279
59	0x3c01cb43	0.0079219965
60	0x3c5bc1df	0.013412922
61	0xbb672fec	-0.0035276366
62	0x3ba8a479	0.00514656
63	0xbc014d8a	-0.007892022
64	0x3cac5aca	0.021039385
65	0xbc6738c5	-0.014112656
66	0x3a9a0135	0.0011749627
67	0x3be90739	0.0071114567
68	0xbc810369	-0.015748696
69	0x3ae506be	0.0017473323
70	0xbc0d4c8e	-0.008624209
71	0xbc11f0f4	-0.008907545
72	0x3bbbac4e	0.0057273274
73	0x3b733757	0.0037111843
74	0xbcbdf54d	-0.023188258
75	0xbb2a0f6d	-0.0025949136
76	0x3bf6d1e3	0.0075323447
77	0x3c832b63	0.0160119
78	0xbad1c10e	-0.0016002969
79	0xbb91980e	-0.004443175
80	0xbbcd9d3e	-0.0062748482
81	0xbbbbfbd3	-0.005736807
82	0x3c3cd461	0.011525244
83	0xbce3d261	-0.027810277
84	0xbba9c62e	-0.0051810956
85	0x3bfff123	0.007810728
86	0x3c2ed891	0.010671751
87	0x3c334750	0.010942295
88	0xbbbe5d4b	-0.005809461
89	0x3b6e9cf2	0.0036409465
90	0xbcd6037e	-0.026124712
91	0x3bef479a	0.0073022367
92	0xbc45bf10	-0.012069479
93	0xbbdbfadb	-0.006713254
94	0x39b452c2	0.00034393935
95	0xbb653c37	-0.0034978518
96	0x3cf73dcb	0.030180832
97	0xbb1ed50e	-0.0024235877
98	0x3b2f20fe	0.0026722546
99	0x3bae5e9e	0.005321338
100	0xbcc2f5e8	-0.023798898
101	0x3b4bd7fa	0.0031104074
102	0xbcd48b03	-0.025945192
103	0x3b94c646	0.0045402376
104	0x3a0257e1	0.00049722014
105	0x390269f9	0.00012437244
106	0x3bd68a84	0.006547274
107	0x3c564345	0.013077562
108	0xbc91ea4d	-0.017811919
109	0xbbed1d8d	-0.0072361887
110	0xbb3b39a9	-0.0028568304
111	0x39ad0b51	0.00033005563
112	0x3b310453	0.0027010634
113	0xba365ae8	-0.0006956295
114	0xbbbbfecd	-0.0057371617
115	0x3c72900c	0.014804851
116	0xbbd94c7b	-0.0066314316
117	0x3c2715a3	0.01019803
118	0x3bbb2d0c	0.005712157
119	0x3cceabb6	0.025228363
120	0x3b54f361	0.0032493698
121	0xbc0e6681	-0.008691431
122	0x3b3cb320	0.002879329
123	0x3c3f8554	0.011689503
124	0xbb33ff35	-0.0027465348
125	0xbacefeea	-0.0015792523
126	0x3c2e6703	0.010644677
127	0x3bf4244e	0.007450617

attention_net.3.attention_b.0.weight f4 [128, 256]
0	0xbd10538a	-0.03523592
1	0x3cb85c72	0.022505019
2	0x3cb17673	0.021662926
3	0xbd5ff061	-0.054672603
4	0xbdc649c5	-0.09682039
5	0xbbb2afb7	-0.0054530757
6	0xbcbfba6e	-0.023404326
7	0xbd179e80	-0.03701639
8	0x3decae81	0.115567215
9	0xbd677c20	-0.05651486
10	0x3e1bce74	0.15215474
11	0xbd4c4568	-0.04987088
12	0xbd234186	-0.03985741
13	0xbd327a19	-0.043573473
14	0xbd86f237	-0.065891676
15	0xbd81e7ff	-0.06343078
16	0xbd2ed5cd	-0.042684365
17	0x3cc5b3ea	0.024133641
18	0x3dba9fd2	0.091125146
19	0x3d2a940b	0.04164509
20	0x3d16eb1d	0.036845315
21	0xbc8dc108	-0.017303959
22	0x3d48cf36	0.049025737
23	0xbcb3fc82	-0.021970991
24	0x3da7ccb3	0.0819334
25	0x3c99c2fc	0.018769734
26	0xbda0f236	-0.07858698
27	0xbd056c0d	-0.03257375
28	0x3d03f3f2	0.032215066
29	0x3c3858fc	0.011251684
30	0x3d9e75cc	0.07737312
31	0xbcf82947	-0.03029312
32	0x3c3781ee	0.011200411
33	0x3d9dd23a	0.07706113
34	0xbda141d2	-0.07873882
35	0x3d1036a7	0.03520837
36	0xbd824cab	-0.063622795
37	0x3d80378e	0.06260596
38	0x3d279f0d	0.040923167
39	0xbe0d3137	-0.13788305
40	0x3cbb54a1	0.022867503
41	0xbc22eb96	-0.009943863
42	0x3c2d3100	0.010570765
43	0xbd4ee443	-0.050510656
44	0x3d251409	0.04030231
45	0xbcad979a	-0.021190453
46	0xbce5b24f	-0.028039126
47	0x3c0f5dbe	0.008750377
48	0xbe057aa6	-0.13035068
49	0x3d2fe6c1	0.042944673
50	0x3d32b88a	0.04363302
51	0xbda8085f	-0.08204722
52	0xbd0ac28e	-0.033876948
53	0xbd83cfb4	-0.064361006
54	0x3d509b4b	0.05092935
55	0x3ce2a88e	0.027668264
56	0xbd33be69	-0.04388276
57	0xbd188b10	-0.037241995
58	0xba2fe77d	-0.00067102147
59	0xbe157139	-0.14593972
60	0x3cedd5fc	0.0290327
61	0x3d37b440	0.044849634
62	0x3dbfe698	0.09370154
63	0xbdd7ade4	-0.10531214
64	0x3de848e1	0.113420255
65	0xbd43842c	-0.04773347
66	0x3aa9af4e	0.0012945922
67	0xbc69b849	-0.014265128
68	0xbd84e7ba	-0.06489511
69	0xbe0b300b	-0.13592546
70	0x3c803c06	0.015653621
71	0xbca2b4d6	-0.01986162
72	0x3d6763e5	0.05649175
73	0xbbf2d170	-0.007410221
74	0xbe07408f	-0.13208221
75	0x3d0d15d4	0.034444645
76	0xbd8591c0	-0.0652194
77	0x3d390eb7	0.04518005
78	0xbdf4b921	-0.11949373
79	0x3d2e8706	0.042609237
80	0x3cfe1187	0.031014217
81	0xbd45aabc	-0.048258528
82	0xbd879bf4	-0.066215426
83	0x3b8ac967	0.004235435
84	0xbd9f8df9	-0.07790751
85	0x3d231ce1	0.039822463
86	0x3e31322f	0.173043
87	0xbe6abe0a	-0.22924057
88	0x3d3524f8	0.04422471
89	0xbe2b6df0	-0.16741157
90	0x3de2292e	0.11043011
91	0xbc6b3df2	-0.014358031
92	0xbe15b79c	-0.14620823
93	0xbd7f6989	-0.062356506
94	0x3dbde4f0	0.09272182
95	0xbcbf966f	-0.023387162
96	0x3d4b93c1	0.049701456
97	0xbb366eb7	-0.0027836987
98	0x39743567	0.00023289547
99	0xbd781e06	-0.060575508
100	0xbd014a47	-0.031564977
101	0xbc963d5b	-0.018339803
102	0xbd765ea5	-0.060148854
103	0x3df99320	0.12186265
104	0x3cc422e8	0.023942426
105	0xbcf4116c	-0.029793464
106	0xbe2685ec	-0.16262025
107	0x3c4fb418	0.012677215
108	0xbd3d71f9	-0.04625127
109	0xbc5b9eec	-0.013404589
110	0xbdc3cbf3	-0.095603846
111	0xbd93d6a0	-0.07218671
112	0xbdcd1f4a	-0.100157335
113	0xbbe1db05	-0.0068925642
114	0x3c969c1a	0.018384982
115	0xbc15c357	-0.009140811
116	0xbca7e226	-0.020493578
117	0xbe214b8e	-0.15751478
118	0x3d844d0a	0.064600065
119	0xbd7e2c04	-0.062053695
120	0xbda02447	-0.07819419
121	0x3dbac95d	0.09120438
122	0xbe34f071	-0.17669846
123	0x3debf8ae	0.11522041
124	0x3d1e6a64	0.03867568
125	0x3dc1b8be	0.09459065
126	0x3d6d54d6	0.057942234
127	0x3cb9abd0	0.022664934
128	0x3e2d0f88	0.16900456
129	0x3e013683	0.12618451
130	0x3cbce177	0.023056729
131	0xbdce2216	-0.10065095
132	0xbb95828c	-0.0045626815
133	0xbc1a9d2c	-0.009436887
134	0xbc55ec48	-0.013056822
135	0xbe03db77	-0.12876688
136	0xbc750528	-0.014954843
137	0xbd2ca980	-0.042153835
138	0xbbad2ce5	-0.005284893
139	0x3c8544f9	0.01626824
140	0xbd6f6f08	-0.058455497
141	0x3d173f3c	0.03692554
142	0xbd3cb451	-0.0460704
143	0x3e2f7880	0.17135811
144	0x3d26bc53	0.040706944
145	0xbd0b6898	-0.034035295
146	0x3d87e0ce	0.06634675
147	0x3d8bc7aa	0.06825192
148	0xbe5d0b81	-0.2158642
149	0xbda0b3cc	-0.078467935
150	0xbd9c7043	-0.076386
151	0xbdfe26f2	-0.12409772
152	0x3cb19ff2	0.021682713
153	0x3cdfe5fc	0.027331345
154	0xbc9a8908	-0.01886417
155	0xbdd6d31d	-0.104894854
156	0x3cdd0eeb	0.026984653
157	0xbd08cda2	-0.03339923
158	0xbd5d22f5	-0.053988416
159	0x3d0c405c	0.034241065
160	0x3c8adaa9	0.016949968
161	0x39d649b0	0.00040872162
162	0x3bc4fbd3	0.006011465
163	0xbd4bc909	-0.04975227
164	0x3cd63551	0.02614847
165	0xbdb2e02a	-0.08734162
166	0xbb1cb596	-0.0023911945
167	0xbc923e7d	-0.017852062
168	0xbcbd0be8	-0.023076966
169	0xbd83c81e	-0.06434654
170	0x3d8d32a5	0.06894425
171	0xbd9f34b9	-0.07773728
172	0x3cffaf85	0.031211624
173	0x3d9d7535	0.07688371
174	0x3b0fe5f2	0.0021957126
175	0x3d79735a	0.060901023
176	0x3cae7f0c	0.021300815
177	0x3d2610f7	0.040543523
178	0x3cdb3054	0.026756443
179	0xbba2e039	-0.004970577
180	0x3ca6b539	0.020350086
181	0x3d12f4ad	0.035877872
182	0xbc57f32e	-0.013180537
183	0xbdc3d79a	-0.09562607
184	0x3bb2335b	0.005438251
185	0xbd01c336	-0.03168031
186	0x3d8d11f4	0.0688819
187	0xbd242e78	-0.04008338
188	0x3cd0f629	0.025508003
189	0x3db9a308	0.09064299
190	0x3d0772f1	0.0330686
191	0xbe697e53	-0.22802095
192	0x3d48011b	0.04882918
193	0xbd0d5ef5	-0.034514386
194	0x3cf7e225	0.030259201
195	0x3d3d4721	0.046210412
196	0x3d9dc69b	0.077038966
197	0x3cbd88e5	0.023136565
198	0x3d1f767b	0.03893135
199	0xbc02cf82	-0.007984044
200	0x3dfda9b3	0.12385883
201	0xbdcf1970	-0.10112274
202	0xbdfa9d71	-0.12237061
203	0xbd01d55a	-0.03169761
204	0xbd891540	-0.06693506
205	0xbe492df6	-0.19646439
206	0x3db49722	0.08817889
207	0x3e0c8d89	0.13725866
208	0xbd879b0c	-0.0662137
209	0x3cd57daf	0.026060907
210	0xbcac4e31	-0.021033378
211	0x3d4dc6d4	0.050238445
212	0xbd97297b	-0.07380959
213	0x3cea4304	0.028596409
214	0x3dc76620	0.09736276
215	0xbd77a471	-0.060459558
216	0xbddf98c7	-0.10917812
217	0x3d064027	0.032776024
218	0xbd731278	-0.059343785
219	0xbe001bf8	-0.12510669
220	0x3c5fd380	0.013661265
221	0x3d3d16ae	0.046164207
222	0x3cf52839	0.029926406
223	0x3d40df68	0.047088057
224	0xbd2040b1	-0.039124195
225	0xbcfa9261	-0.030587377
226	0xbd9cbec1	-0.07653571
227	0x3d8651d6	0.06558578
228	0x3d8847c7	0.066543154
229	0xba65863c	-0.0008755659
230	0xbcd56369	-0.026048379
231	0x3de57dbb	0.11205622
232	0xbdcc6e6f	-0.09982001
233	0x3d99f41f	0.075172655
234	0x3d4c1577	0.049825158
235	0x3d80cb0a	0.06288727
236	0x3c0bb514	0.008527059
237	0xbd306f92	-0.04307515
238	0x3d2f8b75	0.042857606
239	0xbddf788d	-0.10911665
240	0x3e6a8a43	0.22904305
241	0x3defe87a	0.11714263
242	0xbc2163b4	-0.009850431
243	0xbc00042d	-0.007813496
244	0x3e17671b	0.14785425
245	0xbd75fc71	-0.0600552
246	0x3db4d048	0.08828789
247	0xbd5e1404	-0.054218307
248	0xbc5ea276	-0.013588538
249	0xbd3dd476	-0.046345197
250	0x3e28d6b5	0.16488154
251	0x3c9b6784	0.018970259
252	0xbc0c3ed4	-0.008559901
253	0xbd996939	-0.07490773
254	0x3d47e42e	0.048801593
255	0x3d95d85b	0.07316657

attention_net.3.attention_b.0.bias f4 [128]
0	0xbb40b777	-0.0029406229
1	0x3bcf3409	0.0063233417
2	0xbc8365c7	-0.016039742
3	0xbc680bec	-0.014162999
4	0x3cb2a4c9	0.021807091
5	0xbb5c1d31	-0.0033586735
6	0xbc0de04b	-0.008659433
7	0xbc1e64e4	-0.009667609
8	0xbc1b7f8d	-0.00949086
9	0x3ab05521	0.0013453105
10	0xbc04562b	-0.008077185
11	0xbb70a98b	-0.003672215
12	0xbab8cada	-0.001409854
13	0xbc167ca0	-0.009184986
14	0x3c29b018	0.010356925
15	0x3c426467	0.011864758
16	0xba0464f1	-0.0005050442
17	0x3c57d3d6	0.013173064
18	0xbbc56373	-0.006023818
19	0x3cc297ea	0.023754079
20	0xbbdf2e68	-0.006810952
21	0x38a57fec	7.8916404e-05
22	0x3bfc6cb5	0.0077033886
23	0xbb74de9d	-0.0037364133
24	0x3c764ac9	0.015032479
25	0xbba413f5	-0.005007262
26	0xbc367d8e	-0.011138333
27	0x3b9bda06	0.004756215
28	0xbc1b6a34	-0.00948577
29	0x3b50dd6f	0.0031870266
30	0xbcba1505	-0.022715101
31	0xba7885e0	-0.0009480398
32	0x3bc0b3a0	0.005880788
33	0x3bbe6966	0.0058109043
34	0xbab4e89a	-0.0013802231
35	0xba54c2c9	-0.00081161835
36	0x3c0d5cd6	0.008628091
37	0xbc19dce0	-0.00939104
38	0x3ba23b61	0.004950926
39	0xbbfe884b	-0.007767712
40	0x3c1dc66d	0.009629828
41	0x3ba80a7b	0.0051282025
42	0x3c10f233	0.008846807
43	0x3a8735c1	0.0010315703
44	0xbc2a6624	-0.010400329
45	0xbc21272e	-0.009836001
46	0xbc2bba17	-0.010481379
47	0xbae45509	-0.0017420362
48	0x3cc1ad18	0.023642108
49	0x3bd44986	0.0064784912
50	0x3c9605ab	0.01831325
51	0x3b32da19	0.002729064
52	0xbbd3c1f7	-0.0064623314
53	0x3c22645a	0.009911621
54	0xbc2f89b2	-0.010713981
55	0xbc08d027	-0.008350409
56	0xbc8b146a	-0.016977508
57	0xbc115e85	-0.008872633
58	0xbc3480fa	-0.0110170785
59	0x3c5eee75	0.013606657
60	0xba82ef6b	-0.0009989565
61	0x3c29ec03	0.010371211
62	0x3bdb0a2d	0.0066845627
63	0xbc632d89	-0.013865837
64	0x3b3aa48e	0.002847943
65	0x3bf69fc1	0.0075263684
66	0x3c37f7aa	0.011228481
67	0x3b2d281f	0.002642162
68	0x3c02b9f0	0.007978901
69	0x3bbb1ec5	0.005710455
70	0x3bc32d47	0.005956325
71	0xbb30d4f7	-0.0026982406
72	0xbc5c2224	-0.013435874
73	0xbaf068a6	-0.0018341735
74	0x3c43ff49	0.01196272
75	0xbbdf8f33	-0.0068224906
76	0x3b838e78	0.0040147863
77	0x3b2a0159	0.0025940745
78	0xbbf3a9d1	-0.007436015
79	0x3c094830	0.008379027
80	0x3c555149	0.013019868
81	0xbaa20e4b	-0.0012363879
82	0xbc25ab12	-0.010111587
83	0xbc456a5a	-0.012049282
84	0x3be80bbb	0.0070814765
85	0xb68eeeef	-4.2597453e-06
86	0x3c58e08c	0.01323713
87	0xbbe12072	-0.006870323
88	0x3b456b1e	0.0030123661
89	0xbc34071a	-0.010988021
90	0xbbaf0afe	-0.0053418865
91	0xbba3ad30	-0.004995011
92	0x3ba8f289	0.0051558656
93	0xbc889831	-0.016674133
94	0xbcc7dfdf	-0.024398742
95	0xbb06be14	-0.0020560073
96	0x3a729ba7	0.00092547614
97	0x3c104819	0.008806252
98	0x378ac852	1.6544163e-05
99	0x3bb64120	0.0055619627
100	0xb9ea8645	-0.00044731997
101	0x3b194102	0.0023384695
102	0xbafc311d	-0.0019240711
103	0x3bbebc18	0.0058207624
104	0xbca45151	-0.020058306
105	0xbce01b88	-0.027356878
106	0xbca7300b	-0.02040865
107	0x3c8b99d5	0.017041126
108	0xbc0f124b	-0.008732389
109	0xbc136961	-0.008997292
110	0xbbbb1d1b	-0.0057102568
111	0xbbf9d147	-0.0076238248
112	0xbbc33689	-0.005957429
113	0xbb1f5f7c	-0.0024318388
114	0xbaed5213	-0.0018106125
115	0xbac9a485	-0.0015384114
116	0xbc3ddce3	-0.011588308
117	0xbcea61c1	-0.028611066
118	0xbb8ea199	-0.00435276
119	0xbc4a28ae	-0.0123388
120	0x3bc2da50	0.005946435
121	0xbc945c06	-0.018110286
122	0x3c28d1dc	0.010303941
123	0xbbbea476	-0.005817945
124	0xbba79ea8	-0.005115349
125	0xbb1a8192	-0.0023575765
126	0xbb4eb458	-0.0031540599
127	0x3b92ddd5	0.004482011

attention_net.3.attention_c.weight f4 [2, 128]
0	0x3d3c73c2	0.046008833
1	0x3dc79328	0.09744865
2	0xbe5738ee	-0.2101781
3	0x3ca54a41	0.020177009
4	0xbd367710	-0.04454714
5	0x3d4b498f	0.049630698
6	0xbdc375a6	-0.09543924
7	0xbe336334	-0.17518312
8	0x3e52c389	0.20582403
9	0xbdb4a636	-0.08820765
10	0x3d3a4517	0.045476045
11	0x3e12c215	0.14331849
12	0x3c305b74	0.010763992
13	0xbcb08951	-0.021549853
14	0xbe226b4a	-0.1586124
15	0xbe6e3f13	-0.23266248
16	0xbccec062	-0.02523822
17	0x3b7574b6	0.0037453598
18	0x3d49b6c3	0.04924656
19	0x3e11a20f	0.14221977
20	0xbe089cb3	-0.13341026
21	0x3d15286e	0.03641551
22	0x3cb0f297	0.02160005
23	0x3df9cf07	0.121976905
24	0xbcea4526	-0.028597426
25	0x3dee5015	0.11636368
26	0x3e1594ed	0.14607592
27	0xbd616c3a	-0.055034854
28	0x3c5410c1	0.012943448
29	0x3db1b66c	0.08677372
30	0xbd47ba0d	-0.048761416
31	0xbe806ccb	-0.25083002
32	0x3ce45ba1	0.027875723
33	0x3e0d8d3d	0.1382341
34	0x3e08aa7e	0.13346288
35	0x3e888984	0.26667416
36	0xbd94e9a3	-0.07271125
37	0x3e10c589	0.14137854
38	0x3d4540c4	0.04815747
39	0xbd6cc9a0	-0.057809472
40	0x3ca92f02	0.020652298
41	0xbda47c7c	-0.08031556
42	0x3d7dc5e6	0.06195631
43	0xbd61a0c6	-0.055084966
44	0x3d9b27ab	0.075759254
45	0xbd749779	-0.059714768
46	0x3e0c0731	0.13674618
47	0xbdbc2b02	-0.091878906
48	0x3c40d240	0.0117688775
49	0xbe2bcba8	-0.16776907
50	0xbd62a8c7	-0.05533674
51	0xbd01824c	-0.0316184
52	0x3e24dff1	0.16101052
53	0x3d46edac	0.048566505
54	0x3e3c1c39	0.18370141
55	0xbde79bff	-0.11309051
56	0x3c9a3c38	0.018827543
57	0x3dd6fb4e	0.10497151
58	0xbd0622ca	-0.03274802
59	0x3df94abc	0.121724576
60	0x3d401f8f	0.046905097
61	0xbb03d405	-0.0020115387
62	0xbe0ddca5	-0.138537
63	0xbde6c56d	-0.11268125
64	0xbcde1bfb	-0.027112952
65	0xbe14bafa	-0.14524451
66	0xbd72112a	-0.0590984
67	0xbe369034	-0.17828447
68	0x3d0488d7	0.032357063
69	0xbcde54b7	-0.027140005
70	0x3ccfd687	0.02537085
71	0xbc9a75b8	-0.01885496
72	0x3d9cf299	0.07663459
73	0x3db323cd	0.08747063
74	0x3e07d2cf	0.13264011
75	0x3cb7dc0e	0.022443797
76	0xbbf78d57	-0.007554691
77	0xbd82e1a6	-0.06390695
78	0x3db4d50e	0.088296995
79	0xbc32522a	-0.010883847
80	0xbc8974a1	-0.016779246
81	0x3ddaed6b	0.10689815
82	0x3e63cdea	0.22246519
83	0xbbe1fd51	-0.0068966527
84	0xbe335c35	-0.17515643
85	0x3db2c9f6	0.08729927
86	0xbca87109	-0.020561712
87	0x3dc62833	0.09675636
88	0xbc5ee802	-0.01360512
89	0x3bde2370	0.006779127
90	0xbe56cd41	-0.20976736
91	0xbe1fb0e4	-0.15594822
92	0xbd28b292	-0.041185923
93	0x3e163bbc	0.14671224
94	0xbd19be2b	-0.037534874
95	0xbd947b38	-0.072500646
96	0xbe06fbb0	-0.13181949
97	0x3c9cb878	0.01913093
98	0x3d634fca	0.055496015
99	0x3e685b44	0.22691065
100	0xbc4e19d5	-0.012579401
101	0x3cf374b1	0.029718729
102	0xbda25f8b	-0.079283796
103	0xbe062274	-0.1309908
104	0x3d391641	0.04518724
105	0xbe342a46	-0.17594251
106	0xbd11eeac	-0.035628006
107	0x3dc69b55	0.09697596
108	0x3a3b80e3	0.00071526895
109	0xbe285a67	-0.16440736
110	0xbdc704af	-0.0971769
111	0xbe47849f	-0.19484185
112	0x3d2139eb	0.039361876
113	0xbdcc1cc6	-0.099664256
114	0xbc01e381	-0.007927776
115	0x3db28975	0.08717624
116	0x3d87e815	0.06636063
117	0xbd4f3e2e	-0.05059641
118	0xbe13890b	-0.14407746
119	0x3cb22203	0.021744734
120	0x3ea673d4	0.32510245
121	0xbceef48c	-0.029169343
122	0x3e072991	0.1319945
123	0xbd01cc51	-0.031688992
124	0xbd9b9823	-0.07597377
125	0xbdbb87c2	-0.09156753
126	0x3e33b50c	0.17549533
127	0x3ddfdc68	0.10930711
128	0x3c8abc6c	0.01693555
129	0x3cdcc95f	0.02695149
130	0xbd518b7d	-0.051158417
131	0x3e2cd6d5	0.16878827
132	0xbe00b6a2	-0.12569669
133	0x3c707e98	0.01467862
134	0x3c3fad1b	0.011698986
135	0xbe2d9a14	-0.16953307
136	0xbd73878a	-0.059455432
137	0x3dddef00	0.10836601
138	0xbd07f672	-0.033194013
139	0xbdacd456	-0.08438937
140	0xbd08311f	-0.03324997
141	0x3ddefcb1	0.10888041
142	0x3db07d6a	0.08617671
143	0x3d844e9d	0.06460307
144	0xbd56476c	-0.052314207
145	0xbd98ea74	-0.074665934
146	0x3da17e63	0.078854345
147	0x3e109133	0.14117889
148	0xb9ce0ed2	-0.00039302424
149	0x3e602de4	0.21892506
150	0x3d0515ba	0.032491423
151	0x3deee046	0.116638705
152	0x3db15b93	0.086600445
153	0xbe2455d5	-0.16048367
154	0xbd747aa3	-0.059687268
155	0xbe2431e4	-0.16034657
156	0x3c1c451f	0.009537964
157	0xbdb0ed06	-0.08638959
158	0x3dd64031	0.10461462
159	0x3e29d793	0.16586141
160	0xbc613737	-0.013746074
161	0x3d28de6e	0.04122775
162	0xbe47acb7	-0.19499479
163	0x3dcc5b87	0.09978395
164	0xbe804904	-0.25055707
165	0xbe6ec887	-0.23318683
166	0xbcd760c7	-0.026291264
167	0xbd51d822	-0.05123151
168	0x3ca433cf	0.020044236
169	0xbd6cc27c	-0.057802662
170	0x3c2f0f6b	0.010684828
171	0xbd020e5d	-0.03175198
172	0x3dbea882	0.09309484
173	0x3e14b27b	0.1452121
174	0x3d909c57	0.070610695
175	0xbddd525e	-0.10806726
176	0xbdbfd6e6	-0.093671605
177	0xbd9d5d1e	-0.07683776
178	0x3e168ecc	0.1470291
179	0xbd8ddcec	-0.06926903
180	0x3df6a19d	0.12042544
181	0x3d963df5	0.07336036
182	0xbd83f7a5	-0.06443719
183	0x3d9b91a0	0.07596135
184	0x3c5942ab	0.013260524
185	0xbd51c0ee	-0.051209383
186	0xba9d0f22	-0.0011982659
187	0x3b2cdac6	0.0026375516
188	0x3dab9841	0.083786495
189	0xbd27fd4f	-0.04101306
190	0x3cc76d69	0.024344163
191	0x3d30bf31	0.043151084
192	0x3e242c88	0.16032612
193	0xbaa78d0f	-0.0012783128
194	0xbe008668	-0.12551272
195	0x3e7fd5f0	0.24983954
196	0xbd97a33b	-0.074041806
197	0x3d3339a4	0.043756142
198	0xbe21170c	-0.15731448
199	0x3e0a04b8	0.13478363
200	0xbd5b0d87	-0.053479698
201	0xbdfd4398	-0.12366408
202	0xbdb0c6f3	-0.086316966
203	0xbda70479	-0.0815515
204	0xbe740f8f	-0.2383406
205	0x3e233136	0.15936741
206	0xbe2d426a	-0.16919866
207	0xbdc9451d	-0.098276354
208	0xbd74a5f8	-0.059728593
209	0xbd3c2be3	-0.04594029
210	0x3c69038d	0.014222038
211	0xbc9a4da7	-0.018835856
212	0xbe412f14	-0.18865615
213	0x3d101467	0.035175707
214	0x3dbcc625	0.092174806
215	0xbdd2c867	-0.1029213
216	0xbd22d869	-0.039757166
217	0xbe0580d2	-0.13037422
218	0xbd97907b	-0.07400604
219	0x3e33b652	0.17550018
220	0x3df58771	0.11988724
221	0x3d03587d	0.03206681
222	0xbca6de05	-0.020369539
223	0xbe1ae7fe	-0.1512756
224	0x3d9a38b9	0.0753035
225	0xbdd86ce2	-0.10567643
226	0xbe3b27d8	-0.18276918
227	0xbdadc945	-0.08485655
228	0xbe37ad0e	-0.17937109
229	0xbd50f17b	-0.051011544
230	0x3d90483a	0.07045026
231	0x3dfb979e	0.12284778
232	0x3d16623e	0.036714785
233	0x3d81211a	0.06305142
234	0x3ccdba81	0.025113346
235	0x3c6576de	0.014005391
236	0xbc689fe9	-0.014198282
237	0x3d8d40f6	0.06897156
238	0x3debecf0	0.115198016
239	0xbd8009fa	-0.06251903
240	0xbc415cbf	-0.011801898
241	0xbd43d91f	-0.047814485
242	0x3e04e253	0.12976961
243	0x3e487791	0.19576861
244	0xbc430f0a	-0.011905441
245	0x3df4cd61	0.119532354
246	0xbdf1ffc1	-0.11816359
247	0x3e9df182	0.30848318
248	0x3dd7f37b	0.10544487
249	0xbc58c5f4	-0.013230789
250	0x3d600944	0.054696336
251	0x3e915818	0.28387523
252	0xbe2e9b7e	-0.17051503
253	0xbdc14b52	-0.09438194
254	0xbe1e2fe2	-0.15447953
255	0x3d07df34	0.033171847

attention_net.3.attention_c.bias f4 [2]
0	0x393d96a0	0.00018080557
1	0x3a129582	0.00055917364

classifiers.0.weight f4 [1, 256]
0	0xbda2334a	-0.07919939
1	0xbd582e07	-0.05277827
2	0xbdace880	-0.08442783
3	0x3e0cdc46	0.13755903
4	0x3d275894	0.04085596
5	0xbcb376d5	-0.02190725
6	0xbe0590c5	-0.13043506
7	0xbbd54ea8	-0.0065096207
8	0xbc8db31c	-0.01729732
9	0x3d16f5d2	0.036855526
10	0xbdac829d	-0.0842335
11	0x3da1e971	0.079058535
12	0x3ccee7a2	0.025256936
13	0xbd22c260	-0.03973615
14	0xbccbf914	-0.024899043
15	0x3db0906f	0.086212985
16	0xbca36e50	-0.019950062
17	0xbc066a03	-0.008203986
18	0xbd9a7a83	-0.075428985
19	0xbda02e56	-0.07821338
20	0x3cb972e8	0.0226378
21	0x3b7d7d90	0.0038679577
22	0xbd4aceb5	-0.049513537
23	0xbd1010b1	-0.03517217
24	0xbe6c0ab5	-0.2305096
25	0x3cf4db2e	0.02988967
26	0x3de1b38c	0.11020574
27	0xbe106a4f	-0.14103054
28	0x3d957962	0.072985426
29	0xbd24e186	-0.04025414
30	0xbdb5a063	-0.08868482
31	0xbd4a11ce	-0.049333386
32	0x3d8eec15	0.06978623
33	0xbe1a7a1c	-0.15085644
34	0xbd46c0c8	-0.048523694
35	0xbe3193d2	-0.17341545
36	0xbdc0093d	-0.09376762
37	0x3daca10f	0.08429157
38	0x3e4323aa	0.19056574
39	0xbe438005	-0.19091804
40	0x3de412e7	0.11136418
41	0xbe387a5b	-0.18015425
42	0xbd32640a	-0.043552436
43	0xbde84346	-0.113409564
44	0xbc90ad60	-0.017660797
45	0x3de38013	0.111084126
46	0xbd04195e	-0.032250755
47	0x3d420ec7	0.047377374
48	0xbdcb583d	-0.099289395
49	0xbd1dd76a	-0.038535513
50	0xbdabc410	-0.08387005
51	0x3cd900ef	0.026489703
52	0x3d4162e4	0.04721345
53	0x3da80bbb	0.082053624
54	0xbc3e149b	-0.011601592
55	0xbdd89b52	-0.105765
56	0x3d8dc0a1	0.06921507
57	0x3ce169a0	0.027516186
58	0x3dcaf1c4	0.099093944
59	0x3d98ae2b	0.07455095
60	0xbcf9ee2b	-0.030509075
61	0x3ca0df0c	0.019637607
62	0xbc0d3abe	-0.008619962
63	0x3c023900	0.00794816
64	0xbdb3ac87	-0.08773141
65	0x3d77ed5e	0.060529105
66	0xbc6d2dcd	-0.014476252
67	0x3c01875c	0.007905807
68	0xbe1095b5	-0.14119609
69	0x3d417aa9	0.04723612
70	0x3de5cbaa	0.112204865
71	0x3d8c9fa9	0.0686639
72	0xbe0c3e5b	-0.13695662
73	0xbc0dd100	-0.0086557865
74	0xbe390a7b	-0.18070404
75	0x3c630ba9	0.0138577605
76	0x3c633751	0.013868169
77	0xbbb22a0f	-0.0054371427
78	0xbce72522	-0.028215948
79	0x3d8e11c2	0.06936981
80	0x3d8b2393	0.067938946
81	0x3e0190e0	0.12652922
82	0xbdcba486	-0.0994349
83	0x3cc73b35	0.024320224
84	0xbdf166a0	-0.11787152
85	0x3c3b256f	0.011422499
86	0xbd58491f	-0.05280411
87	0x3c4c235d	0.012459603
88	0xbd6a416c	-0.057191297
89	0xbe1c5b4e	-0.15269205
90	0x3e0008df	0.12503384
91	0xbe338a55	-0.17533238
92	0xbcbde7e8	-0.02318187
93	0xbe182d96	-0.1486114
94	0x3ba01225	0.0048849755
95	0x3e202cb0	0.15642047
96	0x3dbaed02	0.09127237
97	0xbdf52a7e	-0.11970995
98	0xbe1ae438	-0.15126121
99	0x3db10498	0.08643454
100	0x3cd4f318	0.025994822
101	0x3d9fc5b0	0.07801378
102	0x3e310824	0.17288262
103	0xbb867b93	-0.0041040867
104	0xbdc4a871	-0.0960244
105	0x3e00d8a3	0.1258264
106	0x3d7dbaa5	0.061945576
107	0xbd4a5b69	-0.04940358
108	0xbd470544	-0.048589006
109	0x3d8a7824	0.06761196
110	0x3d8eeaf8	0.069784105
111	0xbc3f399d	-0.011671451
112	0x3c1bca54	0.009508688
113	0x3d0fca25	0.03510489
114	0xbd3ae6ec	-0.04563038
115	0x3d732f4d	0.05937128
116	0xbe1d4866	-0.15359649
117	0xbda30de9	-0.079616375
118	0x3cdabe7c	0.026702158
119	0xbdc9911f	-0.09842133
120	0x3ca6f455	0.020380178
121	0x3cbb3a08	0.02285482
122	0x3cebfda4	0.028807469
123	0xbb6f3cec	-0.0036504818
124	0x3cd3a95a	0.025837589
125	0x3cda3677	0.026637299
126	0x3afbc299	0.0019207775
127	0x3a726f23	0.0009248128
128	0xbd097d19	-0.033566568
129	0xbdc17c1d	-0.09447501
130	0xbd99141d	-0.074745394
131	0x3ce1763e	0.027522203
132	0x3c2b771b	0.010465409
133	0xbdb12896	-0.08650319
134	0x3de32db7	0.11092704
135	0xbde2d37f	-0.11075496
136	0xbc2a2da7	-0.010386861
137	0x3d01ffcf	0.0317381
138	0xba47aeac	-0.00076172757
139	0xbe0643dc	-0.13111824
140	0x3d232415	0.039829332
141	0xbd61d31a	-0.055132963
142	0x3d9f766e	0.077862605
143	0xbdbb78c4	-0.091538936
144	0x3d5a523c	0.05330108
145	0x3da8a1f6	0.082340166
146	0x3ce2544c	0.027628087
147	0x3c8456c6	0.016154658
148	0xbca7c2e5	-0.020478675
149	0xbdb91252	-0.090366974
150	0xbe11ac90	-0.14225984
151	0x3d051e6f	0.032499727
152	0x3e6e73f9	0.23286428
153	0xbda3626f	-0.07977759
154	0x3d8d4050	0.06897032
155	0x3da04016	0.078247234
156	0xbd0c0089	-0.034180198
157	0x3df1e0f5	0.11810485
158	0xbe0d0f64	-0.13775402
159	0xbc8e529b	-0.017373374
160	0x3dbca1dd	0.092105605
161	0x3cce6629	0.025195198
162	0x3de6bb32	0.112661734
163	0xbcf2ccc7	-0.029638661
164	0x3e32c162	0.17456582
165	0x3d4eca06	0.050485633
166	0x3df44db3	0.119288824
167	0xbd9d60c5	-0.07684473
168	0xbd4c2140	-0.049836397
169	0xbd30cd6e	-0.043164663
170	0x3dd728de	0.10505842
171	0x3de52939	0.11189503
172	0x3d538da6	0.05164876
173	0xbdbd2406	-0.092353866
174	0x3ce72480	0.028215647
175	0x3beef815	0.0072927573
176	0xbc5e364c	-0.01356275
177	0xbcb38cf9	-0.021917807
178	0xbc1b59b6	-0.009481838
179	0xbdd50102	-0.10400583
180	0x3d8afb10	0.067861676
181	0xbb66d3d2	-0.003522147
182	0x3db9c2a8	0.09070331
183	0x3bce6162	0.00629823
184	0xbe75df40	-0.24010944
185	0x3d7f54fa	0.0623369
186	0x3cc51c7b	0.024061432
187	0x3cd65cda	0.026167322
188	0x3e02c038	0.12768638
189	0x3d900575	0.07032291
190	0xbc204da8	-0.00978414
191	0x3b5a0678	0.0033268016
192	0x3e1be0bb	0.15222447
193	0x3d3e0f66	0.046401404
194	0xbe28c2a3	-0.16480498
195	0x3db29c22	0.08721186
196	0x3c9ec423	0.019380635
197	0xbe0ff7e8	-0.14059412
198	0x3e19906c	0.14996499
199	0xbe1418e6	-0.14462623
200	0xbd9f36fb	-0.077741586
201	0x3d010b62	0.031504996
202	0x3d2d014a	0.042237557
203	0xbd9b2739	-0.075758405
204	0x3db77a97	0.08958929
205	0x3ce56bcf	0.028005509
206	0xbd048fee	-0.032363825
207	0x3d0bd938	0.034142703
208	0xbdd1766e	-0.10227667
209	0x3de3dc64	0.111260206
210	0x3e0e006f	0.13867353
211	0xbc8f49e8	-0.017491296
212	0xbd5052a4	-0.050860062
213	0x3d6ad72d	0.057334114
214	0xbd63a992	-0.055581637
215	0x3da2675c	0.079298705
216	0xbd57cdb9	-0.052686427
217	0xbe7ca648	-0.24672806
218	0x3d8ecf1e	0.06973098
219	0xbd150bcb	-0.0363882
220	0x3dda27be	0.106521115
221	0xbc9de68b	-0.01927497
222	0xbd13b7bf	-0.036063906
223	0xbc115e98	-0.008872651
224	0xbcb28c92	-0.021795545
225	0x3ad66a15	0.0016358519
226	0xbd3bdd42	-0.045865305
227	0x3da6aca4	0.08138397
228	0xbd348d81	-0.04408026
229	0x3ca10fa5	0.01966078
230	0xbe102dd7	-0.14079987
231	0xbd307faa	-0.0430905
232	0xbd06530a	-0.032794036
233	0x3e015447	0.12629806
234	0x3cf2bbb4	0.02963052
235	0x3e0b6faa	0.13616815
236	0x3d94e004	0.0726929
237	0x3d17de33	0.03707714
238	0x3b776148	0.0037747193
239	0xbe15058d	-0.14552899
240	0xbd8349a0	-0.06410527
241	0xbdec0f95	-0.115264095
242	0x3cdb5856	0.02677552
243	0xbc420737	-0.01184254
244	0x3b08beba	0.0020865635
245	0xbd54eabf	-0.051981684
246	0xbd1fb46a	-0.038990416
247	0xbc0737a7	-0.008253015
248	0x3e05cfeb	0.13067596
249	0xbc87305c	-0.016502552
250	0x3c7ebf2f	0.015548511
251	0x3d053787	0.032523658
252	0x3d6f522e	0.058427982
253	0xbe883de7	-0.26609728
254	0x3cd423d5	0.025895992
255	0xbe2357eb	-0.15951507
