model/type_checkpoint.pt (torch, 805865 bytes, 17 tensors)

attention_net.0.weight f4 [256, 512]
000000 84 65 78 3d f4 33 62 3d 7b be d1 bc 9f 48 8c bd
       0.060643688 0.055225328 -0.025603523 -0.06849789
000010 18 d3 db 3d 3d 4b 2f 3d 18 3b a0 bd c5 5f 3f bd
       0.10733622 0.042796362 -0.07823771 -0.046722192
000020 e7 b7 99 bc 98 15 4e bd c6 ed 75 bd 16 f5 c7 3c
       -0.01876445 -0.050313562 -0.06004121 0.024408858
000030 56 02 4b 3d 95 cc 10 bd 46 05 0d be 38 74 0d bd
       0.049562775 -0.035351355 -0.13771543 -0.034534663
000040 b1 3e 6a bd f8 de 76 bd eb d2 34 3d 40 7e c1 3c
       -0.057188693 -0.060271233 0.04414646 0.023619771
000050 e4 c2 ca 3c c6 99 42 3d 3c ad ea bc db 0a 0d 3c
       0.024751134 0.04750993 -0.028647058 0.008608545
000060 5c b8 cc 3d 5c 23 a4 3c 0e 57 7d bd a4 6c 3f bd
       0.09996101 0.020036392 -0.0618506 -0.046734467
000070 b5 1b 5f bb 1f e8 97 3d bb 17 bc bd 53 9f fe bd
       -0.0034043614 0.074173205 -0.09184214 -0.124327324
000080 7d 25 de 3d 90 a1 65 3d d9 5a 6a 3d b8 57 94 3c
       0.10846994 0.05606228 0.057215545 0.018108234
000090 c0 c8 9e 3c b4 92 8d bc 55 42 af 3d 67 82 99 3c
       0.019382834 -0.017281868 0.08557574 0.018738938
0000a0 eb ce b7 bb b4 4f 97 bc 26 73 29 bd 91 6b 06 3c
       -0.0056093833 -0.018470623 -0.04136958 0.008204357
0000b0 88 0e 72 bc ca 45 78 3d 95 eb 14 bd a8 ac a0 3d
       -0.014773972 0.06061343 -0.03635748 0.078454316
0000c0 65 fc c2 bc 5f 75 3c 3d 57 0b 19 3d bf a7 b2 bd
       -0.023801992 0.04601037 0.03736433 -0.08723401
0000d0 34 0b a5 3c 4f 30 27 bd b2 19 bd bc 59 78 4d 3d
       0.020146944 -0.040817555 -0.023083542 0.0501636
0000e0 66 71 7a 3d ff a5 e4 bb 08 ef 83 3d b7 70 48 bd
       0.0611433 -0.006977796 0.06442076 -0.04893562
0000f0 ec 30 8d 3d 0b db 6d 3c 41 aa 9c bd 48 98 4d bd
       0.06894097 0.014517556 -0.07649661 -0.050194055
000100 4e f9 0c 3e 01 03 f8 3c ac a5 5f 3d 67 b2 a3 bb
       0.13766977 0.03027487 0.054601356 -0.0049956325
000110 13 3c a6 3a 0e ac 02 3e 0d 50 ea bd fd 83 0f bd
       0.0012682698 0.12760946 -0.1144105 -0.035037983
000120 21 84 8a 3d 2d af 1b 3d 33 69 d2 3d f5 10 1c 3d
       0.06763483 0.038008858 0.102739714 0.03810211
000130 65 ef 43 bd c5 f7 a7 3c 87 23 ee bc e7 51 10 3e
       -0.047835726 0.020503888 -0.029069675 0.14093743
000140 3c 26 87 3d 3c f0 49 bd e4 1e 0a bd 0a ef 92 bd
       0.065990895 -0.04930137 -0.033720866 -0.07174499
000150 05 a2 cf 3c 3d b5 9c bd 7f a2 42 3c 8e b0 3e 3d
       0.025345812 -0.07651756 0.011879562 0.046555094
000160 a0 4d af bd 6e c8 b4 3d cf e0 f1 3c 04 2f 10 bd
       -0.08559728 0.088272914 0.029526142 -0.035201088
000170 f0 a8 a8 bd 22 59 15 bb 66 c7 63 3d d5 43 45 bd
       -0.08235347 -0.0022788723 0.055610083 -0.048160393
000180 3c 87 0f 3b 57 08 46 bd 8f 3d 8a 3c 65 34 a9 3c
       0.0021900674 -0.048347797 0.016875057 0.020654866
000190 e1 e1 d4 3b a6 bf af 3c ab a5 93 bd b2 2c c8 bb
       0.0064966534 0.02145369 -0.07209333 -0.0061088437
0001a0 0c 00 f9 bc 6f fd 04 bd 55 38 4e 3d 60 57 a4 bd
       -0.03039553 -0.032468256 0.05034669 -0.08024478
0001b0 5c bf 45 bb cf 1e 78 bc 0a 2e 8e bc 5f c4 b1 bb
       -0.0030173874 -0.015144064 -0.017355938 -0.0054250206
0001c0 67 e7 f4 bc 58 ea 93 bd f1 c5 82 bd 8a 90 50 bc
       -0.029895497 -0.07222432 -0.063854106 -0.012729773
0001d0 6d 4c d0 bc 1a b1 e9 3c e3 e6 bc 3c a6 0f 82 3c
       -0.025427068 0.028526831 0.023059314 0.015876602
0001e0 ee bc 08 bc 3f 10 5e 3c 55 ac 84 bb 08 81 24 3c
       -0.008345826 0.013553678 -0.004048864 0.010040529
0001f0 2e e1 30 bd b9 5e 18 3c b2 c1 3b bd 7e c3 7e 3d
       -0.043183498 0.009299927 -0.04583902 0.062198155
000200 cc ce 93 3c 11 31 02 3d f4 ec 41 3d 77 d0 77 bd
       0.018042944 0.031785075 0.047345117 -0.060501542
000210 bb 13 38 3d 0c 5f 1b 3d c5 ae 17 3d f6 47 cc bc
       0.04494069 0.03793244 0.037031908 -0.024936657
000220 3e 55 5c 3c 9a 9e d2 bd 28 f6 c2 bc 8b ae 9d 3b
       0.013448058 -0.10284157 -0.023799017 0.004812067
000230 86 03 83 bc f8 11 8c bd 00 17 ac 3d 00 f7 b1 bd
       -0.015992891 -0.06839365 0.084028244 -0.0868969
000240 97 98 72 bb e8 31 64 bd 33 ad 83 bd 27 ac 42 39
       -0.003701722 -0.055711657 -0.064295195 0.00018565413
000250 e6 02 54 3d 33 98 ee bc d6 ef c8 bd 90 43 82 3d
       0.051760577 -0.029125309 -0.0981137 0.06360543
000260 b7 e8 4f bd 35 84 b3 3d 87 e1 ed bc 76 6b 86 3c
       -0.050759044 0.08765451 -0.029038204 0.016408663
000270 b7 e1 2d 3d 83 c9 1a bd d0 95 11 3d 9f 7f 38 bd
       0.042451587 -0.037789833 0.035543263 -0.045043584
000280 2d 31 0d bd 17 8f 9f 3b fc eb ce bb 79 dc bf bc
       -0.034470726 0.0048693526 -0.0063147526 -0.02342056
000290 47 00 a8 3d f9 63 c7 bd d0 76 04 be 47 85 2c bd
       0.08203178 -0.09735865 -0.12935948 -0.04211929
0002a0 e6 e3 d6 bc 96 a9 2a 3c 09 85 81 3d 21 87 1f bc
       -0.026231717 0.010416409 0.063242026 -0.009736807
0002b0 d5 5d ae 3b 9d 7d 28 bd 79 7d 49 3d 56 1a 3d bd
       0.0053212442 -0.04113542 0.049191926 -0.046167694
0002c0 f9 63 66 3c f7 34 1c bc e2 26 03 3e 14 95 1c bc
       0.014061921 -0.009534112 0.12807801 -0.009557027
0002d0 3d 04 9b bd 81 c3 1f bc 7e d4 80 3d 08 c3 83 3d
       -0.07569168 -0.009751202 0.0629053 0.06433684
0002e0 0a 74 74 3d 04 d6 8d 3d f7 02 6c bc da 59 8f bc
       0.059680976 0.06925586 -0.014405004 -0.0174989
0002f0 6c 4f ec bc 9a 1b c0 bc f2 8a 55 bd ec 73 26 3d
       -0.028846465 -0.023450661 -0.05213446 0.040637895
000300 ea 18 06 bc c3 1c 78 3d 0f ed f4 3c 34 b0 24 bd
       -0.008184651 0.060574304 0.029898195 -0.040207103
000310 1e b1 be bb 69 0d 75 3c 67 4e 95 bd 4c 63 64 bd
       -0.005819454 0.0149568105 -0.07290345 -0.05575876
000320 77 f0 29 bd ec aa 93 bd 68 2d 7e 3c 38 f7 63 bc
       -0.04148909 -0.07210335 0.015513755 -0.013913922
000330 3c be e8 ba de 3f ff bc 82 49 b4 3c cd 41 38 3c
       -0.001775689 -0.031158384 0.022007708 0.011246157
000340 80 e1 bb 3d c2 45 9a bc 33 02 13 bb e0 95 ea 3b
       0.0917387 -0.018832091 -0.002243173 0.00715898
000350 8c b8 9a bd 9a 26 0a bd 63 a5 1c be a9 83 45 3d
       -0.07554731 -0.03372822 -0.15297465 0.048221264
000360 e9 1c cf bc e0 7b 80 bb ec 16 87 bd 75 a6 9a bd
       -0.02528234 -0.003921017 -0.06596169 -0.075512804
000370 75 77 99 3c 6c 31 16 bd be 12 5a bd 37 cc c0 3c
       0.01873372 -0.036668226 -0.05324053 0.023534877
000380 eb 66 6f 3d bf 17 82 bd 67 20 8f 3d 82 18 58 bd
       0.05844776 -0.063521855 0.06988602 -0.052757747
000390 84 73 a4 39 de 65 48 3c f4 9c 6b bc 5b ee ac 3c
       0.00031366583 0.012231318 -0.014380682 0.02110975
0003a0 9a 7e fc 3c 89 87 ff bc e1 69 eb 3c 72 01 2a 3c
       0.030822087 -0.031192558 0.02873701 0.010376321
0003b0 e7 b6 43 3d f5 0f fb 3a ae 2a 97 3c 15 35 87 bc
       0.04778185 0.0019154536 0.018452968 -0.016504804
0003c0 f5 8e 89 bd f7 0f 65 3c 7a 43 bc bb e2 84 ba bc
       -0.0671672 0.013980857 -0.0057453485 -0.022768442
0003d0 ba ab 6a 3d 16 19 1d 3d 5e 89 47 3d 71 53 af bb
       0.057292677 0.038354002 0.048714988 -0.005350523
0003e0 71 b0 a8 bc f6 d8 95 bc 7f c3 3e 3d f1 ca 4d 3c
       -0.020591946 -0.018291932 0.04657316 0.012560592
0003f0 a7 9d 0b bd 93 f1 ae bd 07 9b 01 3d 5a d3 70 3d
       -0.034085896 -0.085421704 0.031641986 0.05879531

attention_net.0.bias f4 [256]
000000 b8 45 cd 3a bf 87 87 bb 87 02 49 bc db 69 2a bb
       0.0015661037 -0.0041360552 -0.012268669 -0.0026003036
000010 a9 6e 93 bb 98 13 89 bb a6 6a b5 3b 88 3c 97 3b
       -0.0044992757 -0.004183244 0.005536395 0.00461537
000020 ea e7 97 bb 25 3e 76 bb 48 38 1d 3c 73 3d c5 ba
       -0.0046358006 -0.0037573662 0.009595938 -0.001504822
000030 08 3c 70 3a 92 60 ca 3b 9c cc 3d 3a 3e 34 80 3b
       0.0009164219 0.006176063 0.0007240267 0.0039124778
000040 04 3b ba 39 5c 59 ee 3a 3d b8 1a 39 dc 13 84 3b
       0.00035520655 0.001818459 0.00014755219 0.0040306877
000050 3b 60 b8 bb cb 23 9b 3a c5 39 3b 3b 36 72 6b bb
       -0.005626706 0.0011836229 0.002856837 -0.003592623
000060 4e 1d cf bb e4 6f 8c 3b ff 81 bc bb eb 26 2b bb
       -0.006320632 0.0042857993 -0.0057528014 -0.0026115726
000070 40 b0 c1 bb e3 7a a1 3a 36 cd 95 ba 29 14 56 3a
       -0.005910903 0.0012319948 -0.0011428955 0.0008166456
000080 b8 13 0c bc 19 b6 b4 ba b0 ae 05 bc a4 6f c6 3b
       -0.008549623 -0.001378718 -0.0081593245 0.006055789
000090 1d bf 21 bc 50 43 37 ba 81 95 07 3c 79 bb 91 ba
       -0.009872225 -0.00069909263 0.008275391 -0.0011118493
0000a0 5e 2d b1 bb 2f be 27 ba a2 d2 94 bb ba 4d 18 3b
       -0.0054070195 -0.0006398884 -0.004541711 0.0023239688
0000b0 28 9d 20 ba ae 50 6a bb f0 11 f2 bb 4a a0 3b 3a
       -0.0006126934 -0.0035753655 -0.007387392 0.0007157369
0000c0 65 f5 14 bb 7a 6b c4 bb a1 3d 03 3c 94 e7 0a 3c
       -0.0022729274 -0.0059942575 0.008010299 0.008478064
0000d0 55 09 7d ba 81 2c 6a bb 08 42 26 ba 8f c0 08 bc
       -0.00096525747 -0.0035732093 -0.0006342237 -0.008346691
0000e0 8f 48 f4 bb de 9d 51 3a f9 ef a3 3a 34 ef 95 3b
       -0.0074549387 0.00079962413 0.001250743 0.0045756344
0000f0 4b 53 78 3b 7f 27 71 3a b8 05 b9 ba c9 85 49 bb
       0.0037891443 0.0009199306 -0.0014116084 -0.0030749908
000100 db d4 10 bb bd 0e 5f bb ab f1 8a 3b b6 ff de bb
       -0.0022099528 -0.0034035884 0.004240235 -0.0068053855
000110 3c 70 6a b9 ed 2e 8d 3b d1 66 1c 3b 68 dc 14 bb
       -0.0002235779 0.0043085725 0.0023864994 -0.002271438
000120 7d 43 40 bb ea 56 98 3b a2 06 46 bb cd 4d 2b ba
       -0.00293371 0.004649033 -0.0030216356 -0.00065347255
000130 13 45 db 3a b2 91 87 3b 86 41 c6 bb 88 06 93 bb
       0.001672896 0.0041372413 -0.0060502915 -0.0044868626
000140 7f 38 14 3b 95 a6 a7 b9 1f a4 91 b9 5e 82 a3 bb
       0.0022616682 -0.00031976835 -0.00027778835 -0.004989906
000150 1b 3a e8 ba e7 bf 4f bb 59 db ef bb fc 60 28 bb
       -0.0017717512 -0.0031700076 -0.0073198495 -0.0025692573
000160 93 44 2c 3c 3f d5 14 bb 2b fb bf 3a 6c 60 14 bc
       0.010514396 -0.0022710112 0.0014646997 -0.009056192
000170 c1 35 cf bb ed c3 7f ba a8 14 e8 3a d0 88 95 bb
       -0.0063235466 -0.0009756673 0.0017706351 -0.0045634285
000180 67 04 c6 3b b5 31 e6 3b c6 a4 51 b8 48 20 97 bb
       0.0060430053 0.0070249685 -4.998294e-05 -0.0046120025
000190 7b f6 df 39 95 a0 ca 3a e4 89 c0 bb 9d 71 ec bb
       0.00042717517 0.0015459234 -0.005875813 -0.007215692
0001a0 58 25 33 3a 13 84 15 bc 8a 45 43 ba 72 0f 46 3b
       0.0006833873 -0.009125727 -0.0007449022 0.0030221608
0001b0 b1 b9 b9 bb 75 d5 93 bb b2 81 b8 b9 1f 16 72 ba
       -0.005667888 -0.00451153 -0.00035191845 -0.00092348637
0001c0 a1 52 1c 3b f5 7b 18 bb 36 a3 bd ba f4 c1 da bb
       0.0023852962 -0.0023267244 -0.0014468196 -0.006675953
0001d0 06 47 de ba 0c 91 fc 3a 25 1b 3c bc 27 20 14 3b
       -0.0016958422 0.0019269302 -0.011481081 0.0022602172
0001e0 33 ad ce bb 43 e0 08 bc 58 78 ef bb 3c eb 4e ba
       -0.006307268 -0.008354249 -0.0073080473 -0.0007893329
0001f0 a8 d1 6d 3b a9 84 41 bc 6b 80 82 3b 0a 8f a7 3a
       0.0036288295 -0.011811414 0.003982594 0.0012783718
000200 72 53 aa 3b 42 a9 9d 3b 16 11 e3 bb 60 d1 5d bb
       0.0051979357 0.004811437 -0.006929527 -0.003384672
000210 d6 a3 21 3b 23 58 c4 bb e6 ba 7f 3b 36 91 3f ba
       0.0024664304 -0.005991952 0.0039021312 -0.000730771
000220 f9 e7 19 3b 56 86 7f bb 8d ef b7 bb 99 94 26 bb
       0.0023484214 -0.0038989983 -0.0056132735 -0.002541816
000230 cf dd 96 3b 87 64 5c bb a1 5b 02 3b ab 5f eb bb
       0.0046040784 -0.0033629255 0.001989104 -0.0071830354
000240 05 67 02 3c 5a 5c 92 bb eb 53 92 bb fb 56 c2 bb
       0.007959132 -0.0044665756 -0.00446557 -0.005930779
000250 8c 70 30 bc 2e 40 06 bc 6d 98 6e 3b d2 32 9d bb
       -0.010769021 -0.008194013 0.003640677 -0.004797318
000260 9c c1 0b bc 0e 0e 5c bb 46 25 09 ba ed 6d f2 39
       -0.008530047 -0.0033577713 -0.00052316894 0.00046239738
000270 bd 37 62 39 b7 81 df ba b1 71 23 ba 3c d8 90 3b
       0.00021573804 -0.0017052208 -0.0006234898 0.0044203084
000280 80 8f f7 3b 34 1a ae 39 e8 05 0a 3b 15 cc c9 bb
       0.0075549483 0.0003320739 0.002106065 -0.0061583617
000290 60 74 a1 ba f0 2d 2f 3b bf 5d b8 bb d8 4d a4 bb
       -0.0012318008 0.0026730262 -0.00562641 -0.0050141625
0002a0 c2 85 77 ba 27 ad 19 bb a8 f8 57 3b 31 e9 bc 3a
       -0.0009442234 -0.0023449154 0.0032954607 0.0014412758
0002b0 30 75 ac bb af 6e 16 bb 8d 32 87 3b 26 73 12 bc
       -0.0052629933 -0.0022954156 0.004125899 -0.008938586
0002c0 b8 33 bc bb 67 e2 0f bc 77 10 17 bb 15 e9 40 3b
       -0.00574347 -0.008782006 -0.0023050585 0.0029435803
0002d0 b2 8b 2c bc ef 51 c6 38 f0 b2 27 bb e7 4a 48 3a
       -0.010531353 9.456637e-05 -0.0025588833 0.0007640556
0002e0 a6 81 ae bb ed c2 27 bb 2b 68 26 bb 43 5a 5b 3a
       -0.005325514 -0.0025598363 -0.0025391679 0.0008367637
0002f0 40 be 25 39 bd fb 49 3a d4 ac 18 3a 9f 21 4b 39
       0.000158065 0.00077050534 0.0005824093 0.00019372113
000300 9a 6a dc bb f8 fe ea bb 16 87 84 bb 49 27 67 bb
       -0.006726575 -0.007171508 -0.004044424 -0.0035271219
000310 e2 05 e4 3a 7d 3e 20 3b af eb 4c 39 08 37 09 bc
       0.0017396773 0.0024451308 0.00019542755 -0.008374937
000320 8c 0b 81 ba 91 97 a6 3b 7d d1 79 bb c1 96 d0 3b
       -0.000984536 0.005083986 -0.003811925 0.0063656275
000330 84 7c 8e b9 07 c1 d0 bb 71 f9 a2 bb 9d 81 b8 bb
       -0.00027177122 -0.006370667 -0.0049735834 -0.0056306855
000340 40 bf a3 b9 85 72 3c ba bb 0f fc 3b df e7 96 ba
       -0.00031232275 -0.00071886956 0.007692305 -0.0011513195
000350 ad e5 bf 3b 5a ee 37 3b c2 cf c2 bb 04 d1 b9 bb
       0.005856237 0.0028065653 -0.005945177 -0.0056706686
000360 5d cb 3d ba b4 cf 71 bb dd 92 83 bb 09 9f 81 3a
       -0.00072400813 -0.0036897482 -0.00401531 0.0009889315
000370 91 66 12 bb 9a 69 72 3b 2f aa ee bb 1f cf 93 bb
       -0.0022338966 0.0036989213 -0.007283471 -0.0045107747
000380 99 5c 9c 3a 7e a7 c2 bb 47 20 9f 3b 03 89 2a bb
       0.0011929452 -0.005940377 0.0048561427 -0.0026021607
000390 5a 4c ca b7 eb 86 08 bb 8e d9 a3 3b 51 62 44 3b
       -2.411583e-05 -0.002083237 0.0050003 0.0029965828
0003a0 53 84 84 bb 58 d9 a3 3a 20 8c 33 bc 3f da cf bb
       -0.0040440946 0.0012500687 -0.010958701 -0.0063431556
0003b0 de 7b b7 bb e9 ef ac bb 26 15 76 bb f8 5a a7 39
       -0.005599483 -0.005277623 -0.0037549227 0.000319205
0003c0 cc 69 34 3b d3 6b 89 3a d0 69 33 bc 74 33 28 bb
       0.002752888 0.0010484405 -0.010950521 -0.0025665434
0003d0 d1 23 83 b9 34 fc 61 bb bb 2c 4d bb 04 97 01 bc
       -0.00025012952 -0.00344826 -0.003130718 -0.00790954
0003e0 41 d4 29 bc a4 91 27 ba 58 7f 2a bb 7f 05 aa b9
       -0.010365547 -0.00063922466 -0.0026015844 -0.00032429022
0003f0 f4 58 6c bb 73 ad 82 ba 93 ff d1 3b e2 ce d2 3a
       -0.0036063762 -0.0009969905 0.0064086406 0.0016083384

attention_net.3.attention_a.0.weight f4 [128, 256]
000000 a9 b0 a6 bc 7d f7 19 3e 97 0c 8b bc d2 e0 ee 3b
       -0.02034791 0.15035816 -0.016973777 0.0072899843
000010 1d 8a fc 3c 1a dc 91 bd 8b 9a 44 bc db 4c 4e bd
       0.030827576 -0.07122059 -0.011999737 -0.050366264
000020 36 a1 e5 bc ec 3f 7a 3d f1 11 7a bd e0 8d c4 3c
       -0.028030973 0.061096117 -0.061052267 0.023993433
000030 cd ad ab 3c ba 06 ac 3b af 61 38 be 5e e3 8a bd
       0.020956898 0.0052498253 -0.18006013 -0.06781648
000040 38 7a 08 3d 9b d1 4c 3c c4 1f 34 3d bf 6c 1f bd
       0.033319682 0.012501146 0.043975607 -0.038922068
000050 49 34 38 be 3c 8e b0 bd c2 bb 47 bd fd 90 27 bd
       -0.17988695 -0.08620879 -0.048763044 -0.040909756
000060 b8 0a c5 3c 4a 65 3e bb f0 1a cf 3d 80 01 d3 bb
       0.024052963 -0.0029052072 0.1011256 -0.006439388
000070 72 ef b0 bd 10 7d 01 bd f4 a7 06 bc 32 34 4d bd
       -0.086394206 -0.03161341 -0.008218754 -0.050098605
000080 c7 36 5e bd 99 6d c3 bd 63 97 2f bd 1c b6 58 3d
       -0.05425146 -0.095423885 -0.042868983 0.052908048
000090 eb 99 89 bd 58 07 cf 3c d4 37 02 3c ab 21 e7 3c
       -0.06718811 0.025272056 0.007947881 0.028214296
0000a0 69 a8 1b 3c 91 c6 a8 bd 6a 46 0d 3e bc 9f 0c be
       0.009500601 -0.082409985 0.13796392 -0.13732809
0000b0 29 e0 e9 3c f1 f4 a4 bd 98 5c a6 bd 9a 43 5a bc
       0.02854927 -0.08054531 -0.081231296 -0.0133217815
0000c0 5b 78 cf bd ec ab 43 3d 83 26 54 bb e6 76 e1 bd
       -0.10130378 0.04777138 -0.0032371588 -0.11009006
0000d0 8d 25 9b 3d 93 a0 07 be 91 40 1a bd e0 a8 a1 bc
       0.075755216 -0.13244848 -0.03765923 -0.019733846
0000e0 39 16 d6 bd 75 b7 cb bc cf 61 ed bd b7 0a c7 bd
       -0.104534574 -0.024867753 -0.11590921 -0.097188406
0000f0 d8 8a 10 3d 44 a2 65 3d 7d e7 ce 3d 87 81 8a bd
       0.03528866 0.05606295 0.10102747 -0.06762987
000100 53 ec c8 3b 7a 80 c8 3c 8a 4b b6 bc 03 a2 4a bd
       0.0061316877 0.024475325 -0.022252817 -0.049470913
000110 5b c3 7f bd 47 32 05 be 84 c5 83 bc 05 21 0f be
       -0.062442165 -0.1300746 -0.016085394 -0.1397744
000120 ea f2 44 3d 13 0e 5b 3c 05 28 12 3e fa 18 02 3e
       0.048083223 0.013370055 0.14273079 0.1270484
000130 3d 95 dc 3d c1 3c 1e 3d d0 96 2e bd 04 7d 39 bd
       0.107706524 0.03863216 -0.042624295 -0.04528524
000140 67 d5 43 be 80 06 82 3c d6 cb aa bd 25 6b 27 bb
       -0.19124375 0.01587224 -0.0833966 -0.002554604
000150 5c ba f0 3a f0 e4 35 bd 56 25 6b bc 7f 37 b3 bc
       0.0018366086 -0.044407785 -0.014352163 -0.021877049
000160 44 0b 4b bd 9e e7 8f 3d 91 da 04 3d 57 9b 63 3d
       -0.04957129 0.07026599 0.032435004 0.055568065
000170 dc 1a e4 3c 55 19 0a bd fe 1e d8 3d c6 c4 5a bd
       0.027844839 -0.033715565 0.10552786 -0.053410314
000180 8b e3 28 bd 88 47 7d 3d 35 87 da bc b1 1a f7 bb
       -0.041232627 0.061835796 -0.0266758 -0.0075410237
000190 c0 a9 3b bd 3e 33 c2 3d cb 2d 62 3d 3d 99 1f bc
       -0.045816183 0.0948243 0.055219453 -0.009741125
0001a0 09 17 8b bd 62 82 1c bd 57 95 85 bd 9c 7b 7a bd
       -0.06791503 -0.03821028 -0.06522625 -0.06115304
0001b0 fb 8d d5 3b 25 00 89 bd ea ff 0a 3c bc 13 09 be
       0.0065171695 -0.06689481 0.008483866 -0.13386434
0001c0 39 09 3f bd 29 35 d0 bc db 18 be 3c 9d 6b b9 3c
       -0.046639655 -0.025415974 0.023205211 0.022634322
0001d0 89 3c c5 3c 95 78 b4 bc f3 6b 85 bd 89 78 19 3e
       0.024076717 -0.022030154 -0.0651473 0.14987387
0001e0 6b 2e ac bc 24 c8 eb 3c 15 b4 b4 3d 9f 68 1d 3d
       -0.021018228 0.028781958 0.088234104 0.038429853
0001f0 80 17 57 bd ae 7e 83 3b 14 07 45 3d 09 a1 f9 bc
       -0.052512646 0.004012904 0.048102453 -0.030472295
000200 79 4d 40 bd f1 38 2e bd 25 8e 44 bd ba fd 1a 3d
       -0.046948884 -0.042534772 -0.047987122 0.03783963
000210 34 13 a9 bd 70 0d 4f bd 77 50 01 be c7 1e ca 3d
       -0.08255616 -0.050549924 -0.12628351 0.098691516
000220 08 bc b5 3d 37 6d 92 bc 0e 14 e0 bd e8 56 dc bc
       0.08873755 -0.017874343 -0.10941325 -0.026896909
000230 76 3d 81 bd bd f3 86 3c be 8d 62 bd f7 71 1f 3e
       -0.06310551 0.016473645 -0.055310957 0.15570818
000240 95 78 48 bd 31 6b 0e 3d 8e 20 83 3d 1f ec 21 be
       -0.04894312 0.034770194 0.06402694 -0.1581273
000250 a8 e0 05 3e 54 26 8e 3d 4d 6f de 3c 96 7e ce bb
       0.13073981 0.06940904 0.027152682 -0.0063017113
000260 c3 59 39 3e ef 74 bc 3d 06 d0 7e bd 96 c1 c9 3c
       0.18100648 0.09201991 -0.062210105 0.024628442
000270 25 06 7e be 1c 33 df 3d 8e 07 6e 3d c5 71 5d 3c
       -0.24807031 0.1089842 0.058112673 0.013515894
000280 9d 67 2d bb 7c 3c b6 bd f4 7a c1 bd 2a 99 52 3b
       -0.0026459463 -0.08898255 -0.094472796 0.003213475
000290 9d f3 a9 bd a2 78 95 bd 6d 8d c8 bd 42 d9 86 bd
       -0.08298419 -0.072983995 -0.097926 -0.065844074
0002a0 a8 b8 0d 3d 35 43 3e bd 77 e4 83 3d 50 62 bf bc
       0.03459993 -0.046450812 0.064400606 -0.023362309
0002b0 57 36 9d bd d4 40 91 3c 48 63 32 3e 36 4a 6e bc
       -0.0767638 0.017731108 0.17420685 -0.01454406
0002c0 b5 96 d4 bd 3a cf 9d 3b f4 00 e9 bc f0 94 bc bc
       -0.103803076 0.004815963 -0.028442837 -0.023020238
0002d0 c3 d2 0b 3d f9 5d 12 3d 5a 6e 30 3e fd c9 a5 bd
       0.034136545 0.03573415 0.17229596 -0.08095167
0002e0 bd e1 71 3c aa b5 91 bd 12 f6 db 3d 70 66 0e bd
       0.014763293 -0.07114728 0.107402936 -0.03476566
0002f0 8e b6 e6 bd fc 7f 1d 3c 16 b3 b8 3d d6 dd 47 3d
       -0.11265288 0.009613033 0.09018533 0.048795544
000300 a7 f3 53 3d bb 2e f2 bb 40 a9 87 3c 00 97 e2 3d
       0.051746037 -0.0073908246 0.016560197 0.11063957
000310 a2 d2 b9 3b 65 ef b1 bd c6 99 18 3d 8a 36 f7 3d
       0.0056708613 -0.08688239 0.037256025 0.120709494
000320 47 0d f2 3d 34 c9 d6 bd fe 26 62 3d a8 cb 7e 3c
       0.11818939 -0.10487595 0.055212967 0.015551485
000330 03 17 bb 3c 40 ea 63 3c 14 ac 41 bd c7 50 14 bc
       0.022838121 0.01391083 -0.047283247 -0.009052462
000340 4e 83 53 3d 1c 11 5e bd a7 c3 5e 3d 1c 9c ae bc
       0.051638894 -0.054215536 0.054385807 -0.021314673
000350 36 87 b1 bd d6 18 a6 bd 83 b3 0c bc 6d 8a e0 bc
       -0.086683676 -0.08110206 -0.008587721 -0.027409757
000360 50 de b3 bc fc a3 24 3e ba ba da bc 86 c9 e2 3d
       -0.021956593 0.1607818 -0.026700366 0.11073594
000370 ff 03 e7 bd 3d f4 4f 3d 1d 70 08 bd 3b 41 06 3e
       -0.11280059 0.050770033 -0.033310045 0.13110821
000380 7f e3 d7 3b 68 93 4c bd 51 32 8e 3d 2b a3 cf 3c
       0.006588399 -0.049945265 0.06943191 0.02534636
000390 9c 00 80 bd 81 07 6f 3c 57 4c 9d bc ce 30 cf 3d
       -0.06250116 0.014589191 -0.01920144 0.10116731
0003a0 25 36 1e 3d 75 ee 88 3d 00 b9 86 bd 88 d9 99 bd
       0.038625855 0.06686107 -0.06578255 -0.07512194
0003b0 d0 98 b6 bb 95 1a 99 bc 85 48 f4 bd f6 93 2d be
       -0.005572416 -0.018689433 -0.119278945 -0.16950974
0003c0 ed 24 4c bc 5b f6 95 3d 22 93 fe 3d 07 4e 8c bd
       -0.012459976 0.07322379 0.12430407 -0.0685082
0003d0 41 0f 02 3c 12 f6 db 3c d8 b3 33 3d 54 37 be bd
       0.007938207 0.026850734 0.043872684 -0.09287897
0003e0 67 4d 07 bc 56 c0 36 bd 7c c5 8e 3d 9a 78 e8 3d
       -0.0082582 -0.04461702 0.06971261 0.11351128
0003f0 28 92 3f 3d fc 8a 96 3d 2b 24 e4 3d e0 2e 02 bc
       0.046770245 0.07350728 0.11139711 -0.007945746

attention_net.3.attention_a.0.bias f4 [128]
000000 a3 60 f8 bb 04 13 a6 bb ff ef b6 3b 46 7b 2e bc
       -0.0075798794 -0.005068185 0.005582809 -0.010649508
000010 bd 46 82 bb 3f 7d 77 ba 36 96 a3 3b 3b 09 2f 3b
       -0.003975718 -0.00094409654 0.004992272 0.0026708383
000020 dc ca 9d 3c 65 08 d4 3a 19 4c bf bb 39 d2 ac 3c
       0.01926177 0.0016176818 -0.005837929 0.021096336
000030 35 f0 d2 ba 18 63 8c ba ce 7d f0 bb a0 1d 9c bc
       -0.0016093316 -0.0010710685 -0.007339216 -0.019057095
000040 be 83 02 3c 93 f9 8e 3b fb 7c 13 bc d5 a3 82 bc
       0.00796598 0.0043632477 -0.009001966 -0.015947262
000050 40 f6 73 bc 8f af 4b bb 95 d6 00 bc e7 b9 18 bb
       -0.014890254 -0.0031079983 -0.00786366 -0.0023304166
000060 2b 46 67 3c d7 35 67 bc 8e ed f2 3b 1a 4c 5b 3a
       0.01411585 -0.0141119575 0.0074135726 0.0008365527
000070 a3 e5 48 3b 16 10 84 bb 1c 06 0c bc 40 74 2a bb
       0.0030654452 -0.004030238 -0.008546378 -0.0026009232
000080 b1 bb 36 3b f3 16 6e 3c d0 9a 7b 3b 18 35 92 bb
       0.002788287 0.014531839 0.0038391836 -0.0044618957
000090 bb 90 76 3a 78 1a 4e 3b 88 be 4f bc f2 47 87 3a
       0.0009405722 0.0031448882 -0.0126797035 0.0010321124
0000a0 cb 5f 39 bc 70 df e4 ba 8e 81 c1 3b 26 f0 2e 3c
       -0.011314343 -0.0017461609 0.0059053367 0.010677373
0000b0 ee ff ba bb 7e f3 45 3c 79 87 07 bc e7 3b 97 bc
       -0.0057067787 0.012081979 -0.008272045 -0.01846118
0000c0 2d 1f 6c 3c e4 38 43 b9 0e b5 95 bc e8 32 92 3c
       0.01441173 -0.00018617843 -0.01827481 0.01784654
0000d0 0f 68 db 3b 4f 2e 2f 3c 0e 8b 6f bc 91 74 97 3c
       0.0066957544 0.010692193 -0.014620556 0.0184882
0000e0 2f a1 31 3c c9 5f 09 bc a4 37 92 3c 13 e4 0e 3c
       0.010841652 -0.008384653 0.017848797 0.008721369
0000f0 de 98 2b 3c 06 34 18 3c 76 4d 17 3c f2 69 9c bb
       0.010473458 0.009289747 0.009234777 -0.004773372
000100 9c 99 3d 3c c2 03 8b 3b 76 38 f2 bb 6f 23 b2 3a
       0.011572268 0.0042423913 -0.0073919846 0.0013590882
000110 c8 bd f0 bb d6 83 2c bc 53 ae 5f 3c 48 5a 7c bb
       -0.0073468424 -0.010529479 0.013652402 -0.003850596
000120 1f 65 89 3b 51 8c 43 bc 37 ac 9f 3b dc a1 7a bc
       0.004192963 -0.0119353095 0.0048728245 -0.015297379
000130 12 58 8e bc a3 c0 79 bc 3d 32 65 3b c2 61 82 3b
       -0.01737598 -0.015243682 0.0034972571 0.003978939
000140 7b ec 99 bc 0a 7d 41 bb 6f 5a 86 3c 3d 3e 21 bc
       -0.01878952 -0.0029523992 0.016400544 -0.009841499
000150 22 1f 9f 3a 7b c2 aa 3a 6c 0c 43 3c 6a f3 a7 bc
       0.0012140016 0.001302793 0.011904817 -0.020501811
000160 6c 3d a7 bc a3 af 55 bc af 97 9f 3a c5 da 02 3b
       -0.02041503 -0.013042363 0.0012175943 0.0019966823
000170 62 e1 ab bb a5 d3 e5 3b f1 e3 c3 3a 7b 13 81 3c
       -0.0052453736 0.0070137554 0.0014945251 0.01575636
000180 eb 8e 98 b9 cc 3f d8 39 b9 5e 0f 3c a6 fe 11 bc
       -0.0002909818 0.00041246263 0.008750611 -0.008910811
000190 85 66 88 bc 20 c5 e7 3b a5 9a 19 3c 14 c3 1a 3c
       -0.016650448 0.0070730597 0.009375249 0.009445924
0001a0 74 42 4d ba 31 e4 f3 bb 48 34 3a bc 8d 89 0a 3c
       -0.00078300317 -0.007442974 -0.011365004 0.008455646
0001b0 c4 5b 8c ba 55 d5 d7 3b 9c e9 27 3c 03 4d 27 bc
       -0.0010708501 0.0065867105 0.010248568 -0.010211232
0001c0 21 ad af bb 20 02 c1 bb 2d bf 98 ba 93 54 b8 3b
       -0.0053612147 -0.005890146 -0.0011653655 0.0056253164
0001d0 e2 04 52 3b 1e 02 f8 bb a0 11 ee 3b 8d f7 e8 3a
       0.0032046367 -0.0075686118 0.0072652847 0.0017773971
0001e0 78 d1 09 bb 92 4c 6c 3c e2 7d eb 3b 8a f1 06 bc
       -0.0021029394 0.014422553 0.0071866373 -0.008236298
0001f0 4e 5a 92 3a e1 89 bd bb 84 a9 d8 ba 9a 82 72 bb
       0.0011165829 -0.0057842587 -0.0016530012 -0.0037004114

attention_net.3.attention_b.0.weight f4 [128, 256]
000000 ff 37 80 3c c6 8f a9 bd 01 77 04 be 50 74 cf bc
       0.015651701 -0.08279376 -0.12936021 -0.025324017
000010 0e b3 92 bd 0e 9c bc 3d cf c5 13 3d 84 7a 1b 3d
       -0.07163058 0.092094526 0.036077317 0.037958637
000020 fe ed 9d 3c 8f 9f 62 bd 60 02 f0 3c 5f b6 43 be
       0.019278523 -0.05532795 0.029298007 -0.19112538
000030 5f 22 62 3d d5 c8 bf 3d 0d 94 1f 3c dc 66 33 3d
       0.05520856 0.093644775 0.009739888 0.043799266
000040 8b 9f b6 3d ad 60 45 bb ac d3 2d bd 1d 23 72 3d
       0.08917149 -0.0030117438 -0.042438194 0.059115518
000050 58 60 4a 3d a3 62 2b 3d 91 a5 96 3d fc e9 95 3d
       0.049408287 0.041842114 0.07355798 0.073200196
000060 58 31 1c 3e 76 55 21 be cf 43 c8 bd 33 ea d9 bc
       0.15253198 -0.15755257 -0.097785585 -0.026600933
000070 b8 65 fa 3c e8 18 4b bd 7c 97 9c 3c 41 83 03 bc
       0.030566081 -0.0495843 0.019115202 -0.008026899
000080 a7 dd ee 3c 42 90 78 bd 5d 45 2c bd 68 34 b1 bd
       0.029158426 -0.06068445 -0.042058337 -0.08652574
000090 d0 7b 2b bc e1 eb 94 bd ca 1d 59 bd 29 08 a4 3b
       -0.010466531 -0.07271553 -0.053006925 0.0050058556
0000a0 76 ee 02 3e d9 94 e6 3c 91 8b 78 bc 0c 91 99 bd
       0.12786278 0.028147148 -0.015169994 -0.074983686
0000b0 ba 7e 95 bd 8b c1 11 3d a8 0a 0f 3e 0c a9 0b bd
       -0.07299562 0.035584968 0.13968909 -0.034096763
0000c0 ea 2f d3 bc d1 95 b2 bc aa 17 36 3d 67 80 77 3d
       -0.025779683 -0.021799954 0.04445616 0.06042519
0000d0 13 4a 86 bc c2 61 f6 3b b5 81 44 be bf 45 9d 3c
       -0.016392743 0.007518978 -0.19190104 0.019198297
0000e0 56 0c 95 bc 31 f0 79 3c 87 da 9d bd c0 09 05 3c
       -0.018194359 0.01525502 -0.077076964 0.00812
0000f0 de 17 58 bb dc 76 99 bc f0 88 9b bd 9d 5d 92 3b
       -0.003297321 -0.018733434 -0.07594478 0.004466726
000100 2e fc ea bb a0 70 03 3d 6e 65 07 bd b8 65 00 3e
       -0.0071711754 0.03208983 -0.033055715 0.12538803
000110 b5 30 26 3d 26 98 85 bd 5e af 4b bd 62 9b 3f 3c
       0.040573794 -0.06523161 -0.04972779 0.011694761
000120 71 7f 0e bd d3 fb 75 3d f0 f1 8e 3d e1 7d 08 3d
       -0.034789506 0.06005461 0.0697974 0.033323172
000130 27 30 14 bd e1 0b dd 3b d5 5b 71 3d f9 51 ca 3d
       -0.036178734 0.006745801 0.05892547 0.09878916
000140 bd 3b b6 3d 6b 02 e3 bc fa b0 1e bd dd aa 18 3d
       0.08898113 -0.027711114 -0.038742997 0.037272323
000150 bc f6 0c 3e 1b af 3c 3d 41 f8 4d bd 8b d7 16 be
       0.13765997 0.04606543 -0.05028558 -0.1473066
000160 aa 67 a2 bd 84 dd 53 3b 8c e6 bd bd 02 3d b8 bd
       -0.079299286 0.0032328079 -0.09272489 -0.08996011
000170 af 65 6e 3c 95 31 c2 3c 58 b0 95 bd 1e 45 a5 3c
       0.01455061 0.023705283 -0.073090255 0.02017456
000180 e6 1b ab bd 58 4c 0d be fa ff df bc 0a 7b 30 3d
       -0.083549306 -0.13798654 -0.027343739 0.04308609
000190 29 b4 3e bc 16 2f 14 3d 79 36 ba bd eb 04 81 3d
       -0.011639633 0.036177717 -0.09092421 0.06299766
0001a0 30 53 23 3e d4 1f 5b 3d 7e 24 f7 bb a3 63 0a 3d
       0.15949702 0.05349715 -0.007542192 0.033786427
0001b0 7c 49 4d ba c1 42 c1 bd 9e 61 ee bd ff 2d 5b bd
       -0.00078310794 -0.094365604 -0.11639713 -0.053510662
0001c0 ba 06 df bd 9c 6a fd 3d 79 12 00 bd 1d 37 8f 3d
       -0.10889955 0.1237385 -0.031267617 0.06992934
0001d0 12 bd 4f bc a5 fc 2c 3e 20 9d 0b be f9 2c 7c 3b
       -0.012679355 0.16893251 -0.13634157 0.0038478954
0001e0 00 53 31 3d 80 43 1a 3d d7 36 25 3d 9a ec a7 bd
       0.043292046 0.03766203 0.040335502 -0.08199425
0001f0 c9 96 38 3e 05 7f 83 3d d8 cd 45 3c e0 a1 1c bc
       0.1802627 0.064207114 0.012073003 -0.009560078
000200 ee e9 84 bc 31 2e 4b bd 13 2d e9 3d cb a9 f9 bc
       -0.016224828 -0.0496046 0.1138555 -0.030476471
000210 aa 7e 37 3d 39 08 ac 3d cd 07 95 3d 53 34 8b 3d
       0.04479853 0.08400006 0.072768785 0.067970894
000220 7c 36 63 3d 0b 7a bc 3c aa aa e2 bd 63 9a a4 bc
       0.055471882 0.023007413 -0.11067708 -0.020093149
000230 40 59 5c 3c 47 77 7b 3c 28 1f eb 3c a8 fe 8a bd
       0.013449013 0.015348262 0.02870138 -0.06786853
000240 26 1b 2f 3d 1c 7b e7 bd 96 95 e8 bd 24 52 12 bd
       0.0427505 -0.11302778 -0.11356656 -0.035722867
000250 2b ca 5f bd 01 9d 43 3d fb bf 05 be 71 c4 a3 3d
       -0.05463616 0.047757152 -0.13061516 0.079964526
000260 6e bf 40 3d 82 01 14 be dd 49 78 bd 82 b3 92 3d
       0.04705756 -0.144537 -0.060617317 0.07163145
000270 b0 36 ba 3d 9c 96 4b 3d 08 44 2a 3b 40 6f c9 3c
       0.09092462 0.04970418 0.0025980491 0.024589181
000280 95 54 62 bd 6a fe 41 3d 1a dd 07 be 19 ae 35 bd
       -0.055256445 0.04736177 -0.13267937 -0.044355486
000290 0f 7d fd bc 1a b5 43 3d 44 95 dd bd 3f 58 02 be
       -0.030943422 0.047780134 -0.10819486 -0.12728976
0002a0 be 7c 91 bb 4d e4 9b 3c 6b a8 c3 bd 48 58 29 bd
       -0.0044399193 0.01902976 -0.095536076 -0.041343957
0002b0 2c cc 58 3d b3 f3 d0 3c 4b c2 d6 3c 77 ee 3c bc
       0.05292909 0.02550683 0.026215693 -0.011531464
0002c0 06 f2 f2 ba 46 74 0c 3e b2 c3 95 bc 2f cd c2 3c
       -0.0018535263 0.1371623 -0.018281791 0.02377948
0002d0 f4 d2 a7 bd 4f 80 40 bd 78 14 89 3c 81 5c 48 bc
       -0.08194533 -0.046997365 0.016733393 -0.012229086
0002e0 81 bd de bb f7 b5 d8 bd 6b 9f e1 bc 5c 01 8d 3d
       -0.006797493 -0.10581582 -0.027541837 0.06885025
0002f0 21 0d 49 3d 3e 2f 42 3e 57 7f f0 bd 0b a4 65 bc
       0.049084786 0.18963334 -0.11743038 -0.014016162
000300 65 e6 fc 3c 24 b8 c6 bb 9e c5 f3 3b a0 30 17 bd
       0.03087158 -0.0060644317 0.0074393293 -0.036911607
000310 07 44 77 3c a6 04 3b bc 75 ba a6 bd be 6e 3a bd
       0.015091903 -0.0114146825 -0.081410326 -0.04551577
000320 fd 84 de bd 5a 83 cf 3b 00 84 dc bc fb 70 fe bc
       -0.10865209 0.006332797 -0.026918411 -0.031059733
000330 ef cc 1a 3d e9 2c be bc 42 c6 88 bd 32 aa 3f bc
       0.037793096 -0.023214774 -0.0667844 -0.011698293
000340 40 88 4f 3d 94 58 98 3d be 88 9b 3c f5 8e af bd
       0.050667048 0.0743877 0.018986102 -0.08572189
000350 b8 81 2b 3d 48 79 9c bd f9 7e 92 bd 56 3f 1a 3d
       0.041871756 -0.0764032 -0.07153124 0.037658058
000360 6c 49 45 bd 91 e5 59 bd 54 be d7 bc 6b 30 dc 3d
       -0.048165724 -0.053197447 -0.026335873 0.107514225
000370 38 c0 db 3d 54 66 58 3d 5a 74 96 3a 05 6a 4a be
       0.10730022 0.052831963 0.0011478767 -0.19767006
000380 c9 7c 19 3d 78 79 84 3d 83 da 84 bb 46 6c 72 3d
       0.03747252 0.06468481 -0.004054369 0.05918529
000390 ef 6e 0e 3e 34 02 e1 3c 01 70 f1 3c 47 6e 0c 3d
       0.13909505 0.02746687 0.029472353 0.034284856
0003a0 87 5a 91 bd ae 3b 19 3d 4f 55 be 3d f0 33 86 3d
       -0.07097345 0.03741043 0.09293615 0.06552875
0003b0 eb 8c 83 bd f7 6d 10 bd e7 ed 3d 3e 0a 56 d3 3d
       -0.06423362 -0.03526112 0.18547784 0.10319145
0003c0 8e 5c 9b bd 21 19 4e bd 7e 72 79 bc 2f b7 78 3c
       -0.07586013 -0.050316934 -0.015225051 0.015180393
0003d0 de 21 c0 bd ef 2d f1 3c 56 44 ad bc 8d 0f 7e bd
       -0.0938146 0.029440848 -0.02115075 -0.06202655
0003e0 7a 36 ab 3c 9b a4 84 bd de 39 19 3d 24 37 c0 bd
       0.0209 -0.064767085 0.037408702 -0.09385517
0003f0 1d ac be bd 2f 0e 31 3d 45 54 01 be 4d ed 31 bd
       -0.09310172 0.043226417 -0.12629803 -0.0434392

attention_net.3.attention_b.0.bias f4 [128]
000000 78 99 34 bc 0f 5a 9d 3c 3e df 3c bb 76 22 71 bc
       -0.011022918 0.019207982 -0.0028819586 -0.014717689
000010 24 78 08 3c 3f bb 51 bc d8 e4 d0 3c 90 9d 89 3c
       0.008329425 -0.012800991 0.025499746 0.016798764
000020 33 20 1a bb e2 c1 c0 3b c9 6e 81 bc c4 bd fb bb
       -0.0023517727 0.0058824876 -0.015799897 -0.007682534
000030 41 e5 52 bc 5a 18 24 3b 80 5b 23 3c b1 cd 79 3c
       -0.012872041 0.0025038929 0.009970546 0.015246795
000040 03 f1 4a bc 1f 94 ad bb 9c 1a 31 3c ad 61 95 bb
       -0.012386563 -0.0052971984 0.010809567 -0.004558763
000050 96 0b 38 bc 2d 3d 28 3c 4f 03 5a 3b f2 77 46 bc
       -0.011233231 0.010268492 0.0033266132 -0.012113558
000060 c3 f5 bd 3c 16 67 16 3c 92 46 41 bc cf da 91 bc
       0.023188477 0.009179851 -0.01179661 -0.017804531
000070 ae 8e c5 bb 73 e6 53 bc c4 a7 04 bc e2 82 33 bc
       -0.0060289716 -0.012933361 -0.008096639 -0.010956498
000080 42 f4 e3 ba 3a b4 d2 3b 76 a4 85 bb 1f 2a b2 ba
       -0.001739152 0.006430176 -0.004078443 -0.0013592875
000090 e0 d0 e2 bb 96 9e d8 3b c8 16 76 bc b8 d3 ef bb
       -0.0069218725 0.006610702 -0.01502008 -0.00731894
0000a0 e6 fa 30 bb 40 94 a0 3a d9 3b d6 ba 4f 57 6c 3b
       -0.0027005016 0.0012251213 -0.001634474 0.0036062782
0000b0 03 68 ab 3c d4 04 cb bb d1 99 de bb 13 bd d2 3c
       0.02092362 -0.006195644 -0.0067932387 0.025724923
0000c0 87 cd 3c bc b8 86 d4 ba 14 37 e2 38 34 bd 1a bc
       -0.011523611 -0.0016214466 0.00010786779 -0.009444524
0000d0 27 21 10 bc f4 3b bd bc e0 4e 84 bc 0c 1b b7 ba
       -0.008796967 -0.023099877 -0.016150892 -0.0013969853
0000e0 f0 74 05 3c 8f 7f 73 3c cc 8f ca 38 e7 5a 3b 3c
       0.008145556 0.014861955 9.658895e-05 0.011435247
0000f0 a9 94 8f 3c ce 84 2d 3c 0e f2 f9 bb 6a b4 c0 bb
       0.017526941 0.010590745 -0.007627732 -0.005880882
000100 95 52 c5 3b 30 60 14 3b 6a ae b9 3b dd cb 47 3c
       0.0060218074 0.002264034 0.0056665437 0.012194601
000110 c6 51 84 bc 45 8f 12 bc 13 29 8b 3c 65 b7 84 bc
       -0.016152274 -0.008945291 0.01698736 -0.01620073
000120 ae a3 5e 3c e8 e0 5f bc 25 f7 9a ba ec c4 8d bb
       0.013588829 -0.013664462 -0.0011822922 -0.0043264534
000130 8c a3 8b bc 1e 18 c2 3c 5d a3 d7 3b 68 32 9a bb
       -0.017045759 0.02369314 0.0065807537 -0.004705716
000140 9f 61 25 bc a7 f8 42 bc 24 87 09 3c 45 32 1a 3c
       -0.010094075 -0.011900104 0.008394036 0.009411399
000150 65 9f 82 ba 67 d9 57 bc a1 e6 5b bc 25 61 2b 3b
       -0.0009965716 -0.013174391 -0.013421685 0.0026150432
000160 f5 00 2a bb 76 f8 9a 3a b9 6a 81 bc c9 06 99 3b
       -0.0025940512 0.0011823315 -0.01579796 0.0046699983
000170 86 ec 7b 3b c4 9b 96 3c 0f 6f 02 bc 46 66 07 3b
       0.003844054 0.018384822 -0.007961049 0.0020660325
000180 a1 bc 9a 3c 74 5f af bb 5c cb 17 3c 1d 33 2c 3c
       0.018888773 -0.005351955 0.009264793 0.010510233
000190 0d 3c 5f 3c 34 86 db bb 01 0c 88 3c d3 4b 35 3c
       0.013625157 -0.006699348 0.016607286 0.011065441
0001a0 24 5e 10 bc 8d 2c 4f bc 1a 72 ee 3b bc b1 4a 3c
       -0.008811507 -0.012644899 0.0072767856 0.012371477
0001b0 df 7c 16 3b e7 b7 32 bc 63 a0 58 3c 28 e3 0b bc
       0.0022962613 -0.010908104 0.013221833 -0.008538045
0001c0 e0 fe 07 bc 50 c9 f3 3b 0a c0 0b bc a4 03 8f bb
       -0.008300513 0.00743977 -0.008529672 -0.0043644477
0001d0 12 c8 5e 3b e2 36 58 bc 5f 62 16 3b 53 d6 de 3b
       0.0033993763 -0.013196679 0.0022946817 0.006800452
0001e0 8e 8a 91 bb 5a 72 25 bc 71 b2 b6 3c e4 03 93 3b
       -0.004441566 -0.010098064 0.022301884 0.004486548
0001f0 8c de 99 3a a1 13 78 3b fe 2a 7b bc c7 7c a6 bb
       0.0011739298 0.0037853497 -0.015330074 -0.0050807926

attention_net.3.attention_c.weight f4 [3, 128]
000000 c0 de 63 3d 38 69 a7 3d 4d e5 3c be 91 3b df 3d
       0.055632353 0.08174366 -0.18446846 0.10900033
000010 c1 92 85 3b b7 fc 4e 3d 19 0f 35 be d0 bb 4f be
       0.0040763323 0.050533976 -0.1768154 -0.20286489
000020 4d 59 79 bc 53 94 80 bd 60 38 80 3d 61 da 74 3d
       -0.015219045 -0.062782906 0.06260753 0.059778575
000030 41 b9 7d bc 4e fb 08 bd 4b c8 2c 3e 21 69 8c bd
       -0.0154860625 -0.033442788 0.1687328 -0.06855989
000040 71 35 8c 3d 97 8a 87 bd 12 7f 80 bd c8 6b ca bd
       0.06846131 -0.06618231 -0.06274237 -0.09883839
000050 7d 6e 6e bc c6 0f 7b bd f8 9b 3a 3e 86 09 98 bc
       -0.01455271 -0.06129434 0.1822356 -0.018559229
000060 80 fb 3f 3e fc 10 10 3e 38 36 a3 3d 65 4c 89 3d
       0.18748283 0.14068979 0.07969326 0.06704024
000070 e3 d0 ce 3d 3d e8 de bd 36 dd 81 bd 3d 10 e1 3d
       0.10098436 -0.1088414 -0.06341021 0.10989425
000080 45 72 52 3c 00 13 0c bd 26 3b 93 3a 75 c6 a8 3b
       0.012844627 -0.034197807 0.0011232838 0.005150611
000090 a9 af 60 3d 32 36 c2 bb 54 ac 8a 3d ea b6 d1 bc
       0.054855023 -0.0059268707 0.0677115 -0.025599916
0000a0 b3 45 4d 3d b0 88 98 bd bd cf ea bc 1c cf 03 bd
       0.0501153 -0.07447946 -0.02866351 -0.032179937
0000b0 d2 02 86 be 9f 09 e5 bc b8 1b 1f be a2 9d 1a bc
       -0.26174027 -0.02795869 -0.15537918 -0.009436997
0000c0 29 6d a8 bd 9a 49 4d 3d 45 d0 39 3d 62 15 88 3b
       -0.08223946 0.05011902 0.045364637 0.0041529397
0000d0 b4 9d 3b be 03 e4 01 3d f5 9a 53 bc 60 6d 1e 3e
       -0.18321878 0.03171159 -0.012915363 0.15471411
0000e0 41 c7 37 3d d2 55 cf 3d 1c bc 4e 3d 6b 23 ef 3d
       0.044867758 0.10123791 0.050472364 0.11676677
0000f0 a6 0a 13 3e be 30 90 bd fa 01 98 3c 92 4d c2 bd
       0.14359531 -0.07040547 0.01855563 -0.094874516
000100 73 39 02 bd ab 63 f7 bd eb 5a f8 3d 54 a5 de 3d
       -0.03179307 -0.12079557 0.12126716 0.108713776
000110 f3 c0 15 3e 47 26 1b 3e e1 eb 14 3e 97 d4 0a be
       0.14624386 0.1515132 0.14543106 -0.13557659
000120 c9 79 13 3e 75 96 e0 3c e6 1f 21 3e e0 05 3b bd
       0.14401926 0.027415494 0.15734825 -0.0456599
000130 c7 01 23 3e 67 3e 0c 3e b2 aa 53 bc 92 5b 6e 3d
       0.15918647 0.1369568 -0.012919115 0.058192797
000140 68 84 c1 3c d7 fd 33 be de 1b 5c 3d 4d 29 80 bd
       0.023622707 -0.17577301 0.053737514 -0.062578775
000150 56 46 84 3e b1 42 32 be d9 39 9f bd db 93 3a bc
       0.25834912 -0.17408253 -0.077747054 -0.011387791
000160 ad da f3 bc c7 96 2d bd 49 f0 ff 3d a9 8f f4 3c
       -0.029767359 -0.04238012 0.12497003 0.029853659
000170 46 99 28 be a4 ef 0e 3e 96 5b 18 be 55 b2 20 3d
       -0.16464719 0.13958603 -0.14878687 0.03923257
000180 42 d9 4f 3e 2a ff 09 be 14 20 15 3d 74 a8 69 bd
       0.20297721 -0.13476244 0.036407545 -0.057045415
000190 92 d3 6d 3d 0b 72 bd 3d 06 f0 fb bd 5d 4c 01 bd
       0.058063097 0.092502676 -0.1230164 -0.031566966
0001a0 f4 d2 7c bd 78 96 b7 bd 00 d0 bb bd 2a bc e2 3d
       -0.061724618 -0.089642465 -0.09170532 0.11071046
0001b0 16 ad 80 3d 43 77 d1 3d d2 e5 1d bd c1 08 5b be
       0.062830135 0.102278255 -0.03854925 -0.21390058
0001c0 c2 17 4b 3e 23 0b 01 3e fc cb c7 bd 0d a1 06 bc
       0.19833282 0.12601905 -0.09755704 -0.008217108
0001d0 77 13 bf 3d 13 d9 aa bc 03 c5 70 3e 66 77 16 bd
       0.093298845 -0.020855462 0.23512654 -0.03673496
0001e0 21 e8 e5 3c ba d0 aa bd 6b ce d4 3d 91 26 87 3e
       0.02806479 -0.08340593 0.103909336 0.2639661
0001f0 61 45 31 3d 94 73 9d bd 80 29 72 3d 07 b1 56 be
       0.043279056 -0.076880604 0.05912161 -0.20965968
000200 e9 e2 7e bd 0d 22 52 3e 7f 65 3e be 12 43 db 3d
       -0.062228117 0.20520802 -0.18593405 0.10706152
000210 d7 6b dd 3d 97 59 66 3e 7f 77 2d be 40 db bb 3d
       0.108115844 0.22495113 -0.16940115 0.09172678
000220 02 30 89 bd 9b c3 c5 3c db 4b d7 bd 3d ac 64 bd
       -0.0669861 0.024141124 -0.10512515 -0.05582832
000230 33 67 21 3d 39 2e 14 3e 17 a1 38 3e 79 dd c0 3c
       0.03940506 0.14470758 0.18030201 0.023543106
000240 64 96 23 3e 0d 7e be 3c b5 54 c0 3c d4 70 89 be
       0.15975338 0.023253465 0.023477891 -0.26843894
000250 e9 a8 b1 bd 98 05 1d be ee 19 76 3e 67 a7 53 be
       -0.08674795 -0.15334165 0.24033329 -0.20669328
000260 1f b9 a9 3c 0a bb 2e 3c 44 c4 2c 3e 42 e9 5a be
       0.020718155 0.010664711 0.16871744 -0.21378043
000270 18 fe 28 3e 32 ab 0f 3e f6 aa 01 bd 45 84 81 be
       0.16503179 0.1403015 -0.03165718 -0.25296226
000280 54 ce f1 3d 9a 91 23 be 06 82 16 bc da 2c f6 bc
       0.11806932 -0.15973511 -0.009186273 -0.030050684
000290 d0 6c 23 bd 7b 4d ec bc 43 8d 04 bc da 0e 98 bc
       -0.039898694 -0.02884554 -0.00809032 -0.01856177
0002a0 43 e3 a9 bd 78 83 23 be 4c 7a b8 bd e4 b4 eb bd
       -0.082953 -0.1596812 -0.09007701 -0.115091115
0002b0 38 19 84 bd d4 15 3c 3d 7b 5d 45 3d ea d9 c9 3c
       -0.064501226 0.045919254 0.048184853 0.024640042
0002c0 24 d9 e7 3d df 87 64 bd 31 d8 7f 3c 02 13 c0 3c
       0.11320713 -0.05579364 0.015615509 0.023446564
0002d0 b2 6f 9a 3d 70 3a a0 3c 2f f4 0d be 75 54 05 be
       0.075408354 0.019559115 -0.1386268 -0.13020499
0002e0 d7 0b 8e be c3 f9 1c 3e 16 70 44 3e 44 84 99 bd
       -0.27743408 0.15329652 0.19183382 -0.07495931
0002f0 44 a5 28 3e 24 4a a9 bd 73 07 42 3c e2 e1 0b be
       0.16469294 -0.08266094 0.011842596 -0.13660386
000300 c7 da c8 3d e1 ef 67 3e ac 78 56 be ce 1f 8d 3d
       0.098073535 0.226501 -0.2094447 0.06890832
000310 5a 8c c2 3d 93 5c 58 bd 28 5e 83 bd 31 b7 25 3e
       0.09499426 -0.05282266 -0.06414443 0.16183163
000320 c9 9b d3 3d 38 13 e0 3c 18 96 f1 3c 8a a8 97 bc
       0.10332448 0.027352914 0.029490516 -0.018512983
000330 4f 2e 9f bc 6e c1 75 bd 0f 3a 1b 3e 7a 72 a1 3c
       -0.019431261 -0.059998922 0.15158866 0.019707907
000340 d8 00 b1 bd d7 ae f1 3c ea fc 07 3e 2f af 94 bd
       -0.08642739 0.029502315 0.13280073 -0.07259976
000350 9a 8f 8c be 1f b3 02 be bb aa 53 bd 03 2d 06 be
       -0.2745331 -0.12763642 -0.051676493 -0.13103108
000360 9b 97 88 be 4b a2 92 bd be 61 c5 bd ff fc ad bd
       -0.26678166 -0.07159861 -0.096377835 -0.08495521
000370 4a ad 4a bc fd 35 08 3e e1 be af 3c 37 e9 30 bd
       -0.012370417 0.13301845 0.021453323 -0.04319116
000380 e8 f5 63 bb 83 f1 b2 bd 70 31 7d 3e 1f a4 34 3e
       -0.0034784023 -0.08737471 0.2472589 0.17640732
000390 21 de a8 3d 7b 0c 5f bd c8 5a f1 bd 24 55 21 bd
       0.08245493 -0.05445526 -0.11784893 -0.039387837
0003a0 e5 0d a8 3e 08 bc 5e 3c a6 81 08 3e cb c5 a8 3d
       0.328231 0.013594635 0.13330707 0.08240851
0003b0 13 c5 fb bd 03 ce 18 be a4 fd a7 bd 8f d7 e8 bd
       -0.12293448 -0.14922337 -0.08202675 -0.113692395
0003c0 f3 3a 2b 3d 46 89 9f bc 33 c8 ff 3d fa f5 14 3d
       0.041804265 -0.019474637 0.12489357 0.036367394
0003d0 2e 8f e9 3d 79 22 78 bd 13 73 63 3d 76 e3 c3 bc
       0.114042625 -0.06057975 0.055529665 -0.023912173
0003e0 24 ed d3 bc 28 ff 9e bd 35 ef e2 3d 90 44 32 be
       -0.025869913 -0.07763511 0.11080781 -0.17408967
0003f0 f3 a7 78 be 7e df 25 be 40 aa 44 3c bc 90 90 3c
       -0.24282818 -0.16198537 0.012003481 0.01764714

attention_net.3.attention_c.bias f4 [3]
000000 5b 20 cf 38 d2 a5 18 39 75 58 a3 37
       9.876556e-05 0.00014557622 1.9472305e-05

classifiers.0.weight f4 [1, 256]
000000 51 a5 c2 3d 13 73 9d bc 2a bb e0 bd 57 1d 7e bd
       0.09504188 -0.01921991 -0.10973199 -0.0620397
000010 f2 03 9f bd 70 71 89 bc 9a a2 87 3d 08 af c1 3d
       -0.077644244 -0.016777724 0.06622811 0.09457213
000020 98 cb 0a 3d b9 a5 06 3e 4d c1 b9 3d 68 aa 15 bd
       0.03388557 0.13149156 0.09070072 -0.036539465
000030 ef f9 f7 bd 4a d3 d0 3d c1 43 92 bd d7 00 ce bc
       -0.12108218 0.1019655 -0.07141829 -0.025146885
000040 f9 fc a5 3d 4e 04 74 bc ac 32 e0 3d 8e a8 c7 3d
       0.08104891 -0.014893604 0.10947165 0.09748946
000050 f2 d5 01 bc 93 09 88 3e 95 eb 95 3d 3c 87 c5 3d
       -0.007924544 0.26569805 0.07320324 0.096449345
000060 ba 24 09 bd 1d 78 33 3e aa 8e e8 bd e5 02 25 be
       -0.03348229 0.17526288 -0.11355336 -0.16114385
000070 73 27 ad bd fb 7e 00 3e 4e 4f fd bc 7d 14 5a 3d
       -0.0845479 0.12548439 -0.030921604 0.053242195
000080 dd db b5 3b 64 0c ee 3d 6d 1f 0f be 45 a3 de 3c
       0.0055498914 0.11623457 -0.13976832 0.027177462
000090 df b1 da bd bc 60 44 3d 82 05 5b 3d 92 07 57 3d
       -0.106784575 0.047943816 0.05347205 0.052497454
0000a0 63 da 29 3c 72 f9 57 bc ba 71 da 3c 2a 60 4b 3d
       0.010367009 -0.013182031 0.026665557 0.049652256
0000b0 72 52 e3 3d 8b f5 63 bd 6d 4e 12 be b6 e5 1e 3e
       0.110997096 -0.05565409 -0.1428773 0.15517315
0000c0 f6 b0 98 3d 0a 0d 41 bd 5d a2 e2 bc bb 91 b9 3d
       0.074556276 -0.047131576 -0.027665311 0.09060999
0000d0 c9 ec 08 be eb 71 13 bc 9d 08 96 bd 4f 38 0d bc
       -0.13371576 -0.008999328 -0.073258616 -0.008619382
0000e0 64 42 eb bd 83 f2 34 3c 83 af 88 3d 28 dc 5c 3d
       -0.114872724 0.011044147 0.06674101 0.053920895
0000f0 c1 20 13 3e b1 28 a1 3d 6a f6 e8 3c 1b 39 99 bd
       0.14367963 0.078690894 0.028437812 -0.07481595
000100 55 2b 88 3d 23 dc 0f be 53 4b 85 bd 9e 6b 00 3d
       0.0664889 -0.14048819 -0.065085076 0.03135263
000110 fa 60 01 3a 2a 82 1b 3d f7 70 2a 3d 2d 73 72 bd
       0.000493541 0.03796593 0.041611638 -0.05919187
000120 94 0b 85 3b d8 73 7d 3c 46 62 40 be 2e 2c a4 bc
       0.004060218 0.015469514 -0.18787488 -0.020040598
000130 f1 c3 0d 3e 8e 51 c9 3d 66 23 29 be 4f 15 11 3d
       0.13844277 0.098300084 -0.1651741 0.035420712
000140 03 f8 62 3d a4 5c be 3d ee 42 92 3d 89 0b 48 be
       0.055412304 0.092950135 0.07141672 -0.1953565
000150 06 e9 7b bd 84 6c ab bd 5d 84 a6 bc e8 21 8a bd
       -0.061501525 -0.08370307 -0.020326788 -0.06744748
000160 24 df 80 3d e7 be c6 bc 44 93 ab 3d 30 cd 53 bd
       0.06292561 -0.024260951 0.08377698 -0.051709354
000170 19 b5 39 bd 3e e3 2f 3d 27 5e 74 bc f5 4f e3 bd
       -0.045338724 0.042941324 -0.014915026 -0.11099235
000180 55 bb 18 bd 17 4b 22 3d c1 c6 0d 3c 34 bf 4c bd
       -0.03728803 0.039622393 0.008653344 -0.049987033
000190 4e 57 2b bb e6 4b 34 3e e8 cb 23 bd 3c c5 fe 3c
       -0.0026144567 0.17607078 -0.039989382 0.031099908
0001a0 18 92 35 3d a8 29 0b bd 45 c0 54 bd f9 20 e2 bd
       0.04432878 -0.033975273 -0.051941175 -0.11041445
0001b0 19 2f a1 3d 23 a2 c5 bd 25 bc 89 bd d7 35 e5 3c
       0.07870311 -0.09650066 -0.06725339 0.027979774
0001c0 27 5e 08 3e 2e 93 86 3a 21 43 14 3c 19 25 d8 bd
       0.13317166 0.0010267252 0.009049208 -0.10553951
0001d0 e7 20 e2 bc 29 4c f7 3d ce 4f 6f bd 32 66 fb 3d
       -0.02760358 0.12075073 -0.058425717 0.122753516
0001e0 70 38 ed bc 6f 65 50 be a3 41 93 bb 58 33 83 bd
       -0.028957576 -0.20351194 -0.0044939085 -0.064062774
0001f0 9b 02 89 3c 8d 03 d5 bd c2 24 c2 bb 19 92 2d 3c
       0.016724875 -0.10401068 -0.005924792 0.010593914
000200 2c 43 93 3c 45 e2 88 3c ed e3 0f bd b6 04 1e 3e
       0.017976366 0.016709456 -0.035129476 0.15431485
000210 46 fa 49 3d 92 11 c1 3d 52 48 49 bd 6f 04 8c 3c
       0.049310945 0.094271794 -0.049141236 0.017091958
000220 ef 96 27 3e f7 44 91 3d b5 49 1b be 2a 08 9b 3d
       0.1636617 0.07093232 -0.15164836 0.075699165
000230 4d f2 2d 3e 06 5f 60 bd 63 3d 34 3e 35 16 69 3b
       0.16986962 -0.05477812 0.17601542 0.0035566215
000240 09 4e d3 3d 46 a4 d3 3c 57 5e 6f bc a7 5e cb bd
       0.103176184 0.025835168 -0.014609895 -0.09930163
000250 8b f3 ee bc a5 89 ab bc b9 03 d8 bc 40 ff 82 bc
       -0.029168865 -0.020939657 -0.026368963 -0.015990853
000260 f0 ba fd 3c 2f 62 c9 bc aa 22 ce 3c ef 17 ba bd
       0.030972928 -0.02458295 0.025163013 -0.09086596
000270 fd 2f 99 3c cf 95 17 be 27 1d f2 3c 6a 82 37 3e
       0.01869964 -0.14803241 0.029554917 0.17920843
000280 66 80 58 3d 4c 5f 48 3d 3c 31 03 3e 3c e0 0d 3d
       0.052856825 0.048919007 0.1281175 0.034637675
000290 34 e3 49 bd af a3 3f 3d aa 2c bd 3c e7 2e 85 bd
       -0.049288943 0.04678696 0.023092587 -0.065030865
0002a0 08 d7 67 3d f5 80 00 be ed 2b 4b 3e 45 c2 04 3e
       0.056601554 -0.12549193 0.19840975 0.12964733
0002b0 e5 76 04 3c f0 60 9f 3c ea 37 6b 3e 34 6e 56 bd
       0.008084987 0.019455403 0.22970548 -0.05235119
0002c0 c6 d3 56 bc ba d7 72 bd 62 64 9e be 82 67 07 3e
       -0.013112014 -0.059287764 -0.3093596 0.13223079
0002d0 fd 64 8d bd 1a ed c5 3c d2 53 7b 3d 48 61 f9 bc
       -0.069040276 0.02416091 0.061359234 -0.030441895
0002e0 5f e3 1a bc 3c 5a 69 3d 43 d8 00 3e 94 9e 81 3d
       -0.009453624 0.05697082 0.12582497 0.063290745
0002f0 21 e6 f8 bc c3 83 4d bd 10 e4 47 3d e4 85 ba 3d
       -0.030383172 -0.050174486 0.04880148 0.09107569
000300 7d 2a 4c bd 42 e1 9b 3b 69 2b 39 bd 50 f2 6c 3d
       -0.049845207 0.0047570774 -0.045207415 0.057848275
000310 c0 64 b9 bd 22 89 94 3d 4c 7a b9 3c 2c 68 d9 36
       -0.0905242 0.072527185 0.022641324 6.479231e-06
000320 90 e2 b9 bd 90 62 c1 3c 4f e9 a0 bd 11 b1 96 3d
       -0.090764165 0.023606569 -0.07857 0.073579915
000330 32 1d d6 bd db 80 19 be 9a c5 ad 3d f6 65 2d bc
       -0.10454787 -0.1499056 0.08484955 -0.010583391
000340 e4 32 06 be 1b 57 55 3d 20 12 bf 3c 46 ac 56 3d
       -0.1310535 0.052085023 0.023324072 0.052410387
000350 5f a6 8c 3d a9 40 f6 3c 92 b8 0f be e2 31 7a bd
       0.0686767 0.03006013 -0.14035252 -0.06108273
000360 dd 0b 06 3e 00 a7 98 bc a4 22 60 3d a6 87 74 3d
       0.13090463 -0.01863432 0.054720536 0.059699677
000370 e8 a6 59 3d 13 ec c9 3d 16 2b 3b 3d 40 42 81 bd
       0.05313769 0.09859481 0.045695387 -0.06311464
000380 ab eb 04 3d b9 1a 2b bd 0c ed 77 3d 14 af 45 3e
       0.032451313 -0.04177353 0.0605288 0.19305068
000390 a1 c7 2e bd a4 4d 7c bd 75 ee 5a 3c aa 74 ee bb
       -0.04267085 -0.06159748 0.013362517 -0.007277091
0003a0 cf 44 96 3c 54 44 ab 3c 21 5c 90 bd 82 93 fc 3b
       0.018343357 0.020906605 -0.07048822 0.007708014
0003b0 63 be 40 be db 44 19 bd 03 00 8b be 62 7c 52 bc
       -0.18822627 -0.03741918 -0.27148446 -0.012847038
0003c0 53 6e 01 bc a1 3f 57 3d 54 c6 05 3e 4f ac 75 3d
       -0.0078998385 0.052550916 0.13063937 0.05997878
0003d0 a4 86 a8 3c 89 8e 0d bd 2f b2 3b ba db 90 65 bc
       0.020572014 -0.03455976 -0.00071600353 -0.014011587
0003e0 20 79 8a bd 9e 69 8f bd 9d af 9f 3a 7d ec 0b bd
       -0.06761384 -0.07002567 0.0012183074 -0.03416108
0003f0 ec f4 98 bb 6a a1 ab bd 8e 7a c1 3d 22 1b e2 3d
       -0.004667869 -0.08380397 0.094472036 0.110403314
