model/venous_checkpoint.pt (torch, 801077 bytes, 14 tensors)

attention_net.0.weight f4 [256, 512]
00000000: 4f28 33b9 f3f9 96bd 0a75 613c 2c57 5b3d
00000010: 06e2 41bd e6ad 7f3b d0f7 52bd 3edb 503d
00000020: b407 873d c905 9a3c 03e8 65bd c0f3 d73b
00000030: e5f1 e3bc 32a1 d93d b9d7 1ebd a068 a4bc
00000040: d6af 26bc 7803 b8bc 9a30 7d3d de38 513b
00000050: ae9d 4dbd 15b7 a5bc 7ae2 b2bd c65c d93d
00000060: 64c4 0f3e 9228 833d f12b a4bc 5e93 a83d
00000070: 5015 173d ace3 a83d d86c e03c 32fb ab3d
00000080: 6bdd 3fbd 98b8 98bd 8914 1d3d 1cde 043e
00000090: 3f34 6d3c 06b6 11bd af8c 183d 74b9 fb3c
000000a0: 972b 893d 04e3 80bd 2479 e13c 5529 e63b
000000b0: 5c29 7d3d b5ab d63c 53f6 58bd 86ac a73d
000000c0: d0c1 8cbd e58c 46bc eddc 0fbe db78 81bc
000000d0: da81 d8bc 8f2a 383d 8ab9 04bc c52f 6f3d
000000e0: fdc6 e0bd bdb0 aa3c 3047 26bd 1355 fd3a
000000f0: 04eb 1b3d 3b18 afbd 54e5 b83d bd6f af3c
00000100: 55f1 87bd 664e 963b a35f 0c3e 8231 913b
00000110: c9e8 a63c 7970 f5bc 674f f8b9 27f0 9cbd
00000120: 5587 f93b 387d 063d f779 e1bc d8a5 cd3c
00000130: 7f62 f93c 7e4b a1bc 25db 843d aa09 193d
00000140: 73ca c63c 4b4a bcbd 7608 443d 9bc4 9cbd
00000150: 7f50 9e3c a6ee 943d c48f 6cbd d653 01be
00000160: 05a2 45bc 4a10 4a3d 80b3 853d cdf1 e0bc
00000170: 31c1 0a3e 5c38 cdbd 80b9 433c a6a0 303c
00000180: a32a 1e3d 5d7e 37bd 7d65 b7bd c61b 2d3d
00000190: 0eba 55bc abd8 69bd cf1a 6e3d 0ebd 533c
000001a0: d878 d2bc 1c79 b6bd a179 9cbd f4b2 973d
000001b0: c9d2 3a3d 158c d4bd 52f1 3c3d be94 e1bb
000001c0: 747c 253d a5f0 51bd e474 163d 28dd 91bd
000001d0: 7a1d a0bc 45aa a63d 2988 7b3c 67ca bebd
000001e0: 4ad0 bb3d b3e9 0abd 270f 5b3d e62d dd3c
000001f0: 67d4 bcb9 a776 463d 5563 2cbc 303f 583d
00000200: 1e88 453d d0b4 93bd a2dd 1c3d 72db 7f3d
00000210: 329a 5bbd 1ae9 bebd 5a1b 823b 131f 86bd
00000220: d729 cc3b 7d6c 1abd 395a f13c fb6d e33d
00000230: c137 653c 1fb8 0c3d 2732 0ebd 3fcb 1dbc
00000240: 36fa 8e3b 3ba9 cfbc ec0e 8dbd 1c27 193d
00000250: 915e aa3d 04c9 0e3c 7762 f73d ef36 bebc
00000260: 4bc8 2bbd ed38 b53c 2fd2 3e3c cf8e aabd
00000270: 311e 903d 28b4 38bc 3c24 87bd ec4b 213d
00000280: 4875 a4bd a9cf 5bbc 7587 c53d a46d 563d
00000290: bb8e b2bc ff92 843d d338 39bc 1b31 90bd
000002a0: 6a44 e63c 0de1 66bd 11a0 e53b 3bd5 8bbc
000002b0: 827f 5d3c 4107 e83d 11f6 fa3d f0f1 37bd
000002c0: c41b f5bb 9ec0 9bbd 6558 6e3c 4ea7 21bd
000002d0: cdba 44bd 200c 3fbd e365 e3bc 5348 bd3c
000002e0: 5a27 a6bd bb19 143d 9358 2cbd dbea dc3b
000002f0: dfe3 9fbc 7130 c2bd 0486 033d 7f31 0fbd
00000300: b841 13bd e611 0b3e 4ee6 49bd c12e 0a3c
00000310: 9ed5 9e3d 51f4 9c3c c259 a73d 7abb 9cbc
00000320: 60aa 803b da7a 0cbd 8995 10bd d6bb 9cbd
00000330: b848 a1bc 8c9e 12be 6f31 843d 6700 39bd
00000340: 53bf f5ba 958a 363b 5a4d 06be abf9 033e
00000350: 65b5 1e3c d3a1 81bc 3cec a93d 5d2c 063d
00000360: 7468 323d 2920 60bd 3570 febd 013c 7f3d
00000370: bf69 a83d e53c 02be ae2f 5fbb 76c7 5fbc
00000380: 908f 0e3d 1511 a5bd 46b8 403c 08ec 51bd
00000390: 6279 babc 569e 703d f071 d63c a31c 1e3e
000003a0: bb32 b1bc 8321 7fbd 51f0 743c 689f f5bb
000003b0: 24b9 75bd 5d84 0c3d 789d 873c 6b35 a23d
000003c0: cf4a 9a3d b590 983c 04cd 91bd 7cd5 263d
000003d0: 153c 1b3d fbbf 02bd 1852 1b3d f6c6 c53c
000003e0: 5a74 cbbc dd25 c8bb 3b5c d93c e6f0 99bd
000003f0: da86 b63c f87d 833d 5b7c cc3d 4bf5 29bc
-0.00017085786 -0.07371893 0.013760814 0.05354993 -0.047334693 0.0039013564 -0.051505864 0.050990336
0.06593266 0.018801587 -0.056129467 0.0065903366 -0.027825305 0.10626449 -0.038779948 -0.02006942
-0.0101737585 -0.022462592 0.06181393 0.0031924765 -0.050199203 -0.020228902 -0.08734603 0.10613398
0.14039761 0.064042225 -0.020040484 0.08231233 0.03688556 0.0824655 0.02739565 0.08397521
-0.04684202 -0.074570835 0.038349662 0.12975353 0.0144777885 -0.03557398 0.03724354 0.03072808
0.06697767 -0.062933 0.027523585 0.00702397 0.06180702 0.026204923 -0.052969288 0.08187203
-0.06872904 -0.012118553 -0.1404912 -0.015804699 -0.026429106 0.044962462 -0.008100877 0.058395166
-0.10975454 0.020836229 -0.040595233 0.0019327722 0.038065925 -0.085495435 0.09028116 0.021415586
-0.06637827 0.0045869825 0.13708358 0.0044309506 0.020374672 -0.029960858 -0.00047361405 -0.07662993
0.00761501 0.03283426 -0.027523978 0.025103495 0.030442474 -0.019689318 0.06487111 0.037362732
0.024266457 -0.09193858 0.04785963 -0.07654687 0.019325493 0.07272081 -0.057754293 -0.12629637
-0.012062554 0.04933194 0.065283775 -0.02745905 0.13550259 -0.10020515 0.011946082 0.010780489
0.03861488 -0.044798244 -0.08954904 0.042262815 -0.013044847 -0.057091396 0.058131035 0.012923492
-0.025692388 -0.089098185 -0.076403864 0.074071795 0.045611177 -0.10378281 0.04612858 -0.0068841865
0.04040189 -0.051254887 0.03673257 -0.0712226 -0.019545306 0.08137945 0.015352287 -0.09315949
0.09170587 -0.03391428 0.053481247 0.026999425 -0.00036016406 0.048453 -0.0105217295 0.052794635
0.048225515 -0.072122216 0.038297303 0.06246514 -0.05361385 -0.09321804 0.0039705457 -0.06548896
0.0062305736 -0.03770112 0.029461967 0.111049615 0.013990344 0.03435528 -0.034715798 -0.009630977
0.0043633236 -0.02534925 -0.06887612 0.037390813 0.08318818 0.008714918 0.120793276 -0.023219554
-0.04193906 0.02212187 0.011646791 -0.0832802 0.070370086 -0.011273421 -0.06598708 0.039379045
-0.08030182 -0.013416209 0.09644977 0.052350655 -0.021796575 0.0647335 -0.011305052 -0.07040616
0.028108794 -0.05636697 0.007007607 -0.01706945 0.01351917 0.113295086 0.12253965 -0.044908464
-0.0074801166 -0.07605098 0.014547442 -0.039466195 -0.04802971 -0.046642423 -0.027758544 0.023105776
-0.081129745 0.03615735 -0.04207666 0.006741864 -0.019517837 -0.09481896 0.03211023 -0.034959313
-0.035951346 0.13581046 -0.0492919 0.008433999 0.07755588 0.019159468 0.08171417 -0.019132365
0.0039265603 -0.034296848 -0.035298858 -0.07653014 -0.019687995 -0.14318293 0.06454741 -0.0451664
-0.0018749036 0.0027853597 -0.13115445 0.1288821 0.0096868025 -0.015824234 0.08297011 0.032757152
0.043556646 -0.05471817 -0.124237455 0.062313084 0.082232945 -0.12718542 -0.003405552 -0.013658395
0.03480488 -0.08059899 0.011762684 -0.051250488 -0.022762958 0.05874475 0.026177377 0.15440612
-0.021630635 -0.06228782 0.014949874 -0.0074958093 -0.059991017 0.03430592 0.01655458 0.07920345
0.075338 0.01862369 -0.07119182 0.04073094 0.037899096 -0.031921368 0.037920088 0.024142724
-0.024835754 -0.0061080293 0.026533237 -0.07516651 0.0222811 0.06420511 0.099846564 -0.010373424

attention_net.0.bias f4 [256]
00000000: 360a 96bc 4603 a5bc 8537 81bb 5453 c0bc
00000010: 1f37 49bc 4e7e f9bc fb57 85bc e0ff b4bb
00000020: 2653 e5bc 5907 39bc bd90 26bc 9943 32bc
00000030: 547c 12bc 46f9 09bc c9ae 97bc 5353 dbbc
00000040: 8393 c6bb 01de a2bc 12ed 8dbc 6e7c 15bc
00000050: 2cf8 a4bc 1665 0cbc 5a58 acbc 53cb 73bc
00000060: 921e 55bc c7e9 cabb e2ee 7dbc 8437 39bc
00000070: 04d4 04bc 896f 5abc 523d a7bb cb03 17bc
00000080: 6a10 13ba ae5f 29bc d30c 03bd 0d48 c4bb
00000090: 4171 f0bb edb2 9abb 4d9a 99bb 0ca8 adbc
000000a0: 1d46 e9bb 9259 fcbc d001 4ebc d48a 9dbc
000000b0: 267f 66bc 93b2 8abc 75ca e33b 427a 65bc
000000c0: 37f6 c0bb f762 94bc efa4 80bb 95f1 253b
000000d0: 7dc9 2dbc b4cf 7cbc 52ca 6fbc a9e7 50bc
000000e0: f6ec c1bc dd4f fdba 7d0b bcbb a4f1 1cbc
000000f0: 4dcf 36bc c8ad 08bb e4fa 34bc 4c88 11bc
00000100: b9ca 0cbc 93dd 7abc 622a 44bc dd23 e3bb
00000110: 6f63 a0bc 9d1b 2ebc 8273 29bc 7d5d 8fbb
00000120: a202 83bc c68b 67ba a3c8 48bb 150b 17bb
00000130: 756e 92bc 94c4 2cbc 8b86 773b d4a4 37bc
00000140: 097e 85bc 3b48 5ebc d053 18bc 3427 adbc
00000150: 8ba6 cabc f6dc afbc 7b02 6a3b 88b9 a8bc
00000160: dc0c 54bb 61b6 56bc 8711 18ba f4f0 c93a
00000170: c441 7dbb 754d 92bc 978e 9bbc 94f1 113c
00000180: ee75 d8bc 82d5 c5bc f888 49bc e57f 71bc
00000190: b7fd 75bc b56a 80bc ffc3 6439 46c4 14bc
000001a0: a6e7 65bc 950f c43a 9a01 a4bc 75ac 0cbc
000001b0: 7635 f9bc a43e 87bc cbfd 98bb 911b 3cbc
000001c0: 5ba8 9dbc 587b ffbb 7ef4 3cbc a050 1f37
000001d0: 27d8 ee3b abe6 83bc 9e84 bcbb 7623 90bc
000001e0: 81bd 34bc 7920 97bc 4228 03bc bb75 1b3b
000001f0: 4707 8cbc f7e8 41bc 80fc ddbc 1487 9fbc
00000200: 138f 50bb 9d96 09bc 518b 26bc 9573 8fbc
00000210: 9b64 f3ba 84c5 f6bb 5aba 37bc 78b9 8ebc
00000220: f14a 61bc 000e 9fbc 760d 82bc e9d6 efbc
00000230: 60a1 113a c4c8 98bb 32ae d5bb 286e bcbb
00000240: b46c b33b fb95 12bc 1aa7 39bc 6006 c8bb
00000250: 7e05 3bbc 7d41 f6bb 85f2 3ebc 04d4 503c
00000260: 623a 23bc a787 9ebc 9190 b8bc 9a87 79bc
00000270: 8051 79bc 6d0e ecbb d63d 6ebc 19ee a8bc
00000280: a086 4abc 67cc 16bc f44e 33bc 9d56 7bbc
00000290: 3d42 23bc cc51 d0bb f30e c6bc 4754 b3bc
000002a0: 4ff0 03bb 7a69 05bc 6dfe 8fbc af95 75bc
000002b0: 2dff 87bc 07c6 82bc e3c1 52ba a943 79bc
000002c0: 5ab8 82bc 96e2 8fbc 27c6 c5bc 10b0 b3bb
000002d0: 17b2 d7bb a7c3 b6bc dd7d 50bb a5de 5eba
000002e0: 8fc9 4bbc 7621 3e3c e5cc f9bb 0e1b 08bc
000002f0: 9992 99bb db1d abbc 41e3 083c 5a48 cfbb
00000300: 44f5 81bc 8fab fdbb d3cd 16bc a686 38bc
00000310: dcc4 dcbb 6332 913b 34b2 5ebc a183 73bc
00000320: 2a43 f4ba 7c20 4bbc 20d2 b2bc 6c48 e0bc
00000330: cf28 74bc 105e bdbc 3af0 79bc 611a 15bc
00000340: 9195 87bc bfe3 2bbb 54ca 6abc 47ad e7ba
00000350: 8a95 edbc e4fc 1cbc a697 8ebc 9049 6fbc
00000360: b3e4 96bc b1fd 6dbc 7223 54bc 1351 3a38
00000370: e6db 4fbb f75c 313b 8ff2 26bd 96f7 cfbb
00000380: 6ef0 09bc b9ec a4bc 5e21 a1bb d42d efbb
00000390: a4d2 d9bb 82a2 87bc c9fc 9b3a 70ae 39bb
000003a0: 8af5 5ebc 1170 f3bb 1bf8 20bc cc56 56bc
000003b0: 7575 a9bc 8dd6 ccbc fd97 7cbc f795 e83b
000003c0: 6bde a4bc 2e35 853b 1689 5dbb fe6c 8fbc
000003d0: 2201 93bc 5a37 7fbc fae4 13bb 6125 81bc
000003e0: af13 3ebc c72e 6ebb 6ac1 d8bb 3198 ef3a
000003f0: c0af 89bc 7bdb 2ebc 5163 adbb 8d9f 73bc
-0.018315416 -0.020143162 -0.003943386 -0.023477234 -0.012281208 -0.030455735 -0.016277304 -0.0055236667
-0.02799375 -0.011293256 -0.010166344 -0.010880374 -0.008940775 -0.008421248 -0.018515961 -0.02677313
-0.0060600652 -0.01988125 -0.017324958 -0.009123905 -0.020137869 -0.008569023 -0.021038223 -0.014880019
-0.013007777 -0.006192419 -0.015498849 -0.01130474 -0.008107189 -0.013332256 -0.0051037455 -0.009217213
-0.0005610051 -0.010337753 -0.031994652 -0.0059900344 -0.0073377197 -0.0047210366 -0.0046875835 -0.021198295
-0.007118954 -0.03080443 -0.012573674 -0.019231237 -0.0140684005 -0.016930854 0.006951625 -0.014006199
-0.005888726 -0.018113596 -0.0039259116 0.0025320996 -0.010607121 -0.01543038 -0.014635639 -0.012750545
-0.023672562 -0.0019326169 -0.005738674 -0.009579096 -0.011157823 -0.0020855535 -0.011046145 -0.008882593
-0.008593255 -0.0153116165 -0.0119729955 -0.0069317655 -0.019578664 -0.010626701 -0.010342481 -0.0043751583
-0.015992466 -0.00088327785 -0.0030637167 -0.0023047377 -0.017874936 -0.010544915 0.0037769403 -0.011208732
-0.01629545 -0.013567026 -0.009297326 -0.021136858 -0.024737617 -0.021467667 0.0035707045 -0.02059628
-0.0032356298 -0.013105006 -0.00058009516 0.0015406893 -0.0038643936 -0.0178592 -0.01898889 0.008907694
-0.02642342 -0.02414966 -0.012300722 -0.014739965 -0.015014104 -0.015675882 0.00021816789 -0.009079998
-0.01403228 0.0014958257 -0.020020295 -0.008586039 -0.030421 -0.016509362 -0.0046689264 -0.011481182
-0.019245317 -0.007796686 -0.011532901 9.4959105e-06 0.007288951 -0.016101202 -0.005753114 -0.017595034
-0.011031509 -0.018448101 -0.008005204 0.0023721296 -0.017093314 -0.011835328 -0.02709794 -0.01947359
-0.003182356 -0.008397725 -0.010165052 -0.017511168 -0.0018569411 -0.00753087 -0.011213863 -0.017422423
-0.013750778 -0.019415855 -0.01587556 -0.029277282 0.0005555358 -0.004662605 -0.00652101 -0.0057504363
0.005475605 -0.008946891 -0.011331344 -0.0061042756 -0.011414884 -0.007515131 -0.011654501 0.012745861
-0.00996265 -0.019351793 -0.022529872 -0.015230084 -0.015217185 -0.007203868 -0.01454111 -0.020621346
-0.012361199 -0.009204007 -0.010944117 -0.015340474 -0.009964523 -0.006357407 -0.02417705 -0.021890773
-0.0020132249 -0.008142823 -0.017577374 -0.014989301 -0.01660117 -0.015963567 -0.00080397556 -0.015213885
-0.015957046 -0.0175641 -0.024142338 -0.005483635 -0.0065825093 -0.022310091 -0.0031813302 -0.00085018046
-0.012438192 0.011604657 -0.0076233023 -0.008307232 -0.0046866653 -0.02088826 0.008354963 -0.0063257637
-0.015864022 -0.0077413986 -0.009204346 -0.011262571 -0.0067373347 0.0044310554 -0.013592292 -0.014862926
-0.0018635739 -0.012397882 -0.021828711 -0.027378283 -0.014902308 -0.023116142 -0.015255028 -0.0091005275
-0.016550811 -0.0026228277 -0.014330465 -0.0017675542 -0.02900197 -0.009581778 -0.017406296 -0.014604941
-0.0184196 -0.014525817 -0.012947904 4.4421362e-05 -0.0031716763 0.0027063468 -0.040758666 -0.006346653
-0.008419139 -0.02013241 -0.0049173078 -0.0072991643 -0.006647425 -0.016556982 0.0011900897 -0.0028332733
-0.013608346 -0.007429131 -0.009824778 -0.013082217 -0.02068589 -0.02500465 -0.015417096 0.0070979553
-0.020125588 0.0040651774 -0.0033803633 -0.017508026 -0.017944876 -0.015577162 -0.00225669 -0.015764894
-0.011601373 -0.00363438 -0.0066148536 0.001827961 -0.016807437 -0.010672445 -0.0052913805 -0.014869583

attention_net.3.attention_a.0.weight f4 [128, 256]
00000000: 6a4c 143d 10ec c83c 76ea ec3c 1a15 8abc
00000010: d686 7e3d 1999 843d 369c 37bd fd6d 41bc
00000020: d22b 08be 62f0 963d 6986 d73d 9bc6 013d
00000030: 57ac 1abe 4ecb 55bc 2165 5cbd 11ef 153b
00000040: e822 97bd 5ffd 133d efba 953b 92d7 a93d
00000050: 76f7 a4bb 16a8 f3bc 5082 0b3d 580b 34bd
00000060: dba2 2dbc 2d47 073d cbd4 133d 1063 353e
00000070: ef59 b63c ace7 8c3d d4b2 103c dc1b 80bd
00000080: cf79 4c3d a01b 923d 0550 b63c 504c eb3d
00000090: 22ba 0f3e a0d7 04be f85d 893d de45 34bd
000000a0: a89d 843d 71b7 823c ec69 383d b86e 7fbd
000000b0: 1d26 59bd 2a64 21bc 2e90 77bd bd10 a13c
000000c0: eb36 16be b58c 0e3d 14fc 713d 4c21 4dba
000000d0: 5e22 9c3d 9bf0 a93d a2d6 633d 86e3 073e
000000e0: c41c 873d 2568 96bd cf23 0abe b226 123d
000000f0: 743e ee3a fdb3 25bd 7790 8cbc 6fb4 283e
00000100: d8a3 98bc 87f4 653d 6f0f 3bbc 18ad 66bd
00000110: 7690 763d 1a15 01bd 788c 113e dbcd 5a3d
00000120: f0b0 e6bb f639 8c3d 9634 8bbc 793a 883e
00000130: 121a 5dbc 4192 e93d 462c 06bd 84c7 c23d
00000140: 658a 07bd 882e 15bd beda 213e becd 9c3d
00000150: 3f96 2ebd 235a bab9 7fec 7ebd ab62 aa3d
00000160: 4e1b e2bc 242d f33d 6567 083e f1c2 253c
00000170: b666 25bd fd40 f63c 9de7 0ebd 9067 55bd
00000180: 34ae 18bd 3427 c03d 7e7f 723d d6cb 0f3e
00000190: f9ed 1b3c 736c 293d 8d55 0cbe 2e20 0abd
000001a0: 5651 013d 8621 d33d 379a 8f3d 321b 7dbd
000001b0: 3d34 143e 38c1 163d 5f43 2d3d a12c b33c
000001c0: 3a2b 88bd 67e9 04bd f3e3 fa3a 69eb 063c
000001d0: cee3 db3b 33a8 e1bb e74e 0d3e cdee 123d
000001e0: 219f be3b 8be7 6b3d 028e cb3b d3ad ba3d
000001f0: c367 2f3b 0ebb b03c e722 fbbc 3a67 88bd
00000200: f1f5 6dbd 357d 0cbe 4fed 34bb 15df 0a3d
00000210: 042c 713d 7cab 673d 98f3 b03d 3fba e73d
00000220: 422c 36bd 375d 033d c41a 09bc 92d3 0b3d
00000230: a188 ef3d 44ea 67bd 234a a3bd 3068 b1bd
00000240: 9040 d0bd 9c99 61bd 0290 9c3c 4080 35bd
00000250: acae 023e 803e 0ebd 5dac a33c 3c05 e7bb
00000260: c24c 2abd d2a0 b93b 8512 673d 63b5 b9bd
00000270: 24f1 98bd 0555 5bbc 6679 e9bd 3c34 883c
00000280: 9608 da3c e001 96bd 60fc 62bd 60fc 323d
00000290: 761b 22bd 6c8b bd3d 283b 69bd 368b ffbc
000002a0: 5334 d1bd 5e56 99bc f91c 0bbd 03c9 ec3d
000002b0: 1868 503d 71e3 513d d01b 61bd 7a29 60bc
000002c0: 53bf a63d 5d14 863d cc8a 18bd 770a 3dbd
000002d0: 10c5 c9ba 4d08 eebc a7d9 2f3e 7d66 2cbe
000002e0: 3379 d43c bbdb c8bd 5433 da3d 216c 1b3d
000002f0: 41b4 4a3b cd3d 953d 5a5c 2ebc a53f 093c
00000300: ad83 c03d 5cbf 25bd 97cb 49bc 55db 71bd
00000310: d2c2 9ebd d081 a6bc 0d6e a5bb a86f fdbb
00000320: c86c d33c f484 ddbd 9a6f 7b3d 427c fb3d
00000330: 15af afbd 22bc 57bd 2121 41bc 2625 113d
00000340: 88ca 14bd 65d9 d0bd 5a3d f6bb 3a77 1a3d
00000350: ed57 cebc 700f 073a cff8 e13b b5ac 043e
00000360: 2288 6b3d 7ee3 1c3e d3a4 7dbd 8e0f 2b3d
00000370: cc36 17be b484 35bd b799 2abe 7c4b 783c
00000380: b6f7 fabc d93b 803d 347f 4f3d 0ab0 aa3d
00000390: 1b4c ebbc abb8 c33c 1608 683d 02a3 09bd
000003a0: 2001 533c 8518 13bd 30c6 34bd fb24 143d
000003b0: d405 75bc 4465 df3c bc52 e7bd 2035 9cbe
000003c0: 68da c23d 41b8 91bd 678a 62bd 8df7 003e
000003d0: 0542 6cbc 242e 973d 44e7 173d f3b8 84bc
000003e0: 5927 64bd e68d c5bb 2aae c2bd 39c7 35bc
000003f0: 4030 6d3d 4338 3a3d 3b45 09bd 1aab 94bd
0.036205687 0.024526626 0.028920393 -0.016855765 0.06214031 0.064745136 -0.04482671 -0.011806008
-0.13297966 0.07370068 0.105236836 0.031683546 -0.15104805 -0.01304896 -0.05380738 0.002287809
-0.07379705 0.036130305 0.0045694034 0.0829307 -0.0050343825 -0.029743236 0.034059823 -0.04395613
-0.01059791 0.033026863 0.036091607 0.1771357 0.02225968 0.068801254 0.008831698 -0.06255314
0.049920853 0.07134175 0.022254953 0.11489165 0.14035848 -0.1297288 0.06707376 -0.044011943
0.06475383 0.015956612 0.04502289 -0.06236145 -0.053014863 -0.009850541 -0.060440235 0.019661302
-0.14669387 0.034802157 0.05907829 -0.0007825091 0.076237425 0.08297845 0.05562461 0.13270387
0.065972835 -0.07344083 -0.13490222 0.035681434 0.0018176571 -0.040454853 -0.01715873 0.1647508
-0.018632814 0.056141403 -0.011417254 -0.05631742 0.060196362 -0.031514265 0.14213741 0.053418975
-0.0070401356 0.06846993 -0.016992848 0.2660711 -0.013494985 0.11404849 -0.032757066 0.09510711
-0.033090968 -0.03642133 0.158061 0.0765643 -0.042623755 -0.00035543842 -0.06223726 0.08319601
-0.02760091 0.11873844 0.13320692 0.010117278 -0.040381156 0.030060286 -0.034888852 -0.052100718
-0.037275508 0.093824774 0.059203617 0.14042601 0.009517186 0.04136319 -0.1370451 -0.033722095
0.03157171 0.103091285 0.07011836 -0.061793514 0.14473052 0.03680536 0.04230058 0.021871867
-0.0664887 -0.032449152 0.001914142 0.008234837 0.006710506 -0.006886506 0.1379963 0.03587227
0.0058173095 0.057593863 0.006211997 0.091151856 0.0026764728 0.02157357 -0.030656291 -0.06660314
-0.058095876 -0.13719638 -0.0027607267 0.033904154 0.058879867 0.056560025 0.08640212 0.113148205
-0.0444758 0.03207132 -0.008368198 0.034137316 0.11695982 -0.056619897 -0.07973125 -0.0866245
-0.10168564 -0.055078134 0.019111637 -0.04431176 0.12761945 -0.034727573 0.01997965 -0.0070501845
-0.04157711 0.005664923 0.056414146 -0.090678 -0.07467869 -0.013386969 -0.11400108 0.01662647
0.026615422 -0.073245764 -0.055416465 0.043697715 -0.03957697 0.09255108 -0.05694118 -0.03119431
-0.10215058 -0.01871794 -0.033963177 0.115617774 0.05088052 0.051242296 -0.054958165 -0.013681764
0.08141961 0.06546853 -0.037241742 -0.04615256 -0.0015393812 -0.029056692 0.17172872 -0.16835971
0.025936699 -0.09807535 0.10654321 0.037944917 0.0030930194 0.07287178 -0.0106421355 0.00837699
0.09400115 -0.040465698 -0.012316606 -0.059047062 -0.07752003 -0.020325571 -0.0050485195 -0.0077342577
0.025808707 -0.108163744 0.06138573 0.1227956 -0.08578316 -0.05266965 -0.011787684 0.035435818
-0.03632596 -0.10197715 -0.007514638 0.03771136 -0.02518841 0.00051521417 0.0068961154 0.12956508
0.057502873 0.15321156 -0.061924767 0.04176288 -0.14766997 -0.04431601 -0.166602 0.015154716
-0.030635696 0.06261415 0.05065842 0.08334358 -0.028722813 0.023891767 0.056648336 -0.033602722
0.012878686 -0.035912056 -0.04413432 0.03616808 -0.014955003 0.027269967 -0.11295077 -0.3050928
0.09514314 -0.07115222 -0.055307772 0.12594433 -0.014420037 0.073818475 0.037085786 -0.016201472
-0.055701587 -0.0060288785 -0.095058754 -0.011094862 0.057907343 0.04546381 -0.03351329 -0.072591975

attention_net.3.attention_a.0.bias f4 [128]
00000000: 5313 ac3b 571b 113d cb6c 8dbc c497 bf3c
00000010: b992 d3bc 1a48 d13d 25b7 35bc 6860 a7bc
00000020: 5408 9ebc a9a7 cfbb d886 423b 5b86 853b
00000030: 4a3b 3ebc 362b e03c ffd1 85b9 7011 d6bb
00000040: f240 eabc 99f0 47bd 4ad4 3c3c 1a04 3f3c
00000050: 9736 cdbc 3b95 b93b 5e7b d13c 8423 143c
00000060: 3e9d d93b fcd7 dfbb d798 f0bc 07bd 5a3b
00000070: dd84 663c ff77 8fbc cda9 c83c 6a74 323c
00000080: e2dd b5bc b557 91ba 909a 06bd 65a6 3c3c
00000090: 5a12 da3c a818 533c ba59 303b 7068 8fbc
000000a0: c5bf fd3b 7477 6dbc 22f8 8abc 1866 74bc
000000b0: 8d8d 1d3d 5ad1 013d 65a7 c83c d7cf 1ebd
000000c0: 4fc7 80bc 67c5 12bc ed9f ce3c cf5e ba3b
000000d0: 7547 cfbb 5154 4f3c 05c5 f23b 0530 033d
000000e0: 01b7 b63c f9ff 70bc 7f7a 79bd 9d05 9e3a
000000f0: 8281 c93c 6d37 3dbd af3d 5b3a c849 e4bb
00000100: c905 ca3b e64d f6bc a7d1 3dbc 4678 1fbb
00000110: b564 98bc 0bbd c4bc 2a11 a4bc fcdd 293c
00000120: 9ebf f23c 793a 8bbd 7a6f a6bc a040 a73c
00000130: ccbb f5ba 574a 743a fa8f 6fbc 5e6e 7fbc
00000140: 279a 91bc 9f95 24bc 9b4f 0d3d 489a 8fbc
00000150: 1e13 c2bc 42e5 f63b fe75 983c 0055 81bb
00000160: cf32 2bbd f12f d13c 36c6 0dbd 3788 08bd
00000170: 8bfb a23c 843a 35bb 1b65 e03c fe24 3ebb
00000180: 2559 f33c 6199 273b 2c1f 993c 235e 8a3c
00000190: f60b 9ebc 7ff7 28bd c3b8 acb9 3575 caba
000001a0: 480f 47bd 996a 93bc 9cc7 49ba f91a 35bd
000001b0: b56a 7cba 9777 1e3c 60ca 363d 5956 e039
000001c0: 3d54 883c 9847 c6bc 691e 233d 947d bc3c
000001d0: 6549 e8bc 3b9a c43b 9a64 b2bc 8c6a bdbb
000001e0: 8564 8cbc d14b f3bb 84c8 36bc 74ad a7bc
000001f0: d6e7 47bc 69eb bbbc 8db8 90bc ea2f 22bb
0.005251327 0.035426464 -0.01726379 0.023387797 -0.025826799 0.102188304 -0.011091028 -0.020431712
-0.01929108 -0.0063371253 0.0029682424 0.0040748543 -0.011610815 0.027364355 -0.00025524196 -0.0065328404
-0.028595421 -0.048813436 0.011525223 0.011658693 -0.025050445 0.0056635416 0.025571521 0.009041671
0.006641059 -0.0068311673 -0.029369755 0.003337683 0.014069763 -0.017513273 0.02449503 0.010892013
-0.022200529 -0.0011088761 -0.032862246 0.011514281 0.026620079 0.0128842965 0.002690895 -0.017505854
0.007743808 -0.014493812 -0.016964022 -0.014916919 0.03846507 0.031693794 0.024493882 -0.03877243
-0.015720038 -0.008958197 0.025222743 0.0056875716 -0.006325657 0.01265438 0.0074087405 0.032028217
0.02230406 -0.014709466 -0.060907837 0.0012056116 0.024597887 -0.046195436 0.00083633786 -0.006966803
0.0061652404 -0.030066442 -0.01158563 -0.0024333163 -0.018602708 -0.024015924 -0.020027716 0.010367867
0.029632386 -0.06798262 -0.020316828 0.020416558 -0.0018747984 0.0009318939 -0.014621729 -0.015590278
-0.0177737 -0.010045438 0.034499746 -0.017529622 -0.023690756 0.007534654 0.01861095 -0.0039469004
-0.0417965 0.025535556 -0.034612857 -0.03333303 0.019895336 -0.0027653286 0.02739196 -0.0029013748
0.029705593 0.0025573599 0.018691622 0.016890591 -0.019292813 -0.041251656 -0.00032944055 -0.0015446307
-0.048598558 -0.017995166 -0.00076972856 -0.044215176 -0.00096289377 0.009672067 0.044626594 0.00042788943
0.01664173 -0.02420406 0.039823923 0.023009099 -0.02835531 0.005999831 -0.021776486 -0.0057805236
-0.017137775 -0.0074248095 -0.011156205 -0.020468451 -0.01220127 -0.0229394 -0.017666126 -0.0024747797

attention_net.3.attention_b.0.weight f4 [128, 256]
00000000: f2ed 53bd 1251 8f3d 714f 14bb be8c 4dbd
00000010: f585 c9bd eee7 c0bc 3a32 ecbc c336 12bd
00000020: ec61 ed3d 0618 9fbd e91d 273e 452e 0abd
00000030: abaf 25bd 9fe5 46bd 0206 b5bd 6253 89bc
00000040: 2595 0abd c1fe 1d3d efa0 fc3d cc2f 1c3d
00000050: a00a 993d a605 87bc ada3 cd3c 3557 3bbd
00000060: 5d15 a83d 293d 8b3c cca4 8ebd 0e8e 58bd
00000070: 5f55 90bc c144 02bd 3646 9b3d d3b3 b2bd
00000080: c16d b13c 1dfb 173d b065 a7bd 5334 9d3d
00000090: d6d3 adbd 15d3 8b3d ed06 853d 4bc8 3bbe
000000a0: 6b03 23bc 5d2e 11bb 77b7 a1bc 0b86 99bd
000000b0: 5631 5b3c 9ca1 d7bb ddfa 6fbd 30fe ccbc
000000c0: 793f 16be 1f01 5a3c 16fc af3c 6a95 00be
000000d0: 2ab6 83bc bc4f 14bd 74dc e43c 8672 813c
000000e0: 0f57 40bd 04d8 82bd ee79 bf3c 3cd5 4bbe
000000f0: 709d 56b9 78b4 5d3d 6b2c d23d e26b e0bc
00000100: 28ab a83d 94d1 cdbc 0fdd 1dbc e8e2 75bd
00000110: 507a 0cbd 8080 29be be7f 413d 62c3 f4bc
00000120: 499a 413d f57d eabc 012a 0cbe c2db 3b3d
00000130: 07d2 dcbd ed36 89ba 1915 18be 1c08 7f3d
00000140: 060e d33d f5fd dcbd efd6 c7bc 8694 06bc
00000150: 8b69 3abd a31f 1e3d 35b6 163e 67f5 44be
00000160: 179c e23c 5ce1 21be 5c04 5e3d c1fc c6bc
00000170: 1da5 2abe ec17 79bd 6d8d 9f3d b5cd afbc
00000180: a982 0b3d 051b d5bc 85cc de3c b737 8bbd
00000190: 7cdd 16bd f608 9dbc 8d6f 9cbd da33 013e
000001a0: bc8b 913d daa1 eabc a1ef 18be 2a8c fabc
000001b0: 3033 573c 27eb 173c 5348 cdbd fe35 78bd
000001c0: 1dba 0bbe 148b 90bd 5dc2 3b3d ce23 b4bc
000001d0: d974 8dbd 9b98 1cbe 4db3 933d e0e0 813c
000001e0: c81d 94bd 6404 ba3d 5c89 47be ef70 143e
000001f0: 646e 973d 49f4 223e fb30 e63c 2c75 adbc
00000200: 1a07 e53d c765 c13d 1315 a73c 8b62 fcbd
00000210: 73d6 dcbb 9bcb d7bc 1f7a b0bd d379 cdbd
00000220: fbb9 f53c 9b6a 87bd 43ac 11bd 008d a53c
00000230: c3e6 d8bb e592 433d 87b8 2bbd 01ff 223e
00000240: 6e15 673d 0cfc 85bd 5c00 663c ed61 b43d
00000250: ce74 4bbe 18a7 16bd 9929 b0bd 3c1b d1bd
00000260: 9ca9 ec3c a7fa c63c bed7 59bd d9d9 1cbe
00000270: 3134 013d 576f 3e3c cfa2 d9bd 664f d9bb
00000280: 9894 213d 05c0 29bc dcc4 49bd fd24 a3bd
00000290: 168a a53d 4bd5 c0bd 6ba9 8dbc 83a5 b1bc
000002a0: 4871 4abd aa2f a3bc 5779 243d dd69 0cbe
000002b0: ac62 a43d 4f11 f23d 88cc 0a3d 3ba2 6a3d
000002c0: e5cd 683d 2178 163d bbb3 343d 470c e63c
000002d0: 7bda 733d 4581 b5bc f1dc 98bc d8f5 b0bd
000002e0: a47d 3b3d 5751 4bbd 84dc cc3d c1d4 18bd
000002f0: debc 7d3d 2f08 a63d a2c1 fd3c 8f37 7dbe
00000300: 8fcd 183b c8cb 68bd 4a0f 4b3d ebbd 453d
00000310: 8963 983d e185 863c 6e77 7f3d 0329 5b3d
00000320: b193 363e 69de 20be de88 01be d677 2abd
00000330: 9e48 07be f329 2bbe b47c 5d3d 3e6c c43d
00000340: 32e3 b2bd 48c0 2fbb a082 72bd 5fcf f33d
00000350: 50a1 87bd 7349 773d 6439 193e 6472 c4bc
00000360: 253b 97bd 8191 2d3d f158 67bd da21 e3bd
00000370: f83e 593c 62a9 a33c 5199 ed3b 39d3 693d
00000380: 6a32 483c 2c90 a0bb 9dd4 8abd 21ae d13d
00000390: 7a63 cb3d 2144 8e3d 44e0 f7bc 7081 533d
000003a0: 7e89 85bd 2a63 d23d a65d f63c 1bd3 3e3c
000003b0: 4c8c 4dbd fe9e 5e3c 3816 5f3d 26e6 24be
000003c0: 0d41 513e 57b6 d33d 85bf b73c 6ad8 c9bb
000003d0: 6b7b 353e f00b acbd 21d4 be3d f274 20bd
000003e0: 4f0d bfbb db18 20bd 5f03 2e3e 5804 373d
000003f0: 475c 613b a8b6 24bd e661 c63b 258c 833d
-0.051740594 0.06997885 -0.0022630359 -0.05018305 -0.098400034 -0.023548093 -0.028832544 -0.035696756
0.11590943 -0.07768254 0.16320004 -0.033735532 -0.040450733 -0.048558827 -0.088390365 -0.016763393
-0.03383364 0.03857303 0.12335383 0.03813152 0.0747273 -0.016482186 0.02510246 -0.045737464
0.082072 0.016996937 -0.06965026 -0.05286985 -0.017618833 -0.03180385 0.07581751 -0.08725705
0.02165878 0.037104715 -0.08173692 0.07675996 -0.0848767 0.0682737 0.064954616 -0.18338124
-0.009949545 -0.0022152879 -0.019740803 -0.0749627 0.013378462 -0.0065805446 -0.05858885 -0.02502355
-0.1467265 0.013305931 0.021482509 -0.12556997 -0.016078074 -0.036208853 0.027937151 0.01580168
-0.046958026 -0.06388858 0.02337357 -0.19905561 -0.0002046728 0.054127187 0.10262378 -0.027395193
0.082357705 -0.025124349 -0.009635224 -0.060030848 -0.034296334 -0.16552925 0.047240965 -0.029878322
0.04726628 -0.028624514 -0.13687898 0.045863874 -0.10782247 -0.001046864 -0.14851798 0.062263593
0.10305409 -0.10790626 -0.02439448 -0.008214122 -0.04551081 0.03860439 0.14717944 -0.19234239
0.02766232 -0.15808624 0.054203376 -0.024290444 -0.16664548 -0.06081383 0.07790647 -0.021460393
0.034060154 -0.02601386 0.027197132 -0.06797736 -0.036832318 -0.019169312 -0.07638464 0.12617436
0.0710673 -0.02864163 -0.14935161 -0.030584414 0.013134763 0.009272373 -0.100235604 -0.060598366
-0.13645215 -0.07057777 0.045839656 -0.02198973 -0.069070525 -0.1529259 0.07211933 0.015854299
-0.07232243 0.09082869 -0.19485992 0.14496206 0.07394102 0.159135 0.028099528 -0.021174036
0.11182995 0.094432406 0.020395791 -0.12323483 -0.0067394315 -0.026342204 -0.08617043 -0.10033002
0.029995909 -0.0661213 -0.035564672 0.020208836 -0.006619306 0.04774751 -0.041924026 0.15917589
0.05641692 -0.06542215 0.014038172 0.0880774 -0.19868776 -0.036780447 -0.08601684 -0.10210273
0.02888947 0.024289442 -0.053184263 -0.15317477 0.031543914 0.011623225 -0.106267564 -0.0066317795
0.03944835 -0.010360722 -0.049260005 -0.07966039 0.080829784 -0.094156824 -0.017292699 -0.021685367
-0.04942444 -0.019920189 0.04015478 -0.13712259 0.08026633 0.118197076 0.033886462 0.05728362
0.05683698 0.036735658 0.044116717 0.028082026 0.05953453 -0.022156367 -0.01866004 -0.08640641
0.045774117 -0.04963812 0.100029975 -0.037312273 0.061947696 0.0810703 0.03097612 -0.24728225
0.0023315882 -0.056834966 0.049575128 0.048276823 0.0744086 0.01642126 0.062369756 0.05350591
0.17829777 -0.15709843 -0.12649867 -0.04161819 -0.13211295 -0.16715221 0.054074004 0.09590958
-0.0873474 -0.002681749 -0.059206605 0.11904787 -0.06622565 0.06037278 0.14963299 -0.023980327
-0.07384328 0.04237509 -0.056481306 -0.11090441 0.013259642 0.019978229 0.0072509428 0.057086203
0.012219051 -0.004899999 -0.06778834 0.102382906 0.09931083 0.06946588 -0.030258305 0.051637113
-0.06520365 0.1027282 0.030073952 0.011647011 -0.050182626 0.013587711 0.05446455 -0.1610342
0.20434971 0.10337513 0.02243019 -0.006159832 0.17722861 -0.084007144 0.09317804 -0.039174028
-0.005830444 -0.039086204 0.16993473 0.044681877 0.0034387277 -0.040213257 0.006054151 0.06423215

attention_net.3.attention_b.0.bias f4 [128]
00000000: d4f4 bbbc ed96 5e3c 81b9 1dbd a089 423c
00000010: c119 523c 1a79 bebc bf45 873b fc82 fabc
00000020: 1ed9 c63b 96d7 33bd b84b 55bd ceb6 51bc
00000030: 203c 80bd 8367 7e3b 2ad4 5b3d 0c45 7a3c
00000040: 2985 3fbb 201c 003c 9db1 cf3c a746 a93b
00000050: ed39 f4bc 6d62 ac3c bef5 4abb 3ff0 783c
00000060: 955b 6e3d bc64 923c 621f 373c 36be 4d3c
00000070: 37fc 88bd ba7c 57bc c078 98bc 7fed 0fbd
00000080: 7e04 a5bc b19b 633c ffe7 04bc d950 adbb
00000090: 814f 133d 8c10 2ebc d2fe 7dbd 910e 0c3c
000000a0: df68 5abc 5edc 323d e7c0 383c 6a7b a4bc
000000b0: 67fb 9bbc 4829 c1bc ef0f 30bd b6e2 d63b
000000c0: 4002 913d 2095 adbc cc94 8c3b e411 6cbd
000000d0: 21bd cabb 5932 b23c 014f 4dbc 646a 9dbc
000000e0: 7958 00bb d7d1 7fbc e78b f0bc 68b5 4cbd
000000f0: 669b 8d3c 29fb 33bc 136a 38bc 3bb9 d5bc
00000100: fc5c 303c 9d60 19bb 731c c53c c3ff d5bb
00000110: ba28 09bd 3114 4dbd 12be 843d c473 92bc
00000120: 3f70 a3bb 7769 afbc e786 38bb a29b 29bc
00000130: de83 12bd 1ff8 ab3c 69b7 d9bb 6507 293d
00000140: 518e 73bc 6f63 433c 4c18 44bc 169c a83c
00000150: 669a 053c 32a5 3c3b 87a0 b73b e700 96bc
00000160: 4903 5e3b bfbb 153c 9319 a03c 431f 13bd
00000170: 2d1f 1dbc 64bb dbbb 6ceb a2bd 4d21 debb
00000180: b087 af3c 0266 b23c a282 e5bb 21cd 5e3b
00000190: 81a5 193b 8f35 26bb 0dd4 093c e981 b53c
000001a0: e108 63bb 330c 0abd 70b2 a0ba 2b47 e53a
000001b0: 8b74 3bbb da69 45bc 0aa3 a03b 2c30 a03b
000001c0: fffc 0bbc a808 40bd dd52 b9bb a03c 28bc
000001d0: 03b4 95bc e919 85bc d56b 95bc 4136 99bc
000001e0: 0e67 34bc 1e99 f1bc 5984 083b 1f51 9fb9
000001f0: 2892 6e3c bd35 103c aee4 b23c 9ae8 bbbb
-0.022943892 0.013585788 -0.03850699 0.011873633 0.012823523 -0.023251105 0.0041281874 -0.030580036
0.006068363 -0.04390677 -0.052074164 -0.012799932 -0.06261468 0.0038819022 0.053669132 0.015275251
-0.0029223657 0.0078192055 0.025353247 0.005165893 -0.029812777 0.021043027 -0.0030969228 0.015193998
0.05819281 0.0178703 0.011176916 0.012557557 -0.06688731 -0.013152296 -0.018612266 -0.035138603
-0.020143744 0.0138921 -0.008111953 -0.005289179 0.035964493 -0.010624062 -0.062010594 0.008548395
-0.013330667 0.04366719 0.01127646 -0.02007838 -0.019040776 -0.023579255 -0.042983945 0.006557788
0.07080507 -0.021189272 0.004290199 -0.05763425 -0.0061870967 0.021752523 -0.012531043 -0.01921577
-0.0019583984 -0.015613995 -0.029363586 -0.04997769 0.017286014 -0.010985174 -0.011255759 -0.026089301
0.010764357 -0.0023403533 0.024061417 -0.0065307333 -0.033486106 -0.050068084 0.064815655 -0.017877467
-0.004987746 -0.021412594 -0.002815658 -0.010352047 -0.03577029 0.020992337 -0.0066441786 0.041266818
-0.014865474 0.011925562 -0.011968683 0.02058224 0.008154487 0.0028784988 0.005603853 -0.018310977
0.003387647 0.009139 0.019543445 -0.035918485 -0.009589952 -0.0067056883 -0.079550594 -0.006778872
0.021427006 0.021777157 -0.007004098 0.0033996778 0.0023444595 -0.0025361513 0.008412373 0.022156673
-0.0034642743 -0.03370304 -0.001226021 0.0017492523 -0.00286034 -0.012049163 0.0049022483 0.004888555
-0.008544206 -0.046883255 -0.00565563 -0.01026836 -0.018274313 -0.016247706 -0.018239895 -0.018702628
-0.011010898 -0.029491957 0.0020830838 -0.00030387283 0.014561214 0.008801875 0.021837559 -0.0057345154

attention_net.3.attention_c.weight f4 [2, 128]
00000000: 5dd2 893d bb90 ba3d 3725 36be bfcc d93b
00000010: f930 f9bc 38d8 603c cbbc 9fbd 9f72 1ebe
00000020: 6ed4 523e af87 84bd ba81 f03c 1304 223e
00000030: 2fc8 3e3c bfa4 58bc 1a94 3abe a938 4bbe
00000040: 535a 41bc 822f d33c 22e6 9d3b 362f 0e3e
00000050: ccb3 dcbd 0e08 af3c 6ca7 0d3d 629e 2b3e
00000060: 6b96 31bd bdbd 9a3d d90b 1b3e 2f55 b7bd
00000070: d7a1 e03b 58c6 bf3d 2641 58bd 6efe 64be
00000080: df18 1e3c 71ea 0e3e 39a4 103e 971c 803e
00000090: a2be d2bd e6f5 123e f564 963a d44f 86bd
000000a0: 392f bebb 7cd2 a4bd e913 893d 5501 2fbd
000000b0: c0a3 423d 5f9a cabc 29ea 073e 3886 aabd
000000c0: be55 3e3d 63b2 09be 06eb 90bd 2c28 383c
000000d0: d0e4 1b3e 808b b13d 5b7f 423e 843d 13be
000000e0: 09e9 4f3d 151a f53d 70a2 22bd 7afd 993d
000000f0: 3f49 bc3c c7f8 b8bb 21b2 f5bd bb23 e5bd
00000100: 524c 41bd 6302 00be 19ad 98bd bd10 49be
00000110: ed68 693b f359 12bd 8e2c 663d 5bf8 e5bb
00000120: 26c3 ab3d 9f6e ae3d 36b7 143e 21bd d1bb
00000130: d788 67bd 3bf9 cdbd 37c4 883d 3aac ebbc
00000140: 53fb 9cba f310 ec3d c7a6 6b3e 1947 04bd
00000150: 3d36 2ebe c438 be3d 477b cebc c8e0 853d
00000160: 06ef 1abc 7355 a9bc 1003 75be 0f43 d5bd
00000170: 6edd 3abc 102f 393e a83e 68bc 6167 98bd
00000180: 29d4 0abe 939b 4f3c 50c2 983d ef78 773e
00000190: 85b8 ffbb 4dbf 203c 99ec adbd 63ef 03be
000001a0: 352b 3d3c c84f 49be 531b 9bbd 9756 a13d
000001b0: 9269 05ba a3fe 2bbe c36c fdbd e920 44be
000001c0: 3dc3 0f3d 1947 b6bd aefa 00bd 0957 af3d
000001d0: 7a6c b33d d7af 6abd 7646 1ebe 447f 2b3d
000001e0: 99f5 ab3e fa6f b6bc 60f2 223e 6701 18bd
000001f0: 6dcf 23bd aea3 bfbd 9242 2e3e 59d7 e33d
00000200: 9bc5 a93b fce1 143d aa7a 9fbd 9ec1 413e
00000210: fb2f 02be 93e6 063d f7f2 c3bc 0ea5 22be
00000220: 0b0c 90bc 58c8 a03d af44 dcbb fb84 7bbd
00000230: 36f5 29bc b8e3 ef3d f9d2 9a3d 6d17 9e3d
00000240: 0461 8bbd 51a7 cabd 5d4c cc3d a681 023e
00000250: 2f3a dbbc d93d 843e 4309 253d 3aa3 1d3e
00000260: 6665 df3d 6b4d 2bbe c104 a8bc 5e88 17be
00000270: 8615 0cbb 82d1 67bd b40c 013e 5b2f 153e
00000280: e626 13bd a20e 6c3d a4f5 43be e328 fd3d
00000290: 2136 7fbe 055d 65be be9c 17bb bc3c 7fbd
000002a0: 25ed 0a3d 7ace 83bd 66b5 1fbd 5392 b7ba
000002b0: 432d e73d 12c3 153e 0b0e 4abb 2167 eabd
000002c0: 2835 eabd 49a1 8fbd 842c ff3d 1ea2 3cbc
000002d0: f381 003e 3f5c 843d ffdd 8abc 1d55 3f3d
000002e0: 0f28 e63a 49c8 77bd e67b 89bc 798c ed3b
000002f0: 61d5 bd3d 558e 4fbd 6b4d f93b 0b65 333c
00000300: 9b32 2e3e 2eb4 88bc 11c6 20be cd04 863e
00000310: 309a 34bd c9ee eabb ba7f 3fbe d9d8 dc3d
00000320: 3efa 7dbd 2b80 f6bd 8d57 96bd 9995 bfbd
00000330: 081d 4cbe 66ff 1f3e 2ca3 2ebe f799 f5bd
00000340: 06f1 30bd 5fad 69bd ea47 5e3c 1ea5 6ebd
00000350: ac04 52be 636c c93b bcf3 b73d 1473 e5bd
00000360: 738a 56bd a0ce 2abe 44a7 94bd 0c6b 1b3e
00000370: 8f2b da3d e3cf 153d 51c2 a8ba 92bb 13be
00000380: 0109 763d e05c eebd eb0b 2cbe 38a3 aebc
00000390: 2830 3dbe ffd1 6bbd 3c1c 983d 967d f23d
000003a0: 83cc 883d 9e3e 573d 6758 1e3d df87 aabb
000003b0: 1227 16bd 7cd2 9a3d 73ba 053e d392 9bbd
000003c0: a14c d6bb d9e9 aabc fb8b 013e 45a8 393e
000003d0: a13e 953b e3aa 053e 4761 f7bd 3461 a03e
000003e0: 5fea 553d 2f04 80ba 4d46 803d 8cec 933e
000003f0: 2a00 1dbe 32f9 dabd 6a0d 4fbe 34da 723d
0.06729577 0.091096364 -0.17787634 0.006646722 -0.03041886 0.013723426 -0.07799681 -0.15473412
0.20588848 -0.06471192 0.029358733 0.15821867 0.011644407 -0.013222872 -0.18220559 -0.19845833
-0.01180132 0.02577949 0.0048186937 0.13885197 -0.10776481 0.021366145 0.034583494 0.16759637
-0.04335634 0.07555721 0.15141238 -0.08951794 0.0068552303 0.09364003 -0.052796505 -0.22362682
0.009649484 0.1395662 0.14125146 0.25021812 -0.102902666 0.14351615 0.0011474179 -0.06558195
-0.005803969 -0.08047959 0.06693251 -0.04272588 0.047519445 -0.024731813 0.13272919 -0.083263814
0.04646849 -0.13446955 -0.07076077 0.0112400465 0.15224004 0.08669186 0.18993895 -0.14378935
0.05075935 0.119678654 -0.039705694 0.0751905 0.022984145 -0.005644891 -0.11996866 -0.11188456
-0.047191925 -0.1250091 -0.07454891 -0.19635291 0.003561552 -0.035730314 0.056194834 -0.0070181317
0.08386831 0.08517193 0.14523014 -0.0064007198 -0.056526985 -0.100573026 0.0667805 -0.028768647
-0.0011976756 0.1152667 0.2301284 -0.032294367 -0.17012878 0.09288171 -0.025205268 0.06537014
-0.009456402 -0.020670628 -0.2392695 -0.10413181 -0.011405332 0.18084359 -0.014175095 -0.07441593
-0.13557495 0.012671369 0.07458937 0.24167226 -0.007803979 0.009811235 -0.08492393 -0.12884288
0.011545946 -0.1965934 -0.07573571 0.07877844 -0.00050892786 -0.16796355 -0.1237426 -0.19153179
0.035098303 -0.089002796 -0.031489067 0.085615225 0.08760925 -0.0572966 -0.15456566 0.041869417
0.33585814 -0.022270191 0.15912771 -0.037110712 -0.03999274 -0.09357391 0.17017582 0.11125059
0.005181027 0.036348328 -0.07787068 0.18921515 -0.12713616 0.032934736 -0.023919566 -0.15883276
-0.017583868 0.078507125 -0.006722055 -0.061406117 -0.010373404 0.11713356 0.07559771 0.07719312
-0.06805614 -0.09895194 0.09975503 0.1274477 -0.026761143 0.25828436 0.040292036 0.15394297
0.10908012 -0.16728751 -0.02051008 -0.14798114 -0.0021375134 -0.056596287 0.12602502 0.14568846
-0.03592577 0.057631142 -0.19136673 0.12361314 -0.24922992 -0.22398765 -0.0023134197 -0.06231378
0.033917565 -0.06435867 -0.038991354 -0.00140054 0.1128793 0.14625195 -0.0030831124 -0.114454515
-0.1143592 -0.070131846 0.124596626 -0.011513261 0.12549572 0.06462907 -0.01695156 0.04671203
0.0017559546 -0.06049374 -0.016782712 0.0072494117 0.092692144 -0.050672848 0.007608106 0.0109493835
0.17011492 -0.016687479 -0.15700556 0.26175538 -0.044092357 -0.0071695787 -0.18701068 0.10783548
-0.062006228 -0.12036165 -0.07340918 -0.09354705 -0.1993295 0.1562477 -0.17054433 -0.11992257
-0.043198608 -0.057050105 0.01356695 -0.058262937 -0.20509595 0.006146954 0.089820355 -0.1120359
-0.05237813 -0.16680384 -0.07258466 0.15177554 0.106528394 0.03657521 -0.0012875294 -0.14427021
0.06006718 -0.11638808 -0.16801421 -0.021318063 -0.18475401 -0.057573315 0.0742726 0.1184036
0.066796325 0.05254995 0.038658526 -0.0052041854 -0.036658354 0.07559678 0.13059406 -0.07596364
-0.0065398966 -0.02086346 0.12651055 0.18130596 0.004554585 0.1305347 -0.12079101 0.3132416
0.052225467 -0.0009766872 0.06263409 0.28891408 -0.15332094 -0.106920615 -0.20219961 0.059290126

attention_net.3.attention_c.bias f4 [2]
00000000: 4235 87b9 3cfa 3239
-0.00025788887 0.00017068622

classifiers.0.weight f4 [1, 256]
00000000: fee3 b9bd 0b65 25bd b811 81bd ad27 243e
00000010: 89c7 633d a0f0 a8bc ae2e cebd abc3 0fbc
00000020: d976 b6bc fe1c c73c 7bca e3bd 96cc b03d
00000030: 01cf 333d ab07 8fbd 1de8 32bb 729b ae3d
00000040: 94bf 78bb f377 ffbc d20b 63bd 2c2e bcbd
00000050: 1ab7 2a3d 6f6c b73c e609 aebc 89ac a9bc
00000060: dac0 85be 5cb8 613c 5982 c13d 18fb 18be
00000070: 0b07 143e a26d 46bc d36a dfbd 132c b8bd
00000080: af27 563d 0d15 20be 4a2d 99bd fad5 5fbe
00000090: c8f4 18bd 4479 e43d 9db2 683e 10be 49be
000000a0: 4d1f 1c3e 2200 17be a231 ebbc 28d8 d2bd
000000b0: 0952 d9bb 31ac 003e d164 37bd 1797 6a3d
000000c0: 93c9 cbbd 41a5 4cbd f40f d4bd 239c 323d
000000d0: b5ea d33d 69a2 783d 463b fbbc c340 fdbd
000000e0: c414 893d 6592 813c 7c14 e63d 00a1 bc3d
000000f0: 0ea1 1ebd 1b50 ea3b ef1d 86bb 430c 4d3c
00000100: b8f4 b7bd 9edf 3e3d ac74 b43b 141d d6bb
00000110: 22fa 1abe d6ab 523d d23a 203e 66c0 6b3d
00000120: 4317 0fbe df88 b0bc 2295 24be c91f 533d
00000130: a21f 973b 8e91 82bb 1ad6 48bd 3f49 c13d
00000140: 248b 883d bd8e fc3d 98c6 e0bd 11ee 2d3c
00000150: f63f 05be 992f 5d3a 4a47 25bd ada2 063c
00000160: 2803 93bd d267 20be 14e1 1b3e 0b36 46be
00000170: 54c2 1fbd 1eba 36be df94 c03c 179c 443e
00000180: c33d 933d 964d cabd db9e 3ebe 2b51 073e
00000190: 8e59 1c3d c8e5 b23d 957c 563e 97fc edbc
000001a0: 8de2 e3bd 05cb 0a3e 7f8b 563d 5eda 91bd
000001b0: 5165 f3bc 1848 553d 2356 cf3d 21f8 9bbc
000001c0: 6e3e 68bc 9c1e ac3c eef9 8dbd d5d3 513d
000001d0: 00e1 1abe 4939 92bd 5b64 f03c d039 f8bd
000001e0: df67 0f3d 16b4 053d f00e d13b 1a87 32bc
000001f0: 8ca0 8a3d cdf2 d23b 2b17 9b3b 0292 2ebc
00000200: a31a 2abd 6184 debd d562 c3bd 601a ce3c
00000210: a857 923c 4b0a d7bd 84be ed3d 7bf8 1ebe
00000220: c8fc 9abc 4ccd 5b3d 2aa1 e4bc d923 e1bd
00000230: 71b7 d63c aa53 53bd 3e8d df3d 9943 00be
00000240: 4f83 3d3d 38db a43d 9941 dd3c e996 c13c
00000250: 5063 3d3d b650 ecbd 5de0 21be 5566 123c
00000260: 5703 823e 6f10 eebd 1060 9c3d a61c 513d
00000270: 5996 4dbd ad76 f53d c1f6 20be 3df4 2cbd
00000280: d502 cd3d 0519 353d 058f f43d 8eef 82bc
00000290: a207 403e 4ff0 663d 2d94 0d3e 3b01 81bd
000002a0: 579c 46bd 702f 85bd 7506 bf3d 28a3 dd3d
000002b0: caed 553d 3c11 bfbd 09f4 f43c c1fc f43b
000002c0: e7da 2d3c 4da6 633b 1b06 12bc 35d4 08be
000002d0: 4233 d13d a838 c03b 6a38 d13d 3424 353c
000002e0: abae 84be 3cd2 533d 7b59 173d b74b 113d
000002f0: d9d2 313e 8dfb 513d b099 80bc 9002 b2bb
00000300: 09d1 133e d61f 973d f2ba 2abe 46bd ea3d
00000310: 2aa0 9bbb ce71 17be bc32 fe3d 87c5 34be
00000320: a697 99bd e31b dd3c 0503 723d 1ab5 9ebd
00000330: bf1c 2b3d 1cf5 043c 3c7a 67bd 030e 093d
00000340: d51c d6bd 6102 183e 1e1f 0f3e 2955 05bd
00000350: 84d7 59bd 3c5e 5c3d f4ab 43bd 6431 ca3d
00000360: fe0b 83bd 05dc 85be 6570 8a3d f938 363d
00000370: 9c54 b03d 7a9f ebbb 7133 c2bc 2f2f f1bc
00000380: 9cbb afbb 66f5 0bbc 589b 53bd 6713 083e
00000390: 5ca6 f0bc 78e7 4a3d 3c39 2dbe ee35 54bd
000003a0: 1171 18bd c80c 3a3e 8f55 9c3c a513 093e
000003b0: c9a4 733d 9fee d33c b61a 563c 5807 1dbe
000003c0: f78c d2bd 033f fdbd fef3 ea3d b2b4 adbc
000003d0: 93cb 14ba ad95 84bd de4a 51bd 5266 73bc
000003e0: 0c52 e43d ce40 ce3c a66f 233d da2c 293d
000003f0: 6341 403d 6937 8bbe 64ab 0c3d 31b3 29be
-0.09076689 -0.040379565 -0.06302208 0.1603076 0.055610213 -0.020622551 -0.10067497 -0.008774678
-0.022273468 0.024305817 -0.111226045 0.08632772 0.043898586 -0.069838844 -0.0027298995 0.085257426
-0.0037955986 -0.031185126 -0.055431195 -0.09188494 0.041678526 0.022390572 -0.021244954 -0.020712154
-0.26123697 0.013776865 0.0944869 -0.14939535 0.14455812 -0.012111099 -0.10909047 -0.089927815
0.05228394 -0.1563303 -0.07479341 -0.2185897 -0.037342817 0.11155942 0.22724386 -0.1970141
0.15246315 -0.14746144 -0.02871019 -0.10295135 -0.006632094 0.12565686 -0.04477388 0.057272997
-0.099505566 -0.049962286 -0.10354605 0.043605935 0.10347501 0.06070176 -0.030667912 -0.12365868
0.06693414 0.015816877 0.11234376 0.09210396 -0.038727812 0.0071506626 -0.004092924 0.01251513
-0.08982223 0.046599977 0.0055070724 -0.006534228 -0.1513448 0.051433407 0.15647438 0.057556532
-0.13973717 -0.02154964 -0.16072515 0.051543985 0.004611925 -0.0039846366 -0.04903231 0.09437799
0.06667164 0.12331913 -0.10975379 0.0106158415 -0.1301268 0.00084375736 -0.04035119 0.008217496
-0.071783364 -0.15664604 0.15222579 -0.19356553 -0.039003685 -0.17844436 0.023508487 0.19200169
0.071895145 -0.098780796 -0.18615286 0.13214557 0.038171344 0.087352335 0.20945962 -0.029051108
-0.111271955 0.13554008 0.052379128 -0.07121728 -0.029711397 0.052070707 0.10123851 -0.019039216
-0.014175041 0.02101069 -0.06932436 0.05122741 -0.15124893 -0.071398325 0.029344728 -0.12120402
0.03501117 0.032642446 0.0063799545 -0.010896469 0.06768903 0.0064376355 0.0047329864 -0.010654928
-0.04152931 -0.10865093 -0.09540335 0.025159061 0.017864063 -0.1050001 0.116086036 -0.15524475
-0.018919364 0.053662583 -0.02790888 -0.109931655 0.026210519 -0.05159346 0.10915612 -0.12525786
0.046267804 0.08049625 0.027008818 0.02363153 0.04623729 -0.11538832 -0.15808244 0.008935531
0.25393173 -0.11624228 0.0763551 0.051052712 -0.05019221 0.11985526 -0.15719129 -0.04222511
0.10010306 0.044213314 0.11941341 -0.01598337 0.18752912 0.05638152 0.13826056 -0.06299063
-0.04848894 -0.065031886 0.093274035 0.10822135 0.052228726 -0.09329459 0.029901521 0.0074764197
0.010611272 0.0034736574 -0.0089125885 -0.133622 0.10214855 0.005866129 0.10215838 0.011055995
-0.2591451 0.051714167 0.03695057 0.035472598 0.17365588 0.05126529 -0.015698284 -0.0054324344
0.1443521 0.07379119 -0.16672876 0.11461882 -0.0047493177 -0.14789507 0.124120206 -0.17653476
-0.07499628 0.026990836 0.05908491 -0.07749386 0.04177546 0.008115079 -0.056513056 0.03346063
-0.10454718 0.14844657 0.13976714 -0.03255192 -0.053184047 0.053800806 -0.04777141 0.09872702
-0.06398772 -0.26144424 0.06759719 0.044487927 0.08609888 -0.007190642 -0.02370617 -0.029441444
-0.005362941 -0.008542394 -0.05166182 0.13288651 -0.029376201 0.049537152 -0.16916364 -0.051809244
-0.037217204 0.18168938 0.019083766 0.133864 0.059483323 0.02587062 0.013067892 -0.15334833
-0.10280793 -0.12365534 0.11472319 -0.021204326 -0.0005676087 -0.06473861 -0.05109679 -0.014855938
0.11148462 0.025177386 0.039901398 0.04130254 0.046937358 -0.27190712 0.03434314 -0.16572262
